{"keras_version": "2.1.2", "config": {"input_layers": [["input_1", 0, 0]], "layers": [{"inbound_nodes": [], "config": {"batch_input_shape": [null, 32, 32, 3], "sparse": false, "dtype": "float32", "name": "input_1"}, "name": "input_1", "class_name": "InputLayer"}, {"inbound_nodes": [[["input_1", 0, 0, {}]]], "config": {"kernel_regularizer": {"config": {"l2": 9.999999747378752e-05, "l1": 0.0}, "class_name": "L1L2"}, "trainable": true, "filters": 16, "bias_constraint": null, "activity_regularizer": null, "use_bias": true, "strides": [1, 1], "name": "conv2d_1", "activation": "linear", "bias_initializer": {"config": {}, "class_name": "Zeros"}, "padding": "same", "kernel_constraint": null, "data_format": "channels_last", "dilation_rate": [1, 1], "kernel_initializer": {"config": {"scale": 2.0, "mode": "fan_in", "distribution": "normal", "seed": null}, "class_name": "VarianceScaling"}, "kernel_size": [3, 3], "bias_regularizer": null}, "name": "conv2d_1", "class_name": "Conv2D"}, {"inbound_nodes": [[["conv2d_1", 0, 0, {}]]], "config": {"trainable": true, "axis": -1, "beta_initializer": {"config": {}, "class_name": "Zeros"}, "beta_constraint": null, "gamma_initializer": {"config": {}, "class_name": "Ones"}, "moving_variance_initializer": {"config": {}, "class_name": "Ones"}, "moving_mean_initializer": {"config": {}, "class_name": "Zeros"}, "name": "batch_normalization_1", "scale": true, "epsilon": 0.001, "center": true, "gamma_regularizer": null, "beta_regularizer": null, "momentum": 0.99, "gamma_constraint": null}, "name": "batch_normalization_1", "class_name": "BatchNormalization"}, {"inbound_nodes": [[["batch_normalization_1", 0, 0, {}]]], "config": {"activation": "relu", "trainable": true, "name": "activation_1"}, "name": "activation_1", "class_name": "Activation"}, {"inbound_nodes": [[["activation_1", 0, 0, {}]]], "config": {"kernel_regularizer": {"config": {"l2": 9.999999747378752e-05, "l1": 0.0}, "class_name": "L1L2"}, "trainable": true, "filters": 16, "bias_constraint": null, "activity_regularizer": null, "use_bias": true, "strides": [1, 1], "name": "conv2d_2", "activation": "linear", "bias_initializer": {"config": {}, "class_name": "Zeros"}, "padding": "same", "kernel_constraint": null, "data_format": "channels_last", "dilation_rate": [1, 1], "kernel_initializer": {"config": {"scale": 2.0, "mode": "fan_in", "distribution": "normal", "seed": null}, "class_name": "VarianceScaling"}, "kernel_size": [3, 3], "bias_regularizer": null}, "name": "conv2d_2", "class_name": "Conv2D"}, {"inbound_nodes": [[["conv2d_2", 0, 0, {}]]], "config": {"trainable": true, "axis": -1, "beta_initializer": {"config": {}, "class_name": "Zeros"}, "beta_constraint": null, "gamma_initializer": {"config": {}, "class_name": "Ones"}, "moving_variance_initializer": {"config": {}, "class_name": "Ones"}, "moving_mean_initializer": {"config": {}, "class_name": "Zeros"}, "name": "batch_normalization_2", "scale": true, "epsilon": 0.001, "center": true, "gamma_regularizer": null, "beta_regularizer": null, "momentum": 0.99, "gamma_constraint": null}, "name": "batch_normalization_2", "class_name": "BatchNormalization"}, {"inbound_nodes": [[["batch_normalization_2", 0, 0, {}]]], "config": {"activation": "relu", "trainable": true, "name": "activation_2"}, "name": "activation_2", "class_name": "Activation"}, {"inbound_nodes": [[["activation_2", 0, 0, {}]]], "config": {"kernel_regularizer": {"config": {"l2": 9.999999747378752e-05, "l1": 0.0}, "class_name": "L1L2"}, "trainable": true, "filters": 16, "bias_constraint": null, "activity_regularizer": null, "use_bias": true, "strides": [1, 1], "name": "conv2d_3", "activation": "linear", "bias_initializer": {"config": {}, "class_name": "Zeros"}, "padding": "same", "kernel_constraint": null, "data_format": "channels_last", "dilation_rate": [1, 1], "kernel_initializer": {"config": {"scale": 2.0, "mode": "fan_in", "distribution": "normal", "seed": null}, "class_name": "VarianceScaling"}, "kernel_size": [3, 3], "bias_regularizer": null}, "name": "conv2d_3", "class_name": "Conv2D"}, {"inbound_nodes": [[["conv2d_3", 0, 0, {}]]], "config": {"trainable": true, "axis": -1, "beta_initializer": {"config": {}, "class_name": "Zeros"}, "beta_constraint": null, "gamma_initializer": {"config": {}, "class_name": "Ones"}, "moving_variance_initializer": {"config": {}, "class_name": "Ones"}, "moving_mean_initializer": {"config": {}, "class_name": "Zeros"}, "name": "batch_normalization_3", "scale": true, "epsilon": 0.001, "center": true, "gamma_regularizer": null, "beta_regularizer": null, "momentum": 0.99, "gamma_constraint": null}, "name": "batch_normalization_3", "class_name": "BatchNormalization"}, {"inbound_nodes": [[["activation_1", 0, 0, {}], ["batch_normalization_3", 0, 0, {}]]], "config": {"trainable": true, "name": "add_1"}, "name": "add_1", "class_name": "Add"}, {"inbound_nodes": [[["add_1", 0, 0, {}]]], "config": {"activation": "relu", "trainable": true, "name": "activation_3"}, "name": "activation_3", "class_name": "Activation"}, {"inbound_nodes": [[["activation_3", 0, 0, {}]]], "config": {"kernel_regularizer": {"config": {"l2": 9.999999747378752e-05, "l1": 0.0}, "class_name": "L1L2"}, "trainable": true, "filters": 16, "bias_constraint": null, "activity_regularizer": null, "use_bias": true, "strides": [1, 1], "name": "conv2d_4", "activation": "linear", "bias_initializer": {"config": {}, "class_name": "Zeros"}, "padding": "same", "kernel_constraint": null, "data_format": "channels_last", "dilation_rate": [1, 1], "kernel_initializer": {"config": {"scale": 2.0, "mode": "fan_in", "distribution": "normal", "seed": null}, "class_name": "VarianceScaling"}, "kernel_size": [3, 3], "bias_regularizer": null}, "name": "conv2d_4", "class_name": "Conv2D"}, {"inbound_nodes": [[["conv2d_4", 0, 0, {}]]], "config": {"trainable": true, "axis": -1, "beta_initializer": {"config": {}, "class_name": "Zeros"}, "beta_constraint": null, "gamma_initializer": {"config": {}, "class_name": "Ones"}, "moving_variance_initializer": {"config": {}, "class_name": "Ones"}, "moving_mean_initializer": {"config": {}, "class_name": "Zeros"}, "name": "batch_normalization_4", "scale": true, "epsilon": 0.001, "center": true, "gamma_regularizer": null, "beta_regularizer": null, "momentum": 0.99, "gamma_constraint": null}, "name": "batch_normalization_4", "class_name": "BatchNormalization"}, {"inbound_nodes": [[["batch_normalization_4", 0, 0, {}]]], "config": {"activation": "relu", "trainable": true, "name": "activation_4"}, "name": "activation_4", "class_name": "Activation"}, {"inbound_nodes": [[["activation_4", 0, 0, {}]]], "config": {"kernel_regularizer": {"config": {"l2": 9.999999747378752e-05, "l1": 0.0}, "class_name": "L1L2"}, "trainable": true, "filters": 16, "bias_constraint": null, "activity_regularizer": null, "use_bias": true, "strides": [1, 1], "name": "conv2d_5", "activation": "linear", "bias_initializer": {"config": {}, "class_name": "Zeros"}, "padding": "same", "kernel_constraint": null, "data_format": "channels_last", "dilation_rate": [1, 1], "kernel_initializer": {"config": {"scale": 2.0, "mode": "fan_in", "distribution": "normal", "seed": null}, "class_name": "VarianceScaling"}, "kernel_size": [3, 3], "bias_regularizer": null}, "name": "conv2d_5", "class_name": "Conv2D"}, {"inbound_nodes": [[["conv2d_5", 0, 0, {}]]], "config": {"trainable": true, "axis": -1, "beta_initializer": {"config": {}, "class_name": "Zeros"}, "beta_constraint": null, "gamma_initializer": {"config": {}, "class_name": "Ones"}, "moving_variance_initializer": {"config": {}, "class_name": "Ones"}, "moving_mean_initializer": {"config": {}, "class_name": "Zeros"}, "name": "batch_normalization_5", "scale": true, "epsilon": 0.001, "center": true, "gamma_regularizer": null, "beta_regularizer": null, "momentum": 0.99, "gamma_constraint": null}, "name": "batch_normalization_5", "class_name": "BatchNormalization"}, {"inbound_nodes": [[["activation_3", 0, 0, {}], ["batch_normalization_5", 0, 0, {}]]], "config": {"trainable": true, "name": "add_2"}, "name": "add_2", "class_name": "Add"}, {"inbound_nodes": [[["add_2", 0, 0, {}]]], "config": {"activation": "relu", "trainable": true, "name": "activation_5"}, "name": "activation_5", "class_name": "Activation"}, {"inbound_nodes": [[["activation_5", 0, 0, {}]]], "config": {"kernel_regularizer": {"config": {"l2": 9.999999747378752e-05, "l1": 0.0}, "class_name": "L1L2"}, "trainable": true, "filters": 16, "bias_constraint": null, "activity_regularizer": null, "use_bias": true, "strides": [1, 1], "name": "conv2d_6", "activation": "linear", "bias_initializer": {"config": {}, "class_name": "Zeros"}, "padding": "same", "kernel_constraint": null, "data_format": "channels_last", "dilation_rate": [1, 1], "kernel_initializer": {"config": {"scale": 2.0, "mode": "fan_in", "distribution": "normal", "seed": null}, "class_name": "VarianceScaling"}, "kernel_size": [3, 3], "bias_regularizer": null}, "name": "conv2d_6", "class_name": "Conv2D"}, {"inbound_nodes": [[["conv2d_6", 0, 0, {}]]], "config": {"trainable": true, "axis": -1, "beta_initializer": {"config": {}, "class_name": "Zeros"}, "beta_constraint": null, "gamma_initializer": {"config": {}, "class_name": "Ones"}, "moving_variance_initializer": {"config": {}, "class_name": "Ones"}, "moving_mean_initializer": {"config": {}, "class_name": "Zeros"}, "name": "batch_normalization_6", "scale": true, "epsilon": 0.001, "center": true, "gamma_regularizer": null, "beta_regularizer": null, "momentum": 0.99, "gamma_constraint": null}, "name": "batch_normalization_6", "class_name": "BatchNormalization"}, {"inbound_nodes": [[["batch_normalization_6", 0, 0, {}]]], "config": {"activation": "relu", "trainable": true, "name": "activation_6"}, "name": "activation_6", "class_name": "Activation"}, {"inbound_nodes": [[["activation_6", 0, 0, {}]]], "config": {"kernel_regularizer": {"config": {"l2": 9.999999747378752e-05, "l1": 0.0}, "class_name": "L1L2"}, "trainable": true, "filters": 16, "bias_constraint": null, "activity_regularizer": null, "use_bias": true, "strides": [1, 1], "name": "conv2d_7", "activation": "linear", "bias_initializer": {"config": {}, "class_name": "Zeros"}, "padding": "same", "kernel_constraint": null, "data_format": "channels_last", "dilation_rate": [1, 1], "kernel_initializer": {"config": {"scale": 2.0, "mode": "fan_in", "distribution": "normal", "seed": null}, "class_name": "VarianceScaling"}, "kernel_size": [3, 3], "bias_regularizer": null}, "name": "conv2d_7", "class_name": "Conv2D"}, {"inbound_nodes": [[["conv2d_7", 0, 0, {}]]], "config": {"trainable": true, "axis": -1, "beta_initializer": {"config": {}, "class_name": "Zeros"}, "beta_constraint": null, "gamma_initializer": {"config": {}, "class_name": "Ones"}, "moving_variance_initializer": {"config": {}, "class_name": "Ones"}, "moving_mean_initializer": {"config": {}, "class_name": "Zeros"}, "name": "batch_normalization_7", "scale": true, "epsilon": 0.001, "center": true, "gamma_regularizer": null, "beta_regularizer": null, "momentum": 0.99, "gamma_constraint": null}, "name": "batch_normalization_7", "class_name": "BatchNormalization"}, {"inbound_nodes": [[["activation_5", 0, 0, {}], ["batch_normalization_7", 0, 0, {}]]], "config": {"trainable": true, "name": "add_3"}, "name": "add_3", "class_name": "Add"}, {"inbound_nodes": [[["add_3", 0, 0, {}]]], "config": {"activation": "relu", "trainable": true, "name": "activation_7"}, "name": "activation_7", "class_name": "Activation"}, {"inbound_nodes": [[["activation_7", 0, 0, {}]]], "config": {"kernel_regularizer": {"config": {"l2": 9.999999747378752e-05, "l1": 0.0}, "class_name": "L1L2"}, "trainable": true, "filters": 16, "bias_constraint": null, "activity_regularizer": null, "use_bias": true, "strides": [1, 1], "name": "conv2d_8", "activation": "linear", "bias_initializer": {"config": {}, "class_name": "Zeros"}, "padding": "same", "kernel_constraint": null, "data_format": "channels_last", "dilation_rate": [1, 1], "kernel_initializer": {"config": {"scale": 2.0, "mode": "fan_in", "distribution": "normal", "seed": null}, "class_name": "VarianceScaling"}, "kernel_size": [3, 3], "bias_regularizer": null}, "name": "conv2d_8", "class_name": "Conv2D"}, {"inbound_nodes": [[["conv2d_8", 0, 0, {}]]], "config": {"trainable": true, "axis": -1, "beta_initializer": {"config": {}, "class_name": "Zeros"}, "beta_constraint": null, "gamma_initializer": {"config": {}, "class_name": "Ones"}, "moving_variance_initializer": {"config": {}, "class_name": "Ones"}, "moving_mean_initializer": {"config": {}, "class_name": "Zeros"}, "name": "batch_normalization_8", "scale": true, "epsilon": 0.001, "center": true, "gamma_regularizer": null, "beta_regularizer": null, "momentum": 0.99, "gamma_constraint": null}, "name": "batch_normalization_8", "class_name": "BatchNormalization"}, {"inbound_nodes": [[["batch_normalization_8", 0, 0, {}]]], "config": {"activation": "relu", "trainable": true, "name": "activation_8"}, "name": "activation_8", "class_name": "Activation"}, {"inbound_nodes": [[["activation_8", 0, 0, {}]]], "config": {"kernel_regularizer": {"config": {"l2": 9.999999747378752e-05, "l1": 0.0}, "class_name": "L1L2"}, "trainable": true, "filters": 16, "bias_constraint": null, "activity_regularizer": null, "use_bias": true, "strides": [1, 1], "name": "conv2d_9", "activation": "linear", "bias_initializer": {"config": {}, "class_name": "Zeros"}, "padding": "same", "kernel_constraint": null, "data_format": "channels_last", "dilation_rate": [1, 1], "kernel_initializer": {"config": {"scale": 2.0, "mode": "fan_in", "distribution": "normal", "seed": null}, "class_name": "VarianceScaling"}, "kernel_size": [3, 3], "bias_regularizer": null}, "name": "conv2d_9", "class_name": "Conv2D"}, {"inbound_nodes": [[["conv2d_9", 0, 0, {}]]], "config": {"trainable": true, "axis": -1, "beta_initializer": {"config": {}, "class_name": "Zeros"}, "beta_constraint": null, "gamma_initializer": {"config": {}, "class_name": "Ones"}, "moving_variance_initializer": {"config": {}, "class_name": "Ones"}, "moving_mean_initializer": {"config": {}, "class_name": "Zeros"}, "name": "batch_normalization_9", "scale": true, "epsilon": 0.001, "center": true, "gamma_regularizer": null, "beta_regularizer": null, "momentum": 0.99, "gamma_constraint": null}, "name": "batch_normalization_9", "class_name": "BatchNormalization"}, {"inbound_nodes": [[["activation_7", 0, 0, {}], ["batch_normalization_9", 0, 0, {}]]], "config": {"trainable": true, "name": "add_4"}, "name": "add_4", "class_name": "Add"}, {"inbound_nodes": [[["add_4", 0, 0, {}]]], "config": {"activation": "relu", "trainable": true, "name": "activation_9"}, "name": "activation_9", "class_name": "Activation"}, {"inbound_nodes": [[["activation_9", 0, 0, {}]]], "config": {"kernel_regularizer": {"config": {"l2": 9.999999747378752e-05, "l1": 0.0}, "class_name": "L1L2"}, "trainable": true, "filters": 16, "bias_constraint": null, "activity_regularizer": null, "use_bias": true, "strides": [1, 1], "name": "conv2d_10", "activation": "linear", "bias_initializer": {"config": {}, "class_name": "Zeros"}, "padding": "same", "kernel_constraint": null, "data_format": "channels_last", "dilation_rate": [1, 1], "kernel_initializer": {"config": {"scale": 2.0, "mode": "fan_in", "distribution": "normal", "seed": null}, "class_name": "VarianceScaling"}, "kernel_size": [3, 3], "bias_regularizer": null}, "name": "conv2d_10", "class_name": "Conv2D"}, {"inbound_nodes": [[["conv2d_10", 0, 0, {}]]], "config": {"trainable": true, "axis": -1, "beta_initializer": {"config": {}, "class_name": "Zeros"}, "beta_constraint": null, "gamma_initializer": {"config": {}, "class_name": "Ones"}, "moving_variance_initializer": {"config": {}, "class_name": "Ones"}, "moving_mean_initializer": {"config": {}, "class_name": "Zeros"}, "name": "batch_normalization_10", "scale": true, "epsilon": 0.001, "center": true, "gamma_regularizer": null, "beta_regularizer": null, "momentum": 0.99, "gamma_constraint": null}, "name": "batch_normalization_10", "class_name": "BatchNormalization"}, {"inbound_nodes": [[["batch_normalization_10", 0, 0, {}]]], "config": {"activation": "relu", "trainable": true, "name": "activation_10"}, "name": "activation_10", "class_name": "Activation"}, {"inbound_nodes": [[["activation_10", 0, 0, {}]]], "config": {"kernel_regularizer": {"config": {"l2": 9.999999747378752e-05, "l1": 0.0}, "class_name": "L1L2"}, "trainable": true, "filters": 16, "bias_constraint": null, "activity_regularizer": null, "use_bias": true, "strides": [1, 1], "name": "conv2d_11", "activation": "linear", "bias_initializer": {"config": {}, "class_name": "Zeros"}, "padding": "same", "kernel_constraint": null, "data_format": "channels_last", "dilation_rate": [1, 1], "kernel_initializer": {"config": {"scale": 2.0, "mode": "fan_in", "distribution": "normal", "seed": null}, "class_name": "VarianceScaling"}, "kernel_size": [3, 3], "bias_regularizer": null}, "name": "conv2d_11", "class_name": "Conv2D"}, {"inbound_nodes": [[["conv2d_11", 0, 0, {}]]], "config": {"trainable": true, "axis": -1, "beta_initializer": {"config": {}, "class_name": "Zeros"}, "beta_constraint": null, "gamma_initializer": {"config": {}, "class_name": "Ones"}, "moving_variance_initializer": {"config": {}, "class_name": "Ones"}, "moving_mean_initializer": {"config": {}, "class_name": "Zeros"}, "name": "batch_normalization_11", "scale": true, "epsilon": 0.001, "center": true, "gamma_regularizer": null, "beta_regularizer": null, "momentum": 0.99, "gamma_constraint": null}, "name": "batch_normalization_11", "class_name": "BatchNormalization"}, {"inbound_nodes": [[["activation_9", 0, 0, {}], ["batch_normalization_11", 0, 0, {}]]], "config": {"trainable": true, "name": "add_5"}, "name": "add_5", "class_name": "Add"}, {"inbound_nodes": [[["add_5", 0, 0, {}]]], "config": {"activation": "relu", "trainable": true, "name": "activation_11"}, "name": "activation_11", "class_name": "Activation"}, {"inbound_nodes": [[["activation_11", 0, 0, {}]]], "config": {"kernel_regularizer": {"config": {"l2": 9.999999747378752e-05, "l1": 0.0}, "class_name": "L1L2"}, "trainable": true, "filters": 16, "bias_constraint": null, "activity_regularizer": null, "use_bias": true, "strides": [1, 1], "name": "conv2d_12", "activation": "linear", "bias_initializer": {"config": {}, "class_name": "Zeros"}, "padding": "same", "kernel_constraint": null, "data_format": "channels_last", "dilation_rate": [1, 1], "kernel_initializer": {"config": {"scale": 2.0, "mode": "fan_in", "distribution": "normal", "seed": null}, "class_name": "VarianceScaling"}, "kernel_size": [3, 3], "bias_regularizer": null}, "name": "conv2d_12", "class_name": "Conv2D"}, {"inbound_nodes": [[["conv2d_12", 0, 0, {}]]], "config": {"trainable": true, "axis": -1, "beta_initializer": {"config": {}, "class_name": "Zeros"}, "beta_constraint": null, "gamma_initializer": {"config": {}, "class_name": "Ones"}, "moving_variance_initializer": {"config": {}, "class_name": "Ones"}, "moving_mean_initializer": {"config": {}, "class_name": "Zeros"}, "name": "batch_normalization_12", "scale": true, "epsilon": 0.001, "center": true, "gamma_regularizer": null, "beta_regularizer": null, "momentum": 0.99, "gamma_constraint": null}, "name": "batch_normalization_12", "class_name": "BatchNormalization"}, {"inbound_nodes": [[["batch_normalization_12", 0, 0, {}]]], "config": {"activation": "relu", "trainable": true, "name": "activation_12"}, "name": "activation_12", "class_name": "Activation"}, {"inbound_nodes": [[["activation_12", 0, 0, {}]]], "config": {"kernel_regularizer": {"config": {"l2": 9.999999747378752e-05, "l1": 0.0}, "class_name": "L1L2"}, "trainable": true, "filters": 16, "bias_constraint": null, "activity_regularizer": null, "use_bias": true, "strides": [1, 1], "name": "conv2d_13", "activation": "linear", "bias_initializer": {"config": {}, "class_name": "Zeros"}, "padding": "same", "kernel_constraint": null, "data_format": "channels_last", "dilation_rate": [1, 1], "kernel_initializer": {"config": {"scale": 2.0, "mode": "fan_in", "distribution": "normal", "seed": null}, "class_name": "VarianceScaling"}, "kernel_size": [3, 3], "bias_regularizer": null}, "name": "conv2d_13", "class_name": "Conv2D"}, {"inbound_nodes": [[["conv2d_13", 0, 0, {}]]], "config": {"trainable": true, "axis": -1, "beta_initializer": {"config": {}, "class_name": "Zeros"}, "beta_constraint": null, "gamma_initializer": {"config": {}, "class_name": "Ones"}, "moving_variance_initializer": {"config": {}, "class_name": "Ones"}, "moving_mean_initializer": {"config": {}, "class_name": "Zeros"}, "name": "batch_normalization_13", "scale": true, "epsilon": 0.001, "center": true, "gamma_regularizer": null, "beta_regularizer": null, "momentum": 0.99, "gamma_constraint": null}, "name": "batch_normalization_13", "class_name": "BatchNormalization"}, {"inbound_nodes": [[["activation_11", 0, 0, {}], ["batch_normalization_13", 0, 0, {}]]], "config": {"trainable": true, "name": "add_6"}, "name": "add_6", "class_name": "Add"}, {"inbound_nodes": [[["add_6", 0, 0, {}]]], "config": {"activation": "relu", "trainable": true, "name": "activation_13"}, "name": "activation_13", "class_name": "Activation"}, {"inbound_nodes": [[["activation_13", 0, 0, {}]]], "config": {"kernel_regularizer": {"config": {"l2": 9.999999747378752e-05, "l1": 0.0}, "class_name": "L1L2"}, "trainable": true, "filters": 16, "bias_constraint": null, "activity_regularizer": null, "use_bias": true, "strides": [1, 1], "name": "conv2d_14", "activation": "linear", "bias_initializer": {"config": {}, "class_name": "Zeros"}, "padding": "same", "kernel_constraint": null, "data_format": "channels_last", "dilation_rate": [1, 1], "kernel_initializer": {"config": {"scale": 2.0, "mode": "fan_in", "distribution": "normal", "seed": null}, "class_name": "VarianceScaling"}, "kernel_size": [3, 3], "bias_regularizer": null}, "name": "conv2d_14", "class_name": "Conv2D"}, {"inbound_nodes": [[["conv2d_14", 0, 0, {}]]], "config": {"trainable": true, "axis": -1, "beta_initializer": {"config": {}, "class_name": "Zeros"}, "beta_constraint": null, "gamma_initializer": {"config": {}, "class_name": "Ones"}, "moving_variance_initializer": {"config": {}, "class_name": "Ones"}, "moving_mean_initializer": {"config": {}, "class_name": "Zeros"}, "name": "batch_normalization_14", "scale": true, "epsilon": 0.001, "center": true, "gamma_regularizer": null, "beta_regularizer": null, "momentum": 0.99, "gamma_constraint": null}, "name": "batch_normalization_14", "class_name": "BatchNormalization"}, {"inbound_nodes": [[["batch_normalization_14", 0, 0, {}]]], "config": {"activation": "relu", "trainable": true, "name": "activation_14"}, "name": "activation_14", "class_name": "Activation"}, {"inbound_nodes": [[["activation_14", 0, 0, {}]]], "config": {"kernel_regularizer": {"config": {"l2": 9.999999747378752e-05, "l1": 0.0}, "class_name": "L1L2"}, "trainable": true, "filters": 16, "bias_constraint": null, "activity_regularizer": null, "use_bias": true, "strides": [1, 1], "name": "conv2d_15", "activation": "linear", "bias_initializer": {"config": {}, "class_name": "Zeros"}, "padding": "same", "kernel_constraint": null, "data_format": "channels_last", "dilation_rate": [1, 1], "kernel_initializer": {"config": {"scale": 2.0, "mode": "fan_in", "distribution": "normal", "seed": null}, "class_name": "VarianceScaling"}, "kernel_size": [3, 3], "bias_regularizer": null}, "name": "conv2d_15", "class_name": "Conv2D"}, {"inbound_nodes": [[["conv2d_15", 0, 0, {}]]], "config": {"trainable": true, "axis": -1, "beta_initializer": {"config": {}, "class_name": "Zeros"}, "beta_constraint": null, "gamma_initializer": {"config": {}, "class_name": "Ones"}, "moving_variance_initializer": {"config": {}, "class_name": "Ones"}, "moving_mean_initializer": {"config": {}, "class_name": "Zeros"}, "name": "batch_normalization_15", "scale": true, "epsilon": 0.001, "center": true, "gamma_regularizer": null, "beta_regularizer": null, "momentum": 0.99, "gamma_constraint": null}, "name": "batch_normalization_15", "class_name": "BatchNormalization"}, {"inbound_nodes": [[["activation_13", 0, 0, {}], ["batch_normalization_15", 0, 0, {}]]], "config": {"trainable": true, "name": "add_7"}, "name": "add_7", "class_name": "Add"}, {"inbound_nodes": [[["add_7", 0, 0, {}]]], "config": {"activation": "relu", "trainable": true, "name": "activation_15"}, "name": "activation_15", "class_name": "Activation"}, {"inbound_nodes": [[["activation_15", 0, 0, {}]]], "config": {"kernel_regularizer": {"config": {"l2": 9.999999747378752e-05, "l1": 0.0}, "class_name": "L1L2"}, "trainable": true, "filters": 16, "bias_constraint": null, "activity_regularizer": null, "use_bias": true, "strides": [1, 1], "name": "conv2d_16", "activation": "linear", "bias_initializer": {"config": {}, "class_name": "Zeros"}, "padding": "same", "kernel_constraint": null, "data_format": "channels_last", "dilation_rate": [1, 1], "kernel_initializer": {"config": {"scale": 2.0, "mode": "fan_in", "distribution": "normal", "seed": null}, "class_name": "VarianceScaling"}, "kernel_size": [3, 3], "bias_regularizer": null}, "name": "conv2d_16", "class_name": "Conv2D"}, {"inbound_nodes": [[["conv2d_16", 0, 0, {}]]], "config": {"trainable": true, "axis": -1, "beta_initializer": {"config": {}, "class_name": "Zeros"}, "beta_constraint": null, "gamma_initializer": {"config": {}, "class_name": "Ones"}, "moving_variance_initializer": {"config": {}, "class_name": "Ones"}, "moving_mean_initializer": {"config": {}, "class_name": "Zeros"}, "name": "batch_normalization_16", "scale": true, "epsilon": 0.001, "center": true, "gamma_regularizer": null, "beta_regularizer": null, "momentum": 0.99, "gamma_constraint": null}, "name": "batch_normalization_16", "class_name": "BatchNormalization"}, {"inbound_nodes": [[["batch_normalization_16", 0, 0, {}]]], "config": {"activation": "relu", "trainable": true, "name": "activation_16"}, "name": "activation_16", "class_name": "Activation"}, {"inbound_nodes": [[["activation_16", 0, 0, {}]]], "config": {"kernel_regularizer": {"config": {"l2": 9.999999747378752e-05, "l1": 0.0}, "class_name": "L1L2"}, "trainable": true, "filters": 16, "bias_constraint": null, "activity_regularizer": null, "use_bias": true, "strides": [1, 1], "name": "conv2d_17", "activation": "linear", "bias_initializer": {"config": {}, "class_name": "Zeros"}, "padding": "same", "kernel_constraint": null, "data_format": "channels_last", "dilation_rate": [1, 1], "kernel_initializer": {"config": {"scale": 2.0, "mode": "fan_in", "distribution": "normal", "seed": null}, "class_name": "VarianceScaling"}, "kernel_size": [3, 3], "bias_regularizer": null}, "name": "conv2d_17", "class_name": "Conv2D"}, {"inbound_nodes": [[["conv2d_17", 0, 0, {}]]], "config": {"trainable": true, "axis": -1, "beta_initializer": {"config": {}, "class_name": "Zeros"}, "beta_constraint": null, "gamma_initializer": {"config": {}, "class_name": "Ones"}, "moving_variance_initializer": {"config": {}, "class_name": "Ones"}, "moving_mean_initializer": {"config": {}, "class_name": "Zeros"}, "name": "batch_normalization_17", "scale": true, "epsilon": 0.001, "center": true, "gamma_regularizer": null, "beta_regularizer": null, "momentum": 0.99, "gamma_constraint": null}, "name": "batch_normalization_17", "class_name": "BatchNormalization"}, {"inbound_nodes": [[["activation_15", 0, 0, {}], ["batch_normalization_17", 0, 0, {}]]], "config": {"trainable": true, "name": "add_8"}, "name": "add_8", "class_name": "Add"}, {"inbound_nodes": [[["add_8", 0, 0, {}]]], "config": {"activation": "relu", "trainable": true, "name": "activation_17"}, "name": "activation_17", "class_name": "Activation"}, {"inbound_nodes": [[["activation_17", 0, 0, {}]]], "config": {"kernel_regularizer": {"config": {"l2": 9.999999747378752e-05, "l1": 0.0}, "class_name": "L1L2"}, "trainable": true, "filters": 16, "bias_constraint": null, "activity_regularizer": null, "use_bias": true, "strides": [1, 1], "name": "conv2d_18", "activation": "linear", "bias_initializer": {"config": {}, "class_name": "Zeros"}, "padding": "same", "kernel_constraint": null, "data_format": "channels_last", "dilation_rate": [1, 1], "kernel_initializer": {"config": {"scale": 2.0, "mode": "fan_in", "distribution": "normal", "seed": null}, "class_name": "VarianceScaling"}, "kernel_size": [3, 3], "bias_regularizer": null}, "name": "conv2d_18", "class_name": "Conv2D"}, {"inbound_nodes": [[["conv2d_18", 0, 0, {}]]], "config": {"trainable": true, "axis": -1, "beta_initializer": {"config": {}, "class_name": "Zeros"}, "beta_constraint": null, "gamma_initializer": {"config": {}, "class_name": "Ones"}, "moving_variance_initializer": {"config": {}, "class_name": "Ones"}, "moving_mean_initializer": {"config": {}, "class_name": "Zeros"}, "name": "batch_normalization_18", "scale": true, "epsilon": 0.001, "center": true, "gamma_regularizer": null, "beta_regularizer": null, "momentum": 0.99, "gamma_constraint": null}, "name": "batch_normalization_18", "class_name": "BatchNormalization"}, {"inbound_nodes": [[["batch_normalization_18", 0, 0, {}]]], "config": {"activation": "relu", "trainable": true, "name": "activation_18"}, "name": "activation_18", "class_name": "Activation"}, {"inbound_nodes": [[["activation_18", 0, 0, {}]]], "config": {"kernel_regularizer": {"config": {"l2": 9.999999747378752e-05, "l1": 0.0}, "class_name": "L1L2"}, "trainable": true, "filters": 16, "bias_constraint": null, "activity_regularizer": null, "use_bias": true, "strides": [1, 1], "name": "conv2d_19", "activation": "linear", "bias_initializer": {"config": {}, "class_name": "Zeros"}, "padding": "same", "kernel_constraint": null, "data_format": "channels_last", "dilation_rate": [1, 1], "kernel_initializer": {"config": {"scale": 2.0, "mode": "fan_in", "distribution": "normal", "seed": null}, "class_name": "VarianceScaling"}, "kernel_size": [3, 3], "bias_regularizer": null}, "name": "conv2d_19", "class_name": "Conv2D"}, {"inbound_nodes": [[["conv2d_19", 0, 0, {}]]], "config": {"trainable": true, "axis": -1, "beta_initializer": {"config": {}, "class_name": "Zeros"}, "beta_constraint": null, "gamma_initializer": {"config": {}, "class_name": "Ones"}, "moving_variance_initializer": {"config": {}, "class_name": "Ones"}, "moving_mean_initializer": {"config": {}, "class_name": "Zeros"}, "name": "batch_normalization_19", "scale": true, "epsilon": 0.001, "center": true, "gamma_regularizer": null, "beta_regularizer": null, "momentum": 0.99, "gamma_constraint": null}, "name": "batch_normalization_19", "class_name": "BatchNormalization"}, {"inbound_nodes": [[["activation_17", 0, 0, {}], ["batch_normalization_19", 0, 0, {}]]], "config": {"trainable": true, "name": "add_9"}, "name": "add_9", "class_name": "Add"}, {"inbound_nodes": [[["add_9", 0, 0, {}]]], "config": {"activation": "relu", "trainable": true, "name": "activation_19"}, "name": "activation_19", "class_name": "Activation"}, {"inbound_nodes": [[["activation_19", 0, 0, {}]]], "config": {"kernel_regularizer": {"config": {"l2": 9.999999747378752e-05, "l1": 0.0}, "class_name": "L1L2"}, "trainable": true, "filters": 32, "bias_constraint": null, "activity_regularizer": null, "use_bias": true, "strides": [2, 2], "name": "conv2d_20", "activation": "linear", "bias_initializer": {"config": {}, "class_name": "Zeros"}, "padding": "same", "kernel_constraint": null, "data_format": "channels_last", "dilation_rate": [1, 1], "kernel_initializer": {"config": {"scale": 2.0, "mode": "fan_in", "distribution": "normal", "seed": null}, "class_name": "VarianceScaling"}, "kernel_size": [3, 3], "bias_regularizer": null}, "name": "conv2d_20", "class_name": "Conv2D"}, {"inbound_nodes": [[["conv2d_20", 0, 0, {}]]], "config": {"trainable": true, "axis": -1, "beta_initializer": {"config": {}, "class_name": "Zeros"}, "beta_constraint": null, "gamma_initializer": {"config": {}, "class_name": "Ones"}, "moving_variance_initializer": {"config": {}, "class_name": "Ones"}, "moving_mean_initializer": {"config": {}, "class_name": "Zeros"}, "name": "batch_normalization_20", "scale": true, "epsilon": 0.001, "center": true, "gamma_regularizer": null, "beta_regularizer": null, "momentum": 0.99, "gamma_constraint": null}, "name": "batch_normalization_20", "class_name": "BatchNormalization"}, {"inbound_nodes": [[["batch_normalization_20", 0, 0, {}]]], "config": {"activation": "relu", "trainable": true, "name": "activation_20"}, "name": "activation_20", "class_name": "Activation"}, {"inbound_nodes": [[["activation_20", 0, 0, {}]]], "config": {"kernel_regularizer": {"config": {"l2": 9.999999747378752e-05, "l1": 0.0}, "class_name": "L1L2"}, "trainable": true, "filters": 32, "bias_constraint": null, "activity_regularizer": null, "use_bias": true, "strides": [1, 1], "name": "conv2d_21", "activation": "linear", "bias_initializer": {"config": {}, "class_name": "Zeros"}, "padding": "same", "kernel_constraint": null, "data_format": "channels_last", "dilation_rate": [1, 1], "kernel_initializer": {"config": {"scale": 2.0, "mode": "fan_in", "distribution": "normal", "seed": null}, "class_name": "VarianceScaling"}, "kernel_size": [3, 3], "bias_regularizer": null}, "name": "conv2d_21", "class_name": "Conv2D"}, {"inbound_nodes": [[["activation_19", 0, 0, {}]]], "config": {"kernel_regularizer": {"config": {"l2": 9.999999747378752e-05, "l1": 0.0}, "class_name": "L1L2"}, "trainable": true, "filters": 32, "bias_constraint": null, "activity_regularizer": null, "use_bias": true, "strides": [2, 2], "name": "conv2d_22", "activation": "linear", "bias_initializer": {"config": {}, "class_name": "Zeros"}, "padding": "same", "kernel_constraint": null, "data_format": "channels_last", "dilation_rate": [1, 1], "kernel_initializer": {"config": {"scale": 2.0, "mode": "fan_in", "distribution": "normal", "seed": null}, "class_name": "VarianceScaling"}, "kernel_size": [1, 1], "bias_regularizer": null}, "name": "conv2d_22", "class_name": "Conv2D"}, {"inbound_nodes": [[["conv2d_21", 0, 0, {}]]], "config": {"trainable": true, "axis": -1, "beta_initializer": {"config": {}, "class_name": "Zeros"}, "beta_constraint": null, "gamma_initializer": {"config": {}, "class_name": "Ones"}, "moving_variance_initializer": {"config": {}, "class_name": "Ones"}, "moving_mean_initializer": {"config": {}, "class_name": "Zeros"}, "name": "batch_normalization_21", "scale": true, "epsilon": 0.001, "center": true, "gamma_regularizer": null, "beta_regularizer": null, "momentum": 0.99, "gamma_constraint": null}, "name": "batch_normalization_21", "class_name": "BatchNormalization"}, {"inbound_nodes": [[["conv2d_22", 0, 0, {}], ["batch_normalization_21", 0, 0, {}]]], "config": {"trainable": true, "name": "add_10"}, "name": "add_10", "class_name": "Add"}, {"inbound_nodes": [[["add_10", 0, 0, {}]]], "config": {"activation": "relu", "trainable": true, "name": "activation_21"}, "name": "activation_21", "class_name": "Activation"}, {"inbound_nodes": [[["activation_21", 0, 0, {}]]], "config": {"kernel_regularizer": {"config": {"l2": 9.999999747378752e-05, "l1": 0.0}, "class_name": "L1L2"}, "trainable": true, "filters": 32, "bias_constraint": null, "activity_regularizer": null, "use_bias": true, "strides": [1, 1], "name": "conv2d_23", "activation": "linear", "bias_initializer": {"config": {}, "class_name": "Zeros"}, "padding": "same", "kernel_constraint": null, "data_format": "channels_last", "dilation_rate": [1, 1], "kernel_initializer": {"config": {"scale": 2.0, "mode": "fan_in", "distribution": "normal", "seed": null}, "class_name": "VarianceScaling"}, "kernel_size": [3, 3], "bias_regularizer": null}, "name": "conv2d_23", "class_name": "Conv2D"}, {"inbound_nodes": [[["conv2d_23", 0, 0, {}]]], "config": {"trainable": true, "axis": -1, "beta_initializer": {"config": {}, "class_name": "Zeros"}, "beta_constraint": null, "gamma_initializer": {"config": {}, "class_name": "Ones"}, "moving_variance_initializer": {"config": {}, "class_name": "Ones"}, "moving_mean_initializer": {"config": {}, "class_name": "Zeros"}, "name": "batch_normalization_22", "scale": true, "epsilon": 0.001, "center": true, "gamma_regularizer": null, "beta_regularizer": null, "momentum": 0.99, "gamma_constraint": null}, "name": "batch_normalization_22", "class_name": "BatchNormalization"}, {"inbound_nodes": [[["batch_normalization_22", 0, 0, {}]]], "config": {"activation": "relu", "trainable": true, "name": "activation_22"}, "name": "activation_22", "class_name": "Activation"}, {"inbound_nodes": [[["activation_22", 0, 0, {}]]], "config": {"kernel_regularizer": {"config": {"l2": 9.999999747378752e-05, "l1": 0.0}, "class_name": "L1L2"}, "trainable": true, "filters": 32, "bias_constraint": null, "activity_regularizer": null, "use_bias": true, "strides": [1, 1], "name": "conv2d_24", "activation": "linear", "bias_initializer": {"config": {}, "class_name": "Zeros"}, "padding": "same", "kernel_constraint": null, "data_format": "channels_last", "dilation_rate": [1, 1], "kernel_initializer": {"config": {"scale": 2.0, "mode": "fan_in", "distribution": "normal", "seed": null}, "class_name": "VarianceScaling"}, "kernel_size": [3, 3], "bias_regularizer": null}, "name": "conv2d_24", "class_name": "Conv2D"}, {"inbound_nodes": [[["conv2d_24", 0, 0, {}]]], "config": {"trainable": true, "axis": -1, "beta_initializer": {"config": {}, "class_name": "Zeros"}, "beta_constraint": null, "gamma_initializer": {"config": {}, "class_name": "Ones"}, "moving_variance_initializer": {"config": {}, "class_name": "Ones"}, "moving_mean_initializer": {"config": {}, "class_name": "Zeros"}, "name": "batch_normalization_23", "scale": true, "epsilon": 0.001, "center": true, "gamma_regularizer": null, "beta_regularizer": null, "momentum": 0.99, "gamma_constraint": null}, "name": "batch_normalization_23", "class_name": "BatchNormalization"}, {"inbound_nodes": [[["activation_21", 0, 0, {}], ["batch_normalization_23", 0, 0, {}]]], "config": {"trainable": true, "name": "add_11"}, "name": "add_11", "class_name": "Add"}, {"inbound_nodes": [[["add_11", 0, 0, {}]]], "config": {"activation": "relu", "trainable": true, "name": "activation_23"}, "name": "activation_23", "class_name": "Activation"}, {"inbound_nodes": [[["activation_23", 0, 0, {}]]], "config": {"kernel_regularizer": {"config": {"l2": 9.999999747378752e-05, "l1": 0.0}, "class_name": "L1L2"}, "trainable": true, "filters": 32, "bias_constraint": null, "activity_regularizer": null, "use_bias": true, "strides": [1, 1], "name": "conv2d_25", "activation": "linear", "bias_initializer": {"config": {}, "class_name": "Zeros"}, "padding": "same", "kernel_constraint": null, "data_format": "channels_last", "dilation_rate": [1, 1], "kernel_initializer": {"config": {"scale": 2.0, "mode": "fan_in", "distribution": "normal", "seed": null}, "class_name": "VarianceScaling"}, "kernel_size": [3, 3], "bias_regularizer": null}, "name": "conv2d_25", "class_name": "Conv2D"}, {"inbound_nodes": [[["conv2d_25", 0, 0, {}]]], "config": {"trainable": true, "axis": -1, "beta_initializer": {"config": {}, "class_name": "Zeros"}, "beta_constraint": null, "gamma_initializer": {"config": {}, "class_name": "Ones"}, "moving_variance_initializer": {"config": {}, "class_name": "Ones"}, "moving_mean_initializer": {"config": {}, "class_name": "Zeros"}, "name": "batch_normalization_24", "scale": true, "epsilon": 0.001, "center": true, "gamma_regularizer": null, "beta_regularizer": null, "momentum": 0.99, "gamma_constraint": null}, "name": "batch_normalization_24", "class_name": "BatchNormalization"}, {"inbound_nodes": [[["batch_normalization_24", 0, 0, {}]]], "config": {"activation": "relu", "trainable": true, "name": "activation_24"}, "name": "activation_24", "class_name": "Activation"}, {"inbound_nodes": [[["activation_24", 0, 0, {}]]], "config": {"kernel_regularizer": {"config": {"l2": 9.999999747378752e-05, "l1": 0.0}, "class_name": "L1L2"}, "trainable": true, "filters": 32, "bias_constraint": null, "activity_regularizer": null, "use_bias": true, "strides": [1, 1], "name": "conv2d_26", "activation": "linear", "bias_initializer": {"config": {}, "class_name": "Zeros"}, "padding": "same", "kernel_constraint": null, "data_format": "channels_last", "dilation_rate": [1, 1], "kernel_initializer": {"config": {"scale": 2.0, "mode": "fan_in", "distribution": "normal", "seed": null}, "class_name": "VarianceScaling"}, "kernel_size": [3, 3], "bias_regularizer": null}, "name": "conv2d_26", "class_name": "Conv2D"}, {"inbound_nodes": [[["conv2d_26", 0, 0, {}]]], "config": {"trainable": true, "axis": -1, "beta_initializer": {"config": {}, "class_name": "Zeros"}, "beta_constraint": null, "gamma_initializer": {"config": {}, "class_name": "Ones"}, "moving_variance_initializer": {"config": {}, "class_name": "Ones"}, "moving_mean_initializer": {"config": {}, "class_name": "Zeros"}, "name": "batch_normalization_25", "scale": true, "epsilon": 0.001, "center": true, "gamma_regularizer": null, "beta_regularizer": null, "momentum": 0.99, "gamma_constraint": null}, "name": "batch_normalization_25", "class_name": "BatchNormalization"}, {"inbound_nodes": [[["activation_23", 0, 0, {}], ["batch_normalization_25", 0, 0, {}]]], "config": {"trainable": true, "name": "add_12"}, "name": "add_12", "class_name": "Add"}, {"inbound_nodes": [[["add_12", 0, 0, {}]]], "config": {"activation": "relu", "trainable": true, "name": "activation_25"}, "name": "activation_25", "class_name": "Activation"}, {"inbound_nodes": [[["activation_25", 0, 0, {}]]], "config": {"kernel_regularizer": {"config": {"l2": 9.999999747378752e-05, "l1": 0.0}, "class_name": "L1L2"}, "trainable": true, "filters": 32, "bias_constraint": null, "activity_regularizer": null, "use_bias": true, "strides": [1, 1], "name": "conv2d_27", "activation": "linear", "bias_initializer": {"config": {}, "class_name": "Zeros"}, "padding": "same", "kernel_constraint": null, "data_format": "channels_last", "dilation_rate": [1, 1], "kernel_initializer": {"config": {"scale": 2.0, "mode": "fan_in", "distribution": "normal", "seed": null}, "class_name": "VarianceScaling"}, "kernel_size": [3, 3], "bias_regularizer": null}, "name": "conv2d_27", "class_name": "Conv2D"}, {"inbound_nodes": [[["conv2d_27", 0, 0, {}]]], "config": {"trainable": true, "axis": -1, "beta_initializer": {"config": {}, "class_name": "Zeros"}, "beta_constraint": null, "gamma_initializer": {"config": {}, "class_name": "Ones"}, "moving_variance_initializer": {"config": {}, "class_name": "Ones"}, "moving_mean_initializer": {"config": {}, "class_name": "Zeros"}, "name": "batch_normalization_26", "scale": true, "epsilon": 0.001, "center": true, "gamma_regularizer": null, "beta_regularizer": null, "momentum": 0.99, "gamma_constraint": null}, "name": "batch_normalization_26", "class_name": "BatchNormalization"}, {"inbound_nodes": [[["batch_normalization_26", 0, 0, {}]]], "config": {"activation": "relu", "trainable": true, "name": "activation_26"}, "name": "activation_26", "class_name": "Activation"}, {"inbound_nodes": [[["activation_26", 0, 0, {}]]], "config": {"kernel_regularizer": {"config": {"l2": 9.999999747378752e-05, "l1": 0.0}, "class_name": "L1L2"}, "trainable": true, "filters": 32, "bias_constraint": null, "activity_regularizer": null, "use_bias": true, "strides": [1, 1], "name": "conv2d_28", "activation": "linear", "bias_initializer": {"config": {}, "class_name": "Zeros"}, "padding": "same", "kernel_constraint": null, "data_format": "channels_last", "dilation_rate": [1, 1], "kernel_initializer": {"config": {"scale": 2.0, "mode": "fan_in", "distribution": "normal", "seed": null}, "class_name": "VarianceScaling"}, "kernel_size": [3, 3], "bias_regularizer": null}, "name": "conv2d_28", "class_name": "Conv2D"}, {"inbound_nodes": [[["conv2d_28", 0, 0, {}]]], "config": {"trainable": true, "axis": -1, "beta_initializer": {"config": {}, "class_name": "Zeros"}, "beta_constraint": null, "gamma_initializer": {"config": {}, "class_name": "Ones"}, "moving_variance_initializer": {"config": {}, "class_name": "Ones"}, "moving_mean_initializer": {"config": {}, "class_name": "Zeros"}, "name": "batch_normalization_27", "scale": true, "epsilon": 0.001, "center": true, "gamma_regularizer": null, "beta_regularizer": null, "momentum": 0.99, "gamma_constraint": null}, "name": "batch_normalization_27", "class_name": "BatchNormalization"}, {"inbound_nodes": [[["activation_25", 0, 0, {}], ["batch_normalization_27", 0, 0, {}]]], "config": {"trainable": true, "name": "add_13"}, "name": "add_13", "class_name": "Add"}, {"inbound_nodes": [[["add_13", 0, 0, {}]]], "config": {"activation": "relu", "trainable": true, "name": "activation_27"}, "name": "activation_27", "class_name": "Activation"}, {"inbound_nodes": [[["activation_27", 0, 0, {}]]], "config": {"kernel_regularizer": {"config": {"l2": 9.999999747378752e-05, "l1": 0.0}, "class_name": "L1L2"}, "trainable": true, "filters": 32, "bias_constraint": null, "activity_regularizer": null, "use_bias": true, "strides": [1, 1], "name": "conv2d_29", "activation": "linear", "bias_initializer": {"config": {}, "class_name": "Zeros"}, "padding": "same", "kernel_constraint": null, "data_format": "channels_last", "dilation_rate": [1, 1], "kernel_initializer": {"config": {"scale": 2.0, "mode": "fan_in", "distribution": "normal", "seed": null}, "class_name": "VarianceScaling"}, "kernel_size": [3, 3], "bias_regularizer": null}, "name": "conv2d_29", "class_name": "Conv2D"}, {"inbound_nodes": [[["conv2d_29", 0, 0, {}]]], "config": {"trainable": true, "axis": -1, "beta_initializer": {"config": {}, "class_name": "Zeros"}, "beta_constraint": null, "gamma_initializer": {"config": {}, "class_name": "Ones"}, "moving_variance_initializer": {"config": {}, "class_name": "Ones"}, "moving_mean_initializer": {"config": {}, "class_name": "Zeros"}, "name": "batch_normalization_28", "scale": true, "epsilon": 0.001, "center": true, "gamma_regularizer": null, "beta_regularizer": null, "momentum": 0.99, "gamma_constraint": null}, "name": "batch_normalization_28", "class_name": "BatchNormalization"}, {"inbound_nodes": [[["batch_normalization_28", 0, 0, {}]]], "config": {"activation": "relu", "trainable": true, "name": "activation_28"}, "name": "activation_28", "class_name": "Activation"}, {"inbound_nodes": [[["activation_28", 0, 0, {}]]], "config": {"kernel_regularizer": {"config": {"l2": 9.999999747378752e-05, "l1": 0.0}, "class_name": "L1L2"}, "trainable": true, "filters": 32, "bias_constraint": null, "activity_regularizer": null, "use_bias": true, "strides": [1, 1], "name": "conv2d_30", "activation": "linear", "bias_initializer": {"config": {}, "class_name": "Zeros"}, "padding": "same", "kernel_constraint": null, "data_format": "channels_last", "dilation_rate": [1, 1], "kernel_initializer": {"config": {"scale": 2.0, "mode": "fan_in", "distribution": "normal", "seed": null}, "class_name": "VarianceScaling"}, "kernel_size": [3, 3], "bias_regularizer": null}, "name": "conv2d_30", "class_name": "Conv2D"}, {"inbound_nodes": [[["conv2d_30", 0, 0, {}]]], "config": {"trainable": true, "axis": -1, "beta_initializer": {"config": {}, "class_name": "Zeros"}, "beta_constraint": null, "gamma_initializer": {"config": {}, "class_name": "Ones"}, "moving_variance_initializer": {"config": {}, "class_name": "Ones"}, "moving_mean_initializer": {"config": {}, "class_name": "Zeros"}, "name": "batch_normalization_29", "scale": true, "epsilon": 0.001, "center": true, "gamma_regularizer": null, "beta_regularizer": null, "momentum": 0.99, "gamma_constraint": null}, "name": "batch_normalization_29", "class_name": "BatchNormalization"}, {"inbound_nodes": [[["activation_27", 0, 0, {}], ["batch_normalization_29", 0, 0, {}]]], "config": {"trainable": true, "name": "add_14"}, "name": "add_14", "class_name": "Add"}, {"inbound_nodes": [[["add_14", 0, 0, {}]]], "config": {"activation": "relu", "trainable": true, "name": "activation_29"}, "name": "activation_29", "class_name": "Activation"}, {"inbound_nodes": [[["activation_29", 0, 0, {}]]], "config": {"kernel_regularizer": {"config": {"l2": 9.999999747378752e-05, "l1": 0.0}, "class_name": "L1L2"}, "trainable": true, "filters": 32, "bias_constraint": null, "activity_regularizer": null, "use_bias": true, "strides": [1, 1], "name": "conv2d_31", "activation": "linear", "bias_initializer": {"config": {}, "class_name": "Zeros"}, "padding": "same", "kernel_constraint": null, "data_format": "channels_last", "dilation_rate": [1, 1], "kernel_initializer": {"config": {"scale": 2.0, "mode": "fan_in", "distribution": "normal", "seed": null}, "class_name": "VarianceScaling"}, "kernel_size": [3, 3], "bias_regularizer": null}, "name": "conv2d_31", "class_name": "Conv2D"}, {"inbound_nodes": [[["conv2d_31", 0, 0, {}]]], "config": {"trainable": true, "axis": -1, "beta_initializer": {"config": {}, "class_name": "Zeros"}, "beta_constraint": null, "gamma_initializer": {"config": {}, "class_name": "Ones"}, "moving_variance_initializer": {"config": {}, "class_name": "Ones"}, "moving_mean_initializer": {"config": {}, "class_name": "Zeros"}, "name": "batch_normalization_30", "scale": true, "epsilon": 0.001, "center": true, "gamma_regularizer": null, "beta_regularizer": null, "momentum": 0.99, "gamma_constraint": null}, "name": "batch_normalization_30", "class_name": "BatchNormalization"}, {"inbound_nodes": [[["batch_normalization_30", 0, 0, {}]]], "config": {"activation": "relu", "trainable": true, "name": "activation_30"}, "name": "activation_30", "class_name": "Activation"}, {"inbound_nodes": [[["activation_30", 0, 0, {}]]], "config": {"kernel_regularizer": {"config": {"l2": 9.999999747378752e-05, "l1": 0.0}, "class_name": "L1L2"}, "trainable": true, "filters": 32, "bias_constraint": null, "activity_regularizer": null, "use_bias": true, "strides": [1, 1], "name": "conv2d_32", "activation": "linear", "bias_initializer": {"config": {}, "class_name": "Zeros"}, "padding": "same", "kernel_constraint": null, "data_format": "channels_last", "dilation_rate": [1, 1], "kernel_initializer": {"config": {"scale": 2.0, "mode": "fan_in", "distribution": "normal", "seed": null}, "class_name": "VarianceScaling"}, "kernel_size": [3, 3], "bias_regularizer": null}, "name": "conv2d_32", "class_name": "Conv2D"}, {"inbound_nodes": [[["conv2d_32", 0, 0, {}]]], "config": {"trainable": true, "axis": -1, "beta_initializer": {"config": {}, "class_name": "Zeros"}, "beta_constraint": null, "gamma_initializer": {"config": {}, "class_name": "Ones"}, "moving_variance_initializer": {"config": {}, "class_name": "Ones"}, "moving_mean_initializer": {"config": {}, "class_name": "Zeros"}, "name": "batch_normalization_31", "scale": true, "epsilon": 0.001, "center": true, "gamma_regularizer": null, "beta_regularizer": null, "momentum": 0.99, "gamma_constraint": null}, "name": "batch_normalization_31", "class_name": "BatchNormalization"}, {"inbound_nodes": [[["activation_29", 0, 0, {}], ["batch_normalization_31", 0, 0, {}]]], "config": {"trainable": true, "name": "add_15"}, "name": "add_15", "class_name": "Add"}, {"inbound_nodes": [[["add_15", 0, 0, {}]]], "config": {"activation": "relu", "trainable": true, "name": "activation_31"}, "name": "activation_31", "class_name": "Activation"}, {"inbound_nodes": [[["activation_31", 0, 0, {}]]], "config": {"kernel_regularizer": {"config": {"l2": 9.999999747378752e-05, "l1": 0.0}, "class_name": "L1L2"}, "trainable": true, "filters": 32, "bias_constraint": null, "activity_regularizer": null, "use_bias": true, "strides": [1, 1], "name": "conv2d_33", "activation": "linear", "bias_initializer": {"config": {}, "class_name": "Zeros"}, "padding": "same", "kernel_constraint": null, "data_format": "channels_last", "dilation_rate": [1, 1], "kernel_initializer": {"config": {"scale": 2.0, "mode": "fan_in", "distribution": "normal", "seed": null}, "class_name": "VarianceScaling"}, "kernel_size": [3, 3], "bias_regularizer": null}, "name": "conv2d_33", "class_name": "Conv2D"}, {"inbound_nodes": [[["conv2d_33", 0, 0, {}]]], "config": {"trainable": true, "axis": -1, "beta_initializer": {"config": {}, "class_name": "Zeros"}, "beta_constraint": null, "gamma_initializer": {"config": {}, "class_name": "Ones"}, "moving_variance_initializer": {"config": {}, "class_name": "Ones"}, "moving_mean_initializer": {"config": {}, "class_name": "Zeros"}, "name": "batch_normalization_32", "scale": true, "epsilon": 0.001, "center": true, "gamma_regularizer": null, "beta_regularizer": null, "momentum": 0.99, "gamma_constraint": null}, "name": "batch_normalization_32", "class_name": "BatchNormalization"}, {"inbound_nodes": [[["batch_normalization_32", 0, 0, {}]]], "config": {"activation": "relu", "trainable": true, "name": "activation_32"}, "name": "activation_32", "class_name": "Activation"}, {"inbound_nodes": [[["activation_32", 0, 0, {}]]], "config": {"kernel_regularizer": {"config": {"l2": 9.999999747378752e-05, "l1": 0.0}, "class_name": "L1L2"}, "trainable": true, "filters": 32, "bias_constraint": null, "activity_regularizer": null, "use_bias": true, "strides": [1, 1], "name": "conv2d_34", "activation": "linear", "bias_initializer": {"config": {}, "class_name": "Zeros"}, "padding": "same", "kernel_constraint": null, "data_format": "channels_last", "dilation_rate": [1, 1], "kernel_initializer": {"config": {"scale": 2.0, "mode": "fan_in", "distribution": "normal", "seed": null}, "class_name": "VarianceScaling"}, "kernel_size": [3, 3], "bias_regularizer": null}, "name": "conv2d_34", "class_name": "Conv2D"}, {"inbound_nodes": [[["conv2d_34", 0, 0, {}]]], "config": {"trainable": true, "axis": -1, "beta_initializer": {"config": {}, "class_name": "Zeros"}, "beta_constraint": null, "gamma_initializer": {"config": {}, "class_name": "Ones"}, "moving_variance_initializer": {"config": {}, "class_name": "Ones"}, "moving_mean_initializer": {"config": {}, "class_name": "Zeros"}, "name": "batch_normalization_33", "scale": true, "epsilon": 0.001, "center": true, "gamma_regularizer": null, "beta_regularizer": null, "momentum": 0.99, "gamma_constraint": null}, "name": "batch_normalization_33", "class_name": "BatchNormalization"}, {"inbound_nodes": [[["activation_31", 0, 0, {}], ["batch_normalization_33", 0, 0, {}]]], "config": {"trainable": true, "name": "add_16"}, "name": "add_16", "class_name": "Add"}, {"inbound_nodes": [[["add_16", 0, 0, {}]]], "config": {"activation": "relu", "trainable": true, "name": "activation_33"}, "name": "activation_33", "class_name": "Activation"}, {"inbound_nodes": [[["activation_33", 0, 0, {}]]], "config": {"kernel_regularizer": {"config": {"l2": 9.999999747378752e-05, "l1": 0.0}, "class_name": "L1L2"}, "trainable": true, "filters": 32, "bias_constraint": null, "activity_regularizer": null, "use_bias": true, "strides": [1, 1], "name": "conv2d_35", "activation": "linear", "bias_initializer": {"config": {}, "class_name": "Zeros"}, "padding": "same", "kernel_constraint": null, "data_format": "channels_last", "dilation_rate": [1, 1], "kernel_initializer": {"config": {"scale": 2.0, "mode": "fan_in", "distribution": "normal", "seed": null}, "class_name": "VarianceScaling"}, "kernel_size": [3, 3], "bias_regularizer": null}, "name": "conv2d_35", "class_name": "Conv2D"}, {"inbound_nodes": [[["conv2d_35", 0, 0, {}]]], "config": {"trainable": true, "axis": -1, "beta_initializer": {"config": {}, "class_name": "Zeros"}, "beta_constraint": null, "gamma_initializer": {"config": {}, "class_name": "Ones"}, "moving_variance_initializer": {"config": {}, "class_name": "Ones"}, "moving_mean_initializer": {"config": {}, "class_name": "Zeros"}, "name": "batch_normalization_34", "scale": true, "epsilon": 0.001, "center": true, "gamma_regularizer": null, "beta_regularizer": null, "momentum": 0.99, "gamma_constraint": null}, "name": "batch_normalization_34", "class_name": "BatchNormalization"}, {"inbound_nodes": [[["batch_normalization_34", 0, 0, {}]]], "config": {"activation": "relu", "trainable": true, "name": "activation_34"}, "name": "activation_34", "class_name": "Activation"}, {"inbound_nodes": [[["activation_34", 0, 0, {}]]], "config": {"kernel_regularizer": {"config": {"l2": 9.999999747378752e-05, "l1": 0.0}, "class_name": "L1L2"}, "trainable": true, "filters": 32, "bias_constraint": null, "activity_regularizer": null, "use_bias": true, "strides": [1, 1], "name": "conv2d_36", "activation": "linear", "bias_initializer": {"config": {}, "class_name": "Zeros"}, "padding": "same", "kernel_constraint": null, "data_format": "channels_last", "dilation_rate": [1, 1], "kernel_initializer": {"config": {"scale": 2.0, "mode": "fan_in", "distribution": "normal", "seed": null}, "class_name": "VarianceScaling"}, "kernel_size": [3, 3], "bias_regularizer": null}, "name": "conv2d_36", "class_name": "Conv2D"}, {"inbound_nodes": [[["conv2d_36", 0, 0, {}]]], "config": {"trainable": true, "axis": -1, "beta_initializer": {"config": {}, "class_name": "Zeros"}, "beta_constraint": null, "gamma_initializer": {"config": {}, "class_name": "Ones"}, "moving_variance_initializer": {"config": {}, "class_name": "Ones"}, "moving_mean_initializer": {"config": {}, "class_name": "Zeros"}, "name": "batch_normalization_35", "scale": true, "epsilon": 0.001, "center": true, "gamma_regularizer": null, "beta_regularizer": null, "momentum": 0.99, "gamma_constraint": null}, "name": "batch_normalization_35", "class_name": "BatchNormalization"}, {"inbound_nodes": [[["activation_33", 0, 0, {}], ["batch_normalization_35", 0, 0, {}]]], "config": {"trainable": true, "name": "add_17"}, "name": "add_17", "class_name": "Add"}, {"inbound_nodes": [[["add_17", 0, 0, {}]]], "config": {"activation": "relu", "trainable": true, "name": "activation_35"}, "name": "activation_35", "class_name": "Activation"}, {"inbound_nodes": [[["activation_35", 0, 0, {}]]], "config": {"kernel_regularizer": {"config": {"l2": 9.999999747378752e-05, "l1": 0.0}, "class_name": "L1L2"}, "trainable": true, "filters": 32, "bias_constraint": null, "activity_regularizer": null, "use_bias": true, "strides": [1, 1], "name": "conv2d_37", "activation": "linear", "bias_initializer": {"config": {}, "class_name": "Zeros"}, "padding": "same", "kernel_constraint": null, "data_format": "channels_last", "dilation_rate": [1, 1], "kernel_initializer": {"config": {"scale": 2.0, "mode": "fan_in", "distribution": "normal", "seed": null}, "class_name": "VarianceScaling"}, "kernel_size": [3, 3], "bias_regularizer": null}, "name": "conv2d_37", "class_name": "Conv2D"}, {"inbound_nodes": [[["conv2d_37", 0, 0, {}]]], "config": {"trainable": true, "axis": -1, "beta_initializer": {"config": {}, "class_name": "Zeros"}, "beta_constraint": null, "gamma_initializer": {"config": {}, "class_name": "Ones"}, "moving_variance_initializer": {"config": {}, "class_name": "Ones"}, "moving_mean_initializer": {"config": {}, "class_name": "Zeros"}, "name": "batch_normalization_36", "scale": true, "epsilon": 0.001, "center": true, "gamma_regularizer": null, "beta_regularizer": null, "momentum": 0.99, "gamma_constraint": null}, "name": "batch_normalization_36", "class_name": "BatchNormalization"}, {"inbound_nodes": [[["batch_normalization_36", 0, 0, {}]]], "config": {"activation": "relu", "trainable": true, "name": "activation_36"}, "name": "activation_36", "class_name": "Activation"}, {"inbound_nodes": [[["activation_36", 0, 0, {}]]], "config": {"kernel_regularizer": {"config": {"l2": 9.999999747378752e-05, "l1": 0.0}, "class_name": "L1L2"}, "trainable": true, "filters": 32, "bias_constraint": null, "activity_regularizer": null, "use_bias": true, "strides": [1, 1], "name": "conv2d_38", "activation": "linear", "bias_initializer": {"config": {}, "class_name": "Zeros"}, "padding": "same", "kernel_constraint": null, "data_format": "channels_last", "dilation_rate": [1, 1], "kernel_initializer": {"config": {"scale": 2.0, "mode": "fan_in", "distribution": "normal", "seed": null}, "class_name": "VarianceScaling"}, "kernel_size": [3, 3], "bias_regularizer": null}, "name": "conv2d_38", "class_name": "Conv2D"}, {"inbound_nodes": [[["conv2d_38", 0, 0, {}]]], "config": {"trainable": true, "axis": -1, "beta_initializer": {"config": {}, "class_name": "Zeros"}, "beta_constraint": null, "gamma_initializer": {"config": {}, "class_name": "Ones"}, "moving_variance_initializer": {"config": {}, "class_name": "Ones"}, "moving_mean_initializer": {"config": {}, "class_name": "Zeros"}, "name": "batch_normalization_37", "scale": true, "epsilon": 0.001, "center": true, "gamma_regularizer": null, "beta_regularizer": null, "momentum": 0.99, "gamma_constraint": null}, "name": "batch_normalization_37", "class_name": "BatchNormalization"}, {"inbound_nodes": [[["activation_35", 0, 0, {}], ["batch_normalization_37", 0, 0, {}]]], "config": {"trainable": true, "name": "add_18"}, "name": "add_18", "class_name": "Add"}, {"inbound_nodes": [[["add_18", 0, 0, {}]]], "config": {"activation": "relu", "trainable": true, "name": "activation_37"}, "name": "activation_37", "class_name": "Activation"}, {"inbound_nodes": [[["activation_37", 0, 0, {}]]], "config": {"kernel_regularizer": {"config": {"l2": 9.999999747378752e-05, "l1": 0.0}, "class_name": "L1L2"}, "trainable": true, "filters": 64, "bias_constraint": null, "activity_regularizer": null, "use_bias": true, "strides": [2, 2], "name": "conv2d_39", "activation": "linear", "bias_initializer": {"config": {}, "class_name": "Zeros"}, "padding": "same", "kernel_constraint": null, "data_format": "channels_last", "dilation_rate": [1, 1], "kernel_initializer": {"config": {"scale": 2.0, "mode": "fan_in", "distribution": "normal", "seed": null}, "class_name": "VarianceScaling"}, "kernel_size": [3, 3], "bias_regularizer": null}, "name": "conv2d_39", "class_name": "Conv2D"}, {"inbound_nodes": [[["conv2d_39", 0, 0, {}]]], "config": {"trainable": true, "axis": -1, "beta_initializer": {"config": {}, "class_name": "Zeros"}, "beta_constraint": null, "gamma_initializer": {"config": {}, "class_name": "Ones"}, "moving_variance_initializer": {"config": {}, "class_name": "Ones"}, "moving_mean_initializer": {"config": {}, "class_name": "Zeros"}, "name": "batch_normalization_38", "scale": true, "epsilon": 0.001, "center": true, "gamma_regularizer": null, "beta_regularizer": null, "momentum": 0.99, "gamma_constraint": null}, "name": "batch_normalization_38", "class_name": "BatchNormalization"}, {"inbound_nodes": [[["batch_normalization_38", 0, 0, {}]]], "config": {"activation": "relu", "trainable": true, "name": "activation_38"}, "name": "activation_38", "class_name": "Activation"}, {"inbound_nodes": [[["activation_38", 0, 0, {}]]], "config": {"kernel_regularizer": {"config": {"l2": 9.999999747378752e-05, "l1": 0.0}, "class_name": "L1L2"}, "trainable": true, "filters": 64, "bias_constraint": null, "activity_regularizer": null, "use_bias": true, "strides": [1, 1], "name": "conv2d_40", "activation": "linear", "bias_initializer": {"config": {}, "class_name": "Zeros"}, "padding": "same", "kernel_constraint": null, "data_format": "channels_last", "dilation_rate": [1, 1], "kernel_initializer": {"config": {"scale": 2.0, "mode": "fan_in", "distribution": "normal", "seed": null}, "class_name": "VarianceScaling"}, "kernel_size": [3, 3], "bias_regularizer": null}, "name": "conv2d_40", "class_name": "Conv2D"}, {"inbound_nodes": [[["activation_37", 0, 0, {}]]], "config": {"kernel_regularizer": {"config": {"l2": 9.999999747378752e-05, "l1": 0.0}, "class_name": "L1L2"}, "trainable": true, "filters": 64, "bias_constraint": null, "activity_regularizer": null, "use_bias": true, "strides": [2, 2], "name": "conv2d_41", "activation": "linear", "bias_initializer": {"config": {}, "class_name": "Zeros"}, "padding": "same", "kernel_constraint": null, "data_format": "channels_last", "dilation_rate": [1, 1], "kernel_initializer": {"config": {"scale": 2.0, "mode": "fan_in", "distribution": "normal", "seed": null}, "class_name": "VarianceScaling"}, "kernel_size": [1, 1], "bias_regularizer": null}, "name": "conv2d_41", "class_name": "Conv2D"}, {"inbound_nodes": [[["conv2d_40", 0, 0, {}]]], "config": {"trainable": true, "axis": -1, "beta_initializer": {"config": {}, "class_name": "Zeros"}, "beta_constraint": null, "gamma_initializer": {"config": {}, "class_name": "Ones"}, "moving_variance_initializer": {"config": {}, "class_name": "Ones"}, "moving_mean_initializer": {"config": {}, "class_name": "Zeros"}, "name": "batch_normalization_39", "scale": true, "epsilon": 0.001, "center": true, "gamma_regularizer": null, "beta_regularizer": null, "momentum": 0.99, "gamma_constraint": null}, "name": "batch_normalization_39", "class_name": "BatchNormalization"}, {"inbound_nodes": [[["conv2d_41", 0, 0, {}], ["batch_normalization_39", 0, 0, {}]]], "config": {"trainable": true, "name": "add_19"}, "name": "add_19", "class_name": "Add"}, {"inbound_nodes": [[["add_19", 0, 0, {}]]], "config": {"activation": "relu", "trainable": true, "name": "activation_39"}, "name": "activation_39", "class_name": "Activation"}, {"inbound_nodes": [[["activation_39", 0, 0, {}]]], "config": {"kernel_regularizer": {"config": {"l2": 9.999999747378752e-05, "l1": 0.0}, "class_name": "L1L2"}, "trainable": true, "filters": 64, "bias_constraint": null, "activity_regularizer": null, "use_bias": true, "strides": [1, 1], "name": "conv2d_42", "activation": "linear", "bias_initializer": {"config": {}, "class_name": "Zeros"}, "padding": "same", "kernel_constraint": null, "data_format": "channels_last", "dilation_rate": [1, 1], "kernel_initializer": {"config": {"scale": 2.0, "mode": "fan_in", "distribution": "normal", "seed": null}, "class_name": "VarianceScaling"}, "kernel_size": [3, 3], "bias_regularizer": null}, "name": "conv2d_42", "class_name": "Conv2D"}, {"inbound_nodes": [[["conv2d_42", 0, 0, {}]]], "config": {"trainable": true, "axis": -1, "beta_initializer": {"config": {}, "class_name": "Zeros"}, "beta_constraint": null, "gamma_initializer": {"config": {}, "class_name": "Ones"}, "moving_variance_initializer": {"config": {}, "class_name": "Ones"}, "moving_mean_initializer": {"config": {}, "class_name": "Zeros"}, "name": "batch_normalization_40", "scale": true, "epsilon": 0.001, "center": true, "gamma_regularizer": null, "beta_regularizer": null, "momentum": 0.99, "gamma_constraint": null}, "name": "batch_normalization_40", "class_name": "BatchNormalization"}, {"inbound_nodes": [[["batch_normalization_40", 0, 0, {}]]], "config": {"activation": "relu", "trainable": true, "name": "activation_40"}, "name": "activation_40", "class_name": "Activation"}, {"inbound_nodes": [[["activation_40", 0, 0, {}]]], "config": {"kernel_regularizer": {"config": {"l2": 9.999999747378752e-05, "l1": 0.0}, "class_name": "L1L2"}, "trainable": true, "filters": 64, "bias_constraint": null, "activity_regularizer": null, "use_bias": true, "strides": [1, 1], "name": "conv2d_43", "activation": "linear", "bias_initializer": {"config": {}, "class_name": "Zeros"}, "padding": "same", "kernel_constraint": null, "data_format": "channels_last", "dilation_rate": [1, 1], "kernel_initializer": {"config": {"scale": 2.0, "mode": "fan_in", "distribution": "normal", "seed": null}, "class_name": "VarianceScaling"}, "kernel_size": [3, 3], "bias_regularizer": null}, "name": "conv2d_43", "class_name": "Conv2D"}, {"inbound_nodes": [[["conv2d_43", 0, 0, {}]]], "config": {"trainable": true, "axis": -1, "beta_initializer": {"config": {}, "class_name": "Zeros"}, "beta_constraint": null, "gamma_initializer": {"config": {}, "class_name": "Ones"}, "moving_variance_initializer": {"config": {}, "class_name": "Ones"}, "moving_mean_initializer": {"config": {}, "class_name": "Zeros"}, "name": "batch_normalization_41", "scale": true, "epsilon": 0.001, "center": true, "gamma_regularizer": null, "beta_regularizer": null, "momentum": 0.99, "gamma_constraint": null}, "name": "batch_normalization_41", "class_name": "BatchNormalization"}, {"inbound_nodes": [[["activation_39", 0, 0, {}], ["batch_normalization_41", 0, 0, {}]]], "config": {"trainable": true, "name": "add_20"}, "name": "add_20", "class_name": "Add"}, {"inbound_nodes": [[["add_20", 0, 0, {}]]], "config": {"activation": "relu", "trainable": true, "name": "activation_41"}, "name": "activation_41", "class_name": "Activation"}, {"inbound_nodes": [[["activation_41", 0, 0, {}]]], "config": {"kernel_regularizer": {"config": {"l2": 9.999999747378752e-05, "l1": 0.0}, "class_name": "L1L2"}, "trainable": true, "filters": 64, "bias_constraint": null, "activity_regularizer": null, "use_bias": true, "strides": [1, 1], "name": "conv2d_44", "activation": "linear", "bias_initializer": {"config": {}, "class_name": "Zeros"}, "padding": "same", "kernel_constraint": null, "data_format": "channels_last", "dilation_rate": [1, 1], "kernel_initializer": {"config": {"scale": 2.0, "mode": "fan_in", "distribution": "normal", "seed": null}, "class_name": "VarianceScaling"}, "kernel_size": [3, 3], "bias_regularizer": null}, "name": "conv2d_44", "class_name": "Conv2D"}, {"inbound_nodes": [[["conv2d_44", 0, 0, {}]]], "config": {"trainable": true, "axis": -1, "beta_initializer": {"config": {}, "class_name": "Zeros"}, "beta_constraint": null, "gamma_initializer": {"config": {}, "class_name": "Ones"}, "moving_variance_initializer": {"config": {}, "class_name": "Ones"}, "moving_mean_initializer": {"config": {}, "class_name": "Zeros"}, "name": "batch_normalization_42", "scale": true, "epsilon": 0.001, "center": true, "gamma_regularizer": null, "beta_regularizer": null, "momentum": 0.99, "gamma_constraint": null}, "name": "batch_normalization_42", "class_name": "BatchNormalization"}, {"inbound_nodes": [[["batch_normalization_42", 0, 0, {}]]], "config": {"activation": "relu", "trainable": true, "name": "activation_42"}, "name": "activation_42", "class_name": "Activation"}, {"inbound_nodes": [[["activation_42", 0, 0, {}]]], "config": {"kernel_regularizer": {"config": {"l2": 9.999999747378752e-05, "l1": 0.0}, "class_name": "L1L2"}, "trainable": true, "filters": 64, "bias_constraint": null, "activity_regularizer": null, "use_bias": true, "strides": [1, 1], "name": "conv2d_45", "activation": "linear", "bias_initializer": {"config": {}, "class_name": "Zeros"}, "padding": "same", "kernel_constraint": null, "data_format": "channels_last", "dilation_rate": [1, 1], "kernel_initializer": {"config": {"scale": 2.0, "mode": "fan_in", "distribution": "normal", "seed": null}, "class_name": "VarianceScaling"}, "kernel_size": [3, 3], "bias_regularizer": null}, "name": "conv2d_45", "class_name": "Conv2D"}, {"inbound_nodes": [[["conv2d_45", 0, 0, {}]]], "config": {"trainable": true, "axis": -1, "beta_initializer": {"config": {}, "class_name": "Zeros"}, "beta_constraint": null, "gamma_initializer": {"config": {}, "class_name": "Ones"}, "moving_variance_initializer": {"config": {}, "class_name": "Ones"}, "moving_mean_initializer": {"config": {}, "class_name": "Zeros"}, "name": "batch_normalization_43", "scale": true, "epsilon": 0.001, "center": true, "gamma_regularizer": null, "beta_regularizer": null, "momentum": 0.99, "gamma_constraint": null}, "name": "batch_normalization_43", "class_name": "BatchNormalization"}, {"inbound_nodes": [[["activation_41", 0, 0, {}], ["batch_normalization_43", 0, 0, {}]]], "config": {"trainable": true, "name": "add_21"}, "name": "add_21", "class_name": "Add"}, {"inbound_nodes": [[["add_21", 0, 0, {}]]], "config": {"activation": "relu", "trainable": true, "name": "activation_43"}, "name": "activation_43", "class_name": "Activation"}, {"inbound_nodes": [[["activation_43", 0, 0, {}]]], "config": {"kernel_regularizer": {"config": {"l2": 9.999999747378752e-05, "l1": 0.0}, "class_name": "L1L2"}, "trainable": true, "filters": 64, "bias_constraint": null, "activity_regularizer": null, "use_bias": true, "strides": [1, 1], "name": "conv2d_46", "activation": "linear", "bias_initializer": {"config": {}, "class_name": "Zeros"}, "padding": "same", "kernel_constraint": null, "data_format": "channels_last", "dilation_rate": [1, 1], "kernel_initializer": {"config": {"scale": 2.0, "mode": "fan_in", "distribution": "normal", "seed": null}, "class_name": "VarianceScaling"}, "kernel_size": [3, 3], "bias_regularizer": null}, "name": "conv2d_46", "class_name": "Conv2D"}, {"inbound_nodes": [[["conv2d_46", 0, 0, {}]]], "config": {"trainable": true, "axis": -1, "beta_initializer": {"config": {}, "class_name": "Zeros"}, "beta_constraint": null, "gamma_initializer": {"config": {}, "class_name": "Ones"}, "moving_variance_initializer": {"config": {}, "class_name": "Ones"}, "moving_mean_initializer": {"config": {}, "class_name": "Zeros"}, "name": "batch_normalization_44", "scale": true, "epsilon": 0.001, "center": true, "gamma_regularizer": null, "beta_regularizer": null, "momentum": 0.99, "gamma_constraint": null}, "name": "batch_normalization_44", "class_name": "BatchNormalization"}, {"inbound_nodes": [[["batch_normalization_44", 0, 0, {}]]], "config": {"activation": "relu", "trainable": true, "name": "activation_44"}, "name": "activation_44", "class_name": "Activation"}, {"inbound_nodes": [[["activation_44", 0, 0, {}]]], "config": {"kernel_regularizer": {"config": {"l2": 9.999999747378752e-05, "l1": 0.0}, "class_name": "L1L2"}, "trainable": true, "filters": 64, "bias_constraint": null, "activity_regularizer": null, "use_bias": true, "strides": [1, 1], "name": "conv2d_47", "activation": "linear", "bias_initializer": {"config": {}, "class_name": "Zeros"}, "padding": "same", "kernel_constraint": null, "data_format": "channels_last", "dilation_rate": [1, 1], "kernel_initializer": {"config": {"scale": 2.0, "mode": "fan_in", "distribution": "normal", "seed": null}, "class_name": "VarianceScaling"}, "kernel_size": [3, 3], "bias_regularizer": null}, "name": "conv2d_47", "class_name": "Conv2D"}, {"inbound_nodes": [[["conv2d_47", 0, 0, {}]]], "config": {"trainable": true, "axis": -1, "beta_initializer": {"config": {}, "class_name": "Zeros"}, "beta_constraint": null, "gamma_initializer": {"config": {}, "class_name": "Ones"}, "moving_variance_initializer": {"config": {}, "class_name": "Ones"}, "moving_mean_initializer": {"config": {}, "class_name": "Zeros"}, "name": "batch_normalization_45", "scale": true, "epsilon": 0.001, "center": true, "gamma_regularizer": null, "beta_regularizer": null, "momentum": 0.99, "gamma_constraint": null}, "name": "batch_normalization_45", "class_name": "BatchNormalization"}, {"inbound_nodes": [[["activation_43", 0, 0, {}], ["batch_normalization_45", 0, 0, {}]]], "config": {"trainable": true, "name": "add_22"}, "name": "add_22", "class_name": "Add"}, {"inbound_nodes": [[["add_22", 0, 0, {}]]], "config": {"activation": "relu", "trainable": true, "name": "activation_45"}, "name": "activation_45", "class_name": "Activation"}, {"inbound_nodes": [[["activation_45", 0, 0, {}]]], "config": {"kernel_regularizer": {"config": {"l2": 9.999999747378752e-05, "l1": 0.0}, "class_name": "L1L2"}, "trainable": true, "filters": 64, "bias_constraint": null, "activity_regularizer": null, "use_bias": true, "strides": [1, 1], "name": "conv2d_48", "activation": "linear", "bias_initializer": {"config": {}, "class_name": "Zeros"}, "padding": "same", "kernel_constraint": null, "data_format": "channels_last", "dilation_rate": [1, 1], "kernel_initializer": {"config": {"scale": 2.0, "mode": "fan_in", "distribution": "normal", "seed": null}, "class_name": "VarianceScaling"}, "kernel_size": [3, 3], "bias_regularizer": null}, "name": "conv2d_48", "class_name": "Conv2D"}, {"inbound_nodes": [[["conv2d_48", 0, 0, {}]]], "config": {"trainable": true, "axis": -1, "beta_initializer": {"config": {}, "class_name": "Zeros"}, "beta_constraint": null, "gamma_initializer": {"config": {}, "class_name": "Ones"}, "moving_variance_initializer": {"config": {}, "class_name": "Ones"}, "moving_mean_initializer": {"config": {}, "class_name": "Zeros"}, "name": "batch_normalization_46", "scale": true, "epsilon": 0.001, "center": true, "gamma_regularizer": null, "beta_regularizer": null, "momentum": 0.99, "gamma_constraint": null}, "name": "batch_normalization_46", "class_name": "BatchNormalization"}, {"inbound_nodes": [[["batch_normalization_46", 0, 0, {}]]], "config": {"activation": "relu", "trainable": true, "name": "activation_46"}, "name": "activation_46", "class_name": "Activation"}, {"inbound_nodes": [[["activation_46", 0, 0, {}]]], "config": {"kernel_regularizer": {"config": {"l2": 9.999999747378752e-05, "l1": 0.0}, "class_name": "L1L2"}, "trainable": true, "filters": 64, "bias_constraint": null, "activity_regularizer": null, "use_bias": true, "strides": [1, 1], "name": "conv2d_49", "activation": "linear", "bias_initializer": {"config": {}, "class_name": "Zeros"}, "padding": "same", "kernel_constraint": null, "data_format": "channels_last", "dilation_rate": [1, 1], "kernel_initializer": {"config": {"scale": 2.0, "mode": "fan_in", "distribution": "normal", "seed": null}, "class_name": "VarianceScaling"}, "kernel_size": [3, 3], "bias_regularizer": null}, "name": "conv2d_49", "class_name": "Conv2D"}, {"inbound_nodes": [[["conv2d_49", 0, 0, {}]]], "config": {"trainable": true, "axis": -1, "beta_initializer": {"config": {}, "class_name": "Zeros"}, "beta_constraint": null, "gamma_initializer": {"config": {}, "class_name": "Ones"}, "moving_variance_initializer": {"config": {}, "class_name": "Ones"}, "moving_mean_initializer": {"config": {}, "class_name": "Zeros"}, "name": "batch_normalization_47", "scale": true, "epsilon": 0.001, "center": true, "gamma_regularizer": null, "beta_regularizer": null, "momentum": 0.99, "gamma_constraint": null}, "name": "batch_normalization_47", "class_name": "BatchNormalization"}, {"inbound_nodes": [[["activation_45", 0, 0, {}], ["batch_normalization_47", 0, 0, {}]]], "config": {"trainable": true, "name": "add_23"}, "name": "add_23", "class_name": "Add"}, {"inbound_nodes": [[["add_23", 0, 0, {}]]], "config": {"activation": "relu", "trainable": true, "name": "activation_47"}, "name": "activation_47", "class_name": "Activation"}, {"inbound_nodes": [[["activation_47", 0, 0, {}]]], "config": {"kernel_regularizer": {"config": {"l2": 9.999999747378752e-05, "l1": 0.0}, "class_name": "L1L2"}, "trainable": true, "filters": 64, "bias_constraint": null, "activity_regularizer": null, "use_bias": true, "strides": [1, 1], "name": "conv2d_50", "activation": "linear", "bias_initializer": {"config": {}, "class_name": "Zeros"}, "padding": "same", "kernel_constraint": null, "data_format": "channels_last", "dilation_rate": [1, 1], "kernel_initializer": {"config": {"scale": 2.0, "mode": "fan_in", "distribution": "normal", "seed": null}, "class_name": "VarianceScaling"}, "kernel_size": [3, 3], "bias_regularizer": null}, "name": "conv2d_50", "class_name": "Conv2D"}, {"inbound_nodes": [[["conv2d_50", 0, 0, {}]]], "config": {"trainable": true, "axis": -1, "beta_initializer": {"config": {}, "class_name": "Zeros"}, "beta_constraint": null, "gamma_initializer": {"config": {}, "class_name": "Ones"}, "moving_variance_initializer": {"config": {}, "class_name": "Ones"}, "moving_mean_initializer": {"config": {}, "class_name": "Zeros"}, "name": "batch_normalization_48", "scale": true, "epsilon": 0.001, "center": true, "gamma_regularizer": null, "beta_regularizer": null, "momentum": 0.99, "gamma_constraint": null}, "name": "batch_normalization_48", "class_name": "BatchNormalization"}, {"inbound_nodes": [[["batch_normalization_48", 0, 0, {}]]], "config": {"activation": "relu", "trainable": true, "name": "activation_48"}, "name": "activation_48", "class_name": "Activation"}, {"inbound_nodes": [[["activation_48", 0, 0, {}]]], "config": {"kernel_regularizer": {"config": {"l2": 9.999999747378752e-05, "l1": 0.0}, "class_name": "L1L2"}, "trainable": true, "filters": 64, "bias_constraint": null, "activity_regularizer": null, "use_bias": true, "strides": [1, 1], "name": "conv2d_51", "activation": "linear", "bias_initializer": {"config": {}, "class_name": "Zeros"}, "padding": "same", "kernel_constraint": null, "data_format": "channels_last", "dilation_rate": [1, 1], "kernel_initializer": {"config": {"scale": 2.0, "mode": "fan_in", "distribution": "normal", "seed": null}, "class_name": "VarianceScaling"}, "kernel_size": [3, 3], "bias_regularizer": null}, "name": "conv2d_51", "class_name": "Conv2D"}, {"inbound_nodes": [[["conv2d_51", 0, 0, {}]]], "config": {"trainable": true, "axis": -1, "beta_initializer": {"config": {}, "class_name": "Zeros"}, "beta_constraint": null, "gamma_initializer": {"config": {}, "class_name": "Ones"}, "moving_variance_initializer": {"config": {}, "class_name": "Ones"}, "moving_mean_initializer": {"config": {}, "class_name": "Zeros"}, "name": "batch_normalization_49", "scale": true, "epsilon": 0.001, "center": true, "gamma_regularizer": null, "beta_regularizer": null, "momentum": 0.99, "gamma_constraint": null}, "name": "batch_normalization_49", "class_name": "BatchNormalization"}, {"inbound_nodes": [[["activation_47", 0, 0, {}], ["batch_normalization_49", 0, 0, {}]]], "config": {"trainable": true, "name": "add_24"}, "name": "add_24", "class_name": "Add"}, {"inbound_nodes": [[["add_24", 0, 0, {}]]], "config": {"activation": "relu", "trainable": true, "name": "activation_49"}, "name": "activation_49", "class_name": "Activation"}, {"inbound_nodes": [[["activation_49", 0, 0, {}]]], "config": {"kernel_regularizer": {"config": {"l2": 9.999999747378752e-05, "l1": 0.0}, "class_name": "L1L2"}, "trainable": true, "filters": 64, "bias_constraint": null, "activity_regularizer": null, "use_bias": true, "strides": [1, 1], "name": "conv2d_52", "activation": "linear", "bias_initializer": {"config": {}, "class_name": "Zeros"}, "padding": "same", "kernel_constraint": null, "data_format": "channels_last", "dilation_rate": [1, 1], "kernel_initializer": {"config": {"scale": 2.0, "mode": "fan_in", "distribution": "normal", "seed": null}, "class_name": "VarianceScaling"}, "kernel_size": [3, 3], "bias_regularizer": null}, "name": "conv2d_52", "class_name": "Conv2D"}, {"inbound_nodes": [[["conv2d_52", 0, 0, {}]]], "config": {"trainable": true, "axis": -1, "beta_initializer": {"config": {}, "class_name": "Zeros"}, "beta_constraint": null, "gamma_initializer": {"config": {}, "class_name": "Ones"}, "moving_variance_initializer": {"config": {}, "class_name": "Ones"}, "moving_mean_initializer": {"config": {}, "class_name": "Zeros"}, "name": "batch_normalization_50", "scale": true, "epsilon": 0.001, "center": true, "gamma_regularizer": null, "beta_regularizer": null, "momentum": 0.99, "gamma_constraint": null}, "name": "batch_normalization_50", "class_name": "BatchNormalization"}, {"inbound_nodes": [[["batch_normalization_50", 0, 0, {}]]], "config": {"activation": "relu", "trainable": true, "name": "activation_50"}, "name": "activation_50", "class_name": "Activation"}, {"inbound_nodes": [[["activation_50", 0, 0, {}]]], "config": {"kernel_regularizer": {"config": {"l2": 9.999999747378752e-05, "l1": 0.0}, "class_name": "L1L2"}, "trainable": true, "filters": 64, "bias_constraint": null, "activity_regularizer": null, "use_bias": true, "strides": [1, 1], "name": "conv2d_53", "activation": "linear", "bias_initializer": {"config": {}, "class_name": "Zeros"}, "padding": "same", "kernel_constraint": null, "data_format": "channels_last", "dilation_rate": [1, 1], "kernel_initializer": {"config": {"scale": 2.0, "mode": "fan_in", "distribution": "normal", "seed": null}, "class_name": "VarianceScaling"}, "kernel_size": [3, 3], "bias_regularizer": null}, "name": "conv2d_53", "class_name": "Conv2D"}, {"inbound_nodes": [[["conv2d_53", 0, 0, {}]]], "config": {"trainable": true, "axis": -1, "beta_initializer": {"config": {}, "class_name": "Zeros"}, "beta_constraint": null, "gamma_initializer": {"config": {}, "class_name": "Ones"}, "moving_variance_initializer": {"config": {}, "class_name": "Ones"}, "moving_mean_initializer": {"config": {}, "class_name": "Zeros"}, "name": "batch_normalization_51", "scale": true, "epsilon": 0.001, "center": true, "gamma_regularizer": null, "beta_regularizer": null, "momentum": 0.99, "gamma_constraint": null}, "name": "batch_normalization_51", "class_name": "BatchNormalization"}, {"inbound_nodes": [[["activation_49", 0, 0, {}], ["batch_normalization_51", 0, 0, {}]]], "config": {"trainable": true, "name": "add_25"}, "name": "add_25", "class_name": "Add"}, {"inbound_nodes": [[["add_25", 0, 0, {}]]], "config": {"activation": "relu", "trainable": true, "name": "activation_51"}, "name": "activation_51", "class_name": "Activation"}, {"inbound_nodes": [[["activation_51", 0, 0, {}]]], "config": {"kernel_regularizer": {"config": {"l2": 9.999999747378752e-05, "l1": 0.0}, "class_name": "L1L2"}, "trainable": true, "filters": 64, "bias_constraint": null, "activity_regularizer": null, "use_bias": true, "strides": [1, 1], "name": "conv2d_54", "activation": "linear", "bias_initializer": {"config": {}, "class_name": "Zeros"}, "padding": "same", "kernel_constraint": null, "data_format": "channels_last", "dilation_rate": [1, 1], "kernel_initializer": {"config": {"scale": 2.0, "mode": "fan_in", "distribution": "normal", "seed": null}, "class_name": "VarianceScaling"}, "kernel_size": [3, 3], "bias_regularizer": null}, "name": "conv2d_54", "class_name": "Conv2D"}, {"inbound_nodes": [[["conv2d_54", 0, 0, {}]]], "config": {"trainable": true, "axis": -1, "beta_initializer": {"config": {}, "class_name": "Zeros"}, "beta_constraint": null, "gamma_initializer": {"config": {}, "class_name": "Ones"}, "moving_variance_initializer": {"config": {}, "class_name": "Ones"}, "moving_mean_initializer": {"config": {}, "class_name": "Zeros"}, "name": "batch_normalization_52", "scale": true, "epsilon": 0.001, "center": true, "gamma_regularizer": null, "beta_regularizer": null, "momentum": 0.99, "gamma_constraint": null}, "name": "batch_normalization_52", "class_name": "BatchNormalization"}, {"inbound_nodes": [[["batch_normalization_52", 0, 0, {}]]], "config": {"activation": "relu", "trainable": true, "name": "activation_52"}, "name": "activation_52", "class_name": "Activation"}, {"inbound_nodes": [[["activation_52", 0, 0, {}]]], "config": {"kernel_regularizer": {"config": {"l2": 9.999999747378752e-05, "l1": 0.0}, "class_name": "L1L2"}, "trainable": true, "filters": 64, "bias_constraint": null, "activity_regularizer": null, "use_bias": true, "strides": [1, 1], "name": "conv2d_55", "activation": "linear", "bias_initializer": {"config": {}, "class_name": "Zeros"}, "padding": "same", "kernel_constraint": null, "data_format": "channels_last", "dilation_rate": [1, 1], "kernel_initializer": {"config": {"scale": 2.0, "mode": "fan_in", "distribution": "normal", "seed": null}, "class_name": "VarianceScaling"}, "kernel_size": [3, 3], "bias_regularizer": null}, "name": "conv2d_55", "class_name": "Conv2D"}, {"inbound_nodes": [[["conv2d_55", 0, 0, {}]]], "config": {"trainable": true, "axis": -1, "beta_initializer": {"config": {}, "class_name": "Zeros"}, "beta_constraint": null, "gamma_initializer": {"config": {}, "class_name": "Ones"}, "moving_variance_initializer": {"config": {}, "class_name": "Ones"}, "moving_mean_initializer": {"config": {}, "class_name": "Zeros"}, "name": "batch_normalization_53", "scale": true, "epsilon": 0.001, "center": true, "gamma_regularizer": null, "beta_regularizer": null, "momentum": 0.99, "gamma_constraint": null}, "name": "batch_normalization_53", "class_name": "BatchNormalization"}, {"inbound_nodes": [[["activation_51", 0, 0, {}], ["batch_normalization_53", 0, 0, {}]]], "config": {"trainable": true, "name": "add_26"}, "name": "add_26", "class_name": "Add"}, {"inbound_nodes": [[["add_26", 0, 0, {}]]], "config": {"activation": "relu", "trainable": true, "name": "activation_53"}, "name": "activation_53", "class_name": "Activation"}, {"inbound_nodes": [[["activation_53", 0, 0, {}]]], "config": {"kernel_regularizer": {"config": {"l2": 9.999999747378752e-05, "l1": 0.0}, "class_name": "L1L2"}, "trainable": true, "filters": 64, "bias_constraint": null, "activity_regularizer": null, "use_bias": true, "strides": [1, 1], "name": "conv2d_56", "activation": "linear", "bias_initializer": {"config": {}, "class_name": "Zeros"}, "padding": "same", "kernel_constraint": null, "data_format": "channels_last", "dilation_rate": [1, 1], "kernel_initializer": {"config": {"scale": 2.0, "mode": "fan_in", "distribution": "normal", "seed": null}, "class_name": "VarianceScaling"}, "kernel_size": [3, 3], "bias_regularizer": null}, "name": "conv2d_56", "class_name": "Conv2D"}, {"inbound_nodes": [[["conv2d_56", 0, 0, {}]]], "config": {"trainable": true, "axis": -1, "beta_initializer": {"config": {}, "class_name": "Zeros"}, "beta_constraint": null, "gamma_initializer": {"config": {}, "class_name": "Ones"}, "moving_variance_initializer": {"config": {}, "class_name": "Ones"}, "moving_mean_initializer": {"config": {}, "class_name": "Zeros"}, "name": "batch_normalization_54", "scale": true, "epsilon": 0.001, "center": true, "gamma_regularizer": null, "beta_regularizer": null, "momentum": 0.99, "gamma_constraint": null}, "name": "batch_normalization_54", "class_name": "BatchNormalization"}, {"inbound_nodes": [[["batch_normalization_54", 0, 0, {}]]], "config": {"activation": "relu", "trainable": true, "name": "activation_54"}, "name": "activation_54", "class_name": "Activation"}, {"inbound_nodes": [[["activation_54", 0, 0, {}]]], "config": {"kernel_regularizer": {"config": {"l2": 9.999999747378752e-05, "l1": 0.0}, "class_name": "L1L2"}, "trainable": true, "filters": 64, "bias_constraint": null, "activity_regularizer": null, "use_bias": true, "strides": [1, 1], "name": "conv2d_57", "activation": "linear", "bias_initializer": {"config": {}, "class_name": "Zeros"}, "padding": "same", "kernel_constraint": null, "data_format": "channels_last", "dilation_rate": [1, 1], "kernel_initializer": {"config": {"scale": 2.0, "mode": "fan_in", "distribution": "normal", "seed": null}, "class_name": "VarianceScaling"}, "kernel_size": [3, 3], "bias_regularizer": null}, "name": "conv2d_57", "class_name": "Conv2D"}, {"inbound_nodes": [[["conv2d_57", 0, 0, {}]]], "config": {"trainable": true, "axis": -1, "beta_initializer": {"config": {}, "class_name": "Zeros"}, "beta_constraint": null, "gamma_initializer": {"config": {}, "class_name": "Ones"}, "moving_variance_initializer": {"config": {}, "class_name": "Ones"}, "moving_mean_initializer": {"config": {}, "class_name": "Zeros"}, "name": "batch_normalization_55", "scale": true, "epsilon": 0.001, "center": true, "gamma_regularizer": null, "beta_regularizer": null, "momentum": 0.99, "gamma_constraint": null}, "name": "batch_normalization_55", "class_name": "BatchNormalization"}, {"inbound_nodes": [[["activation_53", 0, 0, {}], ["batch_normalization_55", 0, 0, {}]]], "config": {"trainable": true, "name": "add_27"}, "name": "add_27", "class_name": "Add"}, {"inbound_nodes": [[["add_27", 0, 0, {}]]], "config": {"activation": "relu", "trainable": true, "name": "activation_55"}, "name": "activation_55", "class_name": "Activation"}, {"inbound_nodes": [[["activation_55", 0, 0, {}]]], "config": {"trainable": true, "padding": "valid", "data_format": "channels_last", "strides": [8, 8], "pool_size": [8, 8], "name": "average_pooling2d_1"}, "name": "average_pooling2d_1", "class_name": "AveragePooling2D"}, {"inbound_nodes": [[["average_pooling2d_1", 0, 0, {}]]], "config": {"trainable": true, "name": "flatten_1"}, "name": "flatten_1", "class_name": "Flatten"}, {"inbound_nodes": [[["flatten_1", 0, 0, {}]]], "config": {"kernel_regularizer": null, "trainable": true, "activity_regularizer": null, "use_bias": true, "name": "dense_1", "activation": "softmax", "bias_initializer": {"config": {}, "class_name": "Zeros"}, "units": 10, "kernel_constraint": null, "bias_constraint": null, "kernel_initializer": {"config": {"scale": 2.0, "mode": "fan_in", "distribution": "normal", "seed": null}, "class_name": "VarianceScaling"}, "bias_regularizer": null}, "name": "dense_1", "class_name": "Dense"}], "output_layers": [["dense_1", 0, 0]], "name": "model_1"}, "backend": "tensorflow", "class_name": "Model"}