{"class_name": "Functional", "config": {"name": "model_119", "layers": [{"class_name": "InputLayer", "config": {"batch_input_shape": [null, 32, 32, 3], "dtype": "float32", "sparse": false, "ragged": false, "name": "input_5"}, "name": "input_5", "inbound_nodes": []}, {"class_name": "Conv2D", "config": {"name": "Conv2D_", "trainable": true, "dtype": "float32", "filters": 16, "kernel_size": [3, 3], "strides": [1, 1], "padding": "same", "data_format": "channels_last", "dilation_rate": [1, 1], "groups": 1, "activation": "linear", "use_bias": true, "kernel_initializer": {"class_name": "HeNormal", "config": {"seed": null}}, "bias_initializer": {"class_name": "Zeros", "config": {}}, "kernel_regularizer": {"class_name": "L2", "config": {"l2": 9.999999747378752e-05}}, "bias_regularizer": null, "activity_regularizer": null, "kernel_constraint": null, "bias_constraint": null}, "name": "Conv2D_", "inbound_nodes": [[["input_5", 0, 0, {}]]]}, {"class_name": "BatchNormalization", "config": {"name": "BatchNorm1_", "trainable": true, "dtype": "float32", "axis": [3], "momentum": 0.99, "epsilon": 0.001, "center": true, "scale": true, "beta_initializer": {"class_name": "Zeros", "config": {}}, "gamma_initializer": {"class_name": "Ones", "config": {}}, "moving_mean_initializer": {"class_name": "Zeros", "config": {}}, "moving_variance_initializer": {"class_name": "Ones", "config": {}}, "beta_regularizer": null, "gamma_regularizer": null, "beta_constraint": null, "gamma_constraint": null}, "name": "BatchNorm1_", "inbound_nodes": [[["Conv2D_", 0, 0, {}]]]}, {"class_name": "Activation", "config": {"name": "Act1_", "trainable": true, "dtype": "float32", "activation": "relu"}, "name": "Act1_", "inbound_nodes": [[["BatchNorm1_", 0, 0, {}]]]}, {"class_name": "Conv2D", "config": {"name": "Conv2D_0_0_0_1", "trainable": true, "dtype": "float32", "filters": 16, "kernel_size": [3, 3], "strides": [1, 1], "padding": "same", "data_format": "channels_last", "dilation_rate": [1, 1], "groups": 1, "activation": "linear", "use_bias": true, "kernel_initializer": {"class_name": "HeNormal", "config": {"seed": null}}, "bias_initializer": {"class_name": "Zeros", "config": {}}, "kernel_regularizer": {"class_name": "L2", "config": {"l2": 9.999999747378752e-05}}, "bias_regularizer": null, "activity_regularizer": null, "kernel_constraint": null, "bias_constraint": null}, "name": "Conv2D_0_0_0_1", "inbound_nodes": [[["Act1_", 0, 0, {}]]]}, {"class_name": "BatchNormalization", "config": {"name": "BatchNorm1_0_0_0_1", "trainable": true, "dtype": "float32", "axis": [3], "momentum": 0.99, "epsilon": 0.001, "center": true, "scale": true, "beta_initializer": {"class_name": "Zeros", "config": {}}, "gamma_initializer": {"class_name": "Ones", "config": {}}, "moving_mean_initializer": {"class_name": "Zeros", "config": {}}, "moving_variance_initializer": {"class_name": "Ones", "config": {}}, "beta_regularizer": null, "gamma_regularizer": null, "beta_constraint": null, "gamma_constraint": null}, "name": "BatchNorm1_0_0_0_1", "inbound_nodes": [[["Conv2D_0_0_0_1", 0, 0, {}]]]}, {"class_name": "Activation", "config": {"name": "Act1_0_0_0_1", "trainable": true, "dtype": "float32", "activation": "relu"}, "name": "Act1_0_0_0_1", "inbound_nodes": [[["BatchNorm1_0_0_0_1", 0, 0, {}]]]}, {"class_name": "Conv2D", "config": {"name": "Conv2D_0_0_0_2", "trainable": true, "dtype": "float32", "filters": 16, "kernel_size": [3, 3], "strides": [1, 1], "padding": "same", "data_format": "channels_last", "dilation_rate": [1, 1], "groups": 1, "activation": "linear", "use_bias": true, "kernel_initializer": {"class_name": "HeNormal", "config": {"seed": null}}, "bias_initializer": {"class_name": "Zeros", "config": {}}, "kernel_regularizer": {"class_name": "L2", "config": {"l2": 9.999999747378752e-05}}, "bias_regularizer": null, "activity_regularizer": null, "kernel_constraint": null, "bias_constraint": null}, "name": "Conv2D_0_0_0_2", "inbound_nodes": [[["Act1_0_0_0_1", 0, 0, {}]]]}, {"class_name": "BatchNormalization", "config": {"name": "BatchNorm1_0_0_0_2", "trainable": true, "dtype": "float32", "axis": [3], "momentum": 0.99, "epsilon": 0.001, "center": true, "scale": true, "beta_initializer": {"class_name": "Zeros", "config": {}}, "gamma_initializer": {"class_name": "Ones", "config": {}}, "moving_mean_initializer": {"class_name": "Zeros", "config": {}}, "moving_variance_initializer": {"class_name": "Ones", "config": {}}, "beta_regularizer": null, "gamma_regularizer": null, "beta_constraint": null, "gamma_constraint": null}, "name": "BatchNorm1_0_0_0_2", "inbound_nodes": [[["Conv2D_0_0_0_2", 0, 0, {}]]]}, {"class_name": "Add", "config": {"name": "add_98", "trainable": true, "dtype": "float32"}, "name": "add_98", "inbound_nodes": [[["Act1_", 0, 0, {}], ["BatchNorm1_0_0_0_2", 0, 0, {}]]]}, {"class_name": "Activation", "config": {"name": "activation_98", "trainable": true, "dtype": "float32", "activation": "relu"}, "name": "activation_98", "inbound_nodes": [[["add_98", 0, 0, {}]]]}, {"class_name": "Conv2D", "config": {"name": "Conv2D_0_1_0_1", "trainable": true, "dtype": "float32", "filters": 16, "kernel_size": [3, 3], "strides": [1, 1], "padding": "same", "data_format": "channels_last", "dilation_rate": [1, 1], "groups": 1, "activation": "linear", "use_bias": true, "kernel_initializer": {"class_name": "HeNormal", "config": {"seed": null}}, "bias_initializer": {"class_name": "Zeros", "config": {}}, "kernel_regularizer": {"class_name": "L2", "config": {"l2": 9.999999747378752e-05}}, "bias_regularizer": null, "activity_regularizer": null, "kernel_constraint": null, "bias_constraint": null}, "name": "Conv2D_0_1_0_1", "inbound_nodes": [[["activation_98", 0, 0, {}]]]}, {"class_name": "BatchNormalization", "config": {"name": "BatchNorm1_0_1_0_1", "trainable": true, "dtype": "float32", "axis": [3], "momentum": 0.99, "epsilon": 0.001, "center": true, "scale": true, "beta_initializer": {"class_name": "Zeros", "config": {}}, "gamma_initializer": {"class_name": "Ones", "config": {}}, "moving_mean_initializer": {"class_name": "Zeros", "config": {}}, "moving_variance_initializer": {"class_name": "Ones", "config": {}}, "beta_regularizer": null, "gamma_regularizer": null, "beta_constraint": null, "gamma_constraint": null}, "name": "BatchNorm1_0_1_0_1", "inbound_nodes": [[["Conv2D_0_1_0_1", 0, 0, {}]]]}, {"class_name": "Activation", "config": {"name": "Act1_0_1_0_1", "trainable": true, "dtype": "float32", "activation": "relu"}, "name": "Act1_0_1_0_1", "inbound_nodes": [[["BatchNorm1_0_1_0_1", 0, 0, {}]]]}, {"class_name": "Conv2D", "config": {"name": "Conv2D_0_1_0_2", "trainable": true, "dtype": "float32", "filters": 16, "kernel_size": [3, 3], "strides": [1, 1], "padding": "same", "data_format": "channels_last", "dilation_rate": [1, 1], "groups": 1, "activation": "linear", "use_bias": true, "kernel_initializer": {"class_name": "HeNormal", "config": {"seed": null}}, "bias_initializer": {"class_name": "Zeros", "config": {}}, "kernel_regularizer": {"class_name": "L2", "config": {"l2": 9.999999747378752e-05}}, "bias_regularizer": null, "activity_regularizer": null, "kernel_constraint": null, "bias_constraint": null}, "name": "Conv2D_0_1_0_2", "inbound_nodes": [[["Act1_0_1_0_1", 0, 0, {}]]]}, {"class_name": "BatchNormalization", "config": {"name": "BatchNorm1_0_1_0_2", "trainable": true, "dtype": "float32", "axis": [3], "momentum": 0.99, "epsilon": 0.001, "center": true, "scale": true, "beta_initializer": {"class_name": "Zeros", "config": {}}, "gamma_initializer": {"class_name": "Ones", "config": {}}, "moving_mean_initializer": {"class_name": "Zeros", "config": {}}, "moving_variance_initializer": {"class_name": "Ones", "config": {}}, "beta_regularizer": null, "gamma_regularizer": null, "beta_constraint": null, "gamma_constraint": null}, "name": "BatchNorm1_0_1_0_2", "inbound_nodes": [[["Conv2D_0_1_0_2", 0, 0, {}]]]}, {"class_name": "Add", "config": {"name": "add_99", "trainable": true, "dtype": "float32"}, "name": "add_99", "inbound_nodes": [[["activation_98", 0, 0, {}], ["BatchNorm1_0_1_0_2", 0, 0, {}]]]}, {"class_name": "Activation", "config": {"name": "activation_99", "trainable": true, "dtype": "float32", "activation": "relu"}, "name": "activation_99", "inbound_nodes": [[["add_99", 0, 0, {}]]]}, {"class_name": "Conv2D", "config": {"name": "Conv2D_0_2_0_1", "trainable": true, "dtype": "float32", "filters": 16, "kernel_size": [3, 3], "strides": [1, 1], "padding": "same", "data_format": "channels_last", "dilation_rate": [1, 1], "groups": 1, "activation": "linear", "use_bias": true, "kernel_initializer": {"class_name": "HeNormal", "config": {"seed": null}}, "bias_initializer": {"class_name": "Zeros", "config": {}}, "kernel_regularizer": {"class_name": "L2", "config": {"l2": 9.999999747378752e-05}}, "bias_regularizer": null, "activity_regularizer": null, "kernel_constraint": null, "bias_constraint": null}, "name": "Conv2D_0_2_0_1", "inbound_nodes": [[["activation_99", 0, 0, {}]]]}, {"class_name": "BatchNormalization", "config": {"name": "BatchNorm1_0_2_0_1", "trainable": true, "dtype": "float32", "axis": [3], "momentum": 0.99, "epsilon": 0.001, "center": true, "scale": true, "beta_initializer": {"class_name": "Zeros", "config": {}}, "gamma_initializer": {"class_name": "Ones", "config": {}}, "moving_mean_initializer": {"class_name": "Zeros", "config": {}}, "moving_variance_initializer": {"class_name": "Ones", "config": {}}, "beta_regularizer": null, "gamma_regularizer": null, "beta_constraint": null, "gamma_constraint": null}, "name": "BatchNorm1_0_2_0_1", "inbound_nodes": [[["Conv2D_0_2_0_1", 0, 0, {}]]]}, {"class_name": "Activation", "config": {"name": "Act1_0_2_0_1", "trainable": true, "dtype": "float32", "activation": "relu"}, "name": "Act1_0_2_0_1", "inbound_nodes": [[["BatchNorm1_0_2_0_1", 0, 0, {}]]]}, {"class_name": "Conv2D", "config": {"name": "Conv2D_0_2_0_2", "trainable": true, "dtype": "float32", "filters": 16, "kernel_size": [3, 3], "strides": [1, 1], "padding": "same", "data_format": "channels_last", "dilation_rate": [1, 1], "groups": 1, "activation": "linear", "use_bias": true, "kernel_initializer": {"class_name": "HeNormal", "config": {"seed": null}}, "bias_initializer": {"class_name": "Zeros", "config": {}}, "kernel_regularizer": {"class_name": "L2", "config": {"l2": 9.999999747378752e-05}}, "bias_regularizer": null, "activity_regularizer": null, "kernel_constraint": null, "bias_constraint": null}, "name": "Conv2D_0_2_0_2", "inbound_nodes": [[["Act1_0_2_0_1", 0, 0, {}]]]}, {"class_name": "BatchNormalization", "config": {"name": "BatchNorm1_0_2_0_2", "trainable": true, "dtype": "float32", "axis": [3], "momentum": 0.99, "epsilon": 0.001, "center": true, "scale": true, "beta_initializer": {"class_name": "Zeros", "config": {}}, "gamma_initializer": {"class_name": "Ones", "config": {}}, "moving_mean_initializer": {"class_name": "Zeros", "config": {}}, "moving_variance_initializer": {"class_name": "Ones", "config": {}}, "beta_regularizer": null, "gamma_regularizer": null, "beta_constraint": null, "gamma_constraint": null}, "name": "BatchNorm1_0_2_0_2", "inbound_nodes": [[["Conv2D_0_2_0_2", 0, 0, {}]]]}, {"class_name": "Add", "config": {"name": "add_100", "trainable": true, "dtype": "float32"}, "name": "add_100", "inbound_nodes": [[["activation_99", 0, 0, {}], ["BatchNorm1_0_2_0_2", 0, 0, {}]]]}, {"class_name": "Activation", "config": {"name": "activation_100", "trainable": true, "dtype": "float32", "activation": "relu"}, "name": "activation_100", "inbound_nodes": [[["add_100", 0, 0, {}]]]}, {"class_name": "Conv2D", "config": {"name": "Conv2D_0_3_0_1", "trainable": true, "dtype": "float32", "filters": 16, "kernel_size": [3, 3], "strides": [1, 1], "padding": "same", "data_format": "channels_last", "dilation_rate": [1, 1], "groups": 1, "activation": "linear", "use_bias": true, "kernel_initializer": {"class_name": "HeNormal", "config": {"seed": null}}, "bias_initializer": {"class_name": "Zeros", "config": {}}, "kernel_regularizer": {"class_name": "L2", "config": {"l2": 9.999999747378752e-05}}, "bias_regularizer": null, "activity_regularizer": null, "kernel_constraint": null, "bias_constraint": null}, "name": "Conv2D_0_3_0_1", "inbound_nodes": [[["activation_100", 0, 0, {}]]]}, {"class_name": "BatchNormalization", "config": {"name": "BatchNorm1_0_3_0_1", "trainable": true, "dtype": "float32", "axis": [3], "momentum": 0.99, "epsilon": 0.001, "center": true, "scale": true, "beta_initializer": {"class_name": "Zeros", "config": {}}, "gamma_initializer": {"class_name": "Ones", "config": {}}, "moving_mean_initializer": {"class_name": "Zeros", "config": {}}, "moving_variance_initializer": {"class_name": "Ones", "config": {}}, "beta_regularizer": null, "gamma_regularizer": null, "beta_constraint": null, "gamma_constraint": null}, "name": "BatchNorm1_0_3_0_1", "inbound_nodes": [[["Conv2D_0_3_0_1", 0, 0, {}]]]}, {"class_name": "Activation", "config": {"name": "Act1_0_3_0_1", "trainable": true, "dtype": "float32", "activation": "relu"}, "name": "Act1_0_3_0_1", "inbound_nodes": [[["BatchNorm1_0_3_0_1", 0, 0, {}]]]}, {"class_name": "Conv2D", "config": {"name": "Conv2D_0_3_0_2", "trainable": true, "dtype": "float32", "filters": 16, "kernel_size": [3, 3], "strides": [1, 1], "padding": "same", "data_format": "channels_last", "dilation_rate": [1, 1], "groups": 1, "activation": "linear", "use_bias": true, "kernel_initializer": {"class_name": "HeNormal", "config": {"seed": null}}, "bias_initializer": {"class_name": "Zeros", "config": {}}, "kernel_regularizer": {"class_name": "L2", "config": {"l2": 9.999999747378752e-05}}, "bias_regularizer": null, "activity_regularizer": null, "kernel_constraint": null, "bias_constraint": null}, "name": "Conv2D_0_3_0_2", "inbound_nodes": [[["Act1_0_3_0_1", 0, 0, {}]]]}, {"class_name": "BatchNormalization", "config": {"name": "BatchNorm1_0_3_0_2", "trainable": true, "dtype": "float32", "axis": [3], "momentum": 0.99, "epsilon": 0.001, "center": true, "scale": true, "beta_initializer": {"class_name": "Zeros", "config": {}}, "gamma_initializer": {"class_name": "Ones", "config": {}}, "moving_mean_initializer": {"class_name": "Zeros", "config": {}}, "moving_variance_initializer": {"class_name": "Ones", "config": {}}, "beta_regularizer": null, "gamma_regularizer": null, "beta_constraint": null, "gamma_constraint": null}, "name": "BatchNorm1_0_3_0_2", "inbound_nodes": [[["Conv2D_0_3_0_2", 0, 0, {}]]]}, {"class_name": "Add", "config": {"name": "add_101", "trainable": true, "dtype": "float32"}, "name": "add_101", "inbound_nodes": [[["activation_100", 0, 0, {}], ["BatchNorm1_0_3_0_2", 0, 0, {}]]]}, {"class_name": "Activation", "config": {"name": "activation_101", "trainable": true, "dtype": "float32", "activation": "relu"}, "name": "activation_101", "inbound_nodes": [[["add_101", 0, 0, {}]]]}, {"class_name": "Conv2D", "config": {"name": "Conv2D_0_4_0_1", "trainable": true, "dtype": "float32", "filters": 16, "kernel_size": [3, 3], "strides": [1, 1], "padding": "same", "data_format": "channels_last", "dilation_rate": [1, 1], "groups": 1, "activation": "linear", "use_bias": true, "kernel_initializer": {"class_name": "HeNormal", "config": {"seed": null}}, "bias_initializer": {"class_name": "Zeros", "config": {}}, "kernel_regularizer": {"class_name": "L2", "config": {"l2": 9.999999747378752e-05}}, "bias_regularizer": null, "activity_regularizer": null, "kernel_constraint": null, "bias_constraint": null}, "name": "Conv2D_0_4_0_1", "inbound_nodes": [[["activation_101", 0, 0, {}]]]}, {"class_name": "BatchNormalization", "config": {"name": "BatchNorm1_0_4_0_1", "trainable": true, "dtype": "float32", "axis": [3], "momentum": 0.99, "epsilon": 0.001, "center": true, "scale": true, "beta_initializer": {"class_name": "Zeros", "config": {}}, "gamma_initializer": {"class_name": "Ones", "config": {}}, "moving_mean_initializer": {"class_name": "Zeros", "config": {}}, "moving_variance_initializer": {"class_name": "Ones", "config": {}}, "beta_regularizer": null, "gamma_regularizer": null, "beta_constraint": null, "gamma_constraint": null}, "name": "BatchNorm1_0_4_0_1", "inbound_nodes": [[["Conv2D_0_4_0_1", 0, 0, {}]]]}, {"class_name": "Activation", "config": {"name": "Act1_0_4_0_1", "trainable": true, "dtype": "float32", "activation": "relu"}, "name": "Act1_0_4_0_1", "inbound_nodes": [[["BatchNorm1_0_4_0_1", 0, 0, {}]]]}, {"class_name": "Conv2D", "config": {"name": "Conv2D_0_4_0_2", "trainable": true, "dtype": "float32", "filters": 16, "kernel_size": [3, 3], "strides": [1, 1], "padding": "same", "data_format": "channels_last", "dilation_rate": [1, 1], "groups": 1, "activation": "linear", "use_bias": true, "kernel_initializer": {"class_name": "HeNormal", "config": {"seed": null}}, "bias_initializer": {"class_name": "Zeros", "config": {}}, "kernel_regularizer": {"class_name": "L2", "config": {"l2": 9.999999747378752e-05}}, "bias_regularizer": null, "activity_regularizer": null, "kernel_constraint": null, "bias_constraint": null}, "name": "Conv2D_0_4_0_2", "inbound_nodes": [[["Act1_0_4_0_1", 0, 0, {}]]]}, {"class_name": "BatchNormalization", "config": {"name": "BatchNorm1_0_4_0_2", "trainable": true, "dtype": "float32", "axis": [3], "momentum": 0.99, "epsilon": 0.001, "center": true, "scale": true, "beta_initializer": {"class_name": "Zeros", "config": {}}, "gamma_initializer": {"class_name": "Ones", "config": {}}, "moving_mean_initializer": {"class_name": "Zeros", "config": {}}, "moving_variance_initializer": {"class_name": "Ones", "config": {}}, "beta_regularizer": null, "gamma_regularizer": null, "beta_constraint": null, "gamma_constraint": null}, "name": "BatchNorm1_0_4_0_2", "inbound_nodes": [[["Conv2D_0_4_0_2", 0, 0, {}]]]}, {"class_name": "Add", "config": {"name": "add_102", "trainable": true, "dtype": "float32"}, "name": "add_102", "inbound_nodes": [[["activation_101", 0, 0, {}], ["BatchNorm1_0_4_0_2", 0, 0, {}]]]}, {"class_name": "Activation", "config": {"name": "activation_102", "trainable": true, "dtype": "float32", "activation": "relu"}, "name": "activation_102", "inbound_nodes": [[["add_102", 0, 0, {}]]]}, {"class_name": "Conv2D", "config": {"name": "Conv2D_0_5_0_1", "trainable": true, "dtype": "float32", "filters": 16, "kernel_size": [3, 3], "strides": [1, 1], "padding": "same", "data_format": "channels_last", "dilation_rate": [1, 1], "groups": 1, "activation": "linear", "use_bias": true, "kernel_initializer": {"class_name": "HeNormal", "config": {"seed": null}}, "bias_initializer": {"class_name": "Zeros", "config": {}}, "kernel_regularizer": {"class_name": "L2", "config": {"l2": 9.999999747378752e-05}}, "bias_regularizer": null, "activity_regularizer": null, "kernel_constraint": null, "bias_constraint": null}, "name": "Conv2D_0_5_0_1", "inbound_nodes": [[["activation_102", 0, 0, {}]]]}, {"class_name": "BatchNormalization", "config": {"name": "BatchNorm1_0_5_0_1", "trainable": true, "dtype": "float32", "axis": [3], "momentum": 0.99, "epsilon": 0.001, "center": true, "scale": true, "beta_initializer": {"class_name": "Zeros", "config": {}}, "gamma_initializer": {"class_name": "Ones", "config": {}}, "moving_mean_initializer": {"class_name": "Zeros", "config": {}}, "moving_variance_initializer": {"class_name": "Ones", "config": {}}, "beta_regularizer": null, "gamma_regularizer": null, "beta_constraint": null, "gamma_constraint": null}, "name": "BatchNorm1_0_5_0_1", "inbound_nodes": [[["Conv2D_0_5_0_1", 0, 0, {}]]]}, {"class_name": "Activation", "config": {"name": "Act1_0_5_0_1", "trainable": true, "dtype": "float32", "activation": "relu"}, "name": "Act1_0_5_0_1", "inbound_nodes": [[["BatchNorm1_0_5_0_1", 0, 0, {}]]]}, {"class_name": "Conv2D", "config": {"name": "Conv2D_0_5_0_2", "trainable": true, "dtype": "float32", "filters": 16, "kernel_size": [3, 3], "strides": [1, 1], "padding": "same", "data_format": "channels_last", "dilation_rate": [1, 1], "groups": 1, "activation": "linear", "use_bias": true, "kernel_initializer": {"class_name": "HeNormal", "config": {"seed": null}}, "bias_initializer": {"class_name": "Zeros", "config": {}}, "kernel_regularizer": {"class_name": "L2", "config": {"l2": 9.999999747378752e-05}}, "bias_regularizer": null, "activity_regularizer": null, "kernel_constraint": null, "bias_constraint": null}, "name": "Conv2D_0_5_0_2", "inbound_nodes": [[["Act1_0_5_0_1", 0, 0, {}]]]}, {"class_name": "BatchNormalization", "config": {"name": "BatchNorm1_0_5_0_2", "trainable": true, "dtype": "float32", "axis": [3], "momentum": 0.99, "epsilon": 0.001, "center": true, "scale": true, "beta_initializer": {"class_name": "Zeros", "config": {}}, "gamma_initializer": {"class_name": "Ones", "config": {}}, "moving_mean_initializer": {"class_name": "Zeros", "config": {}}, "moving_variance_initializer": {"class_name": "Ones", "config": {}}, "beta_regularizer": null, "gamma_regularizer": null, "beta_constraint": null, "gamma_constraint": null}, "name": "BatchNorm1_0_5_0_2", "inbound_nodes": [[["Conv2D_0_5_0_2", 0, 0, {}]]]}, {"class_name": "Add", "config": {"name": "add_103", "trainable": true, "dtype": "float32"}, "name": "add_103", "inbound_nodes": [[["activation_102", 0, 0, {}], ["BatchNorm1_0_5_0_2", 0, 0, {}]]]}, {"class_name": "Activation", "config": {"name": "activation_103", "trainable": true, "dtype": "float32", "activation": "relu"}, "name": "activation_103", "inbound_nodes": [[["add_103", 0, 0, {}]]]}, {"class_name": "Conv2D", "config": {"name": "Conv2D_0_6_0_1", "trainable": true, "dtype": "float32", "filters": 16, "kernel_size": [3, 3], "strides": [1, 1], "padding": "same", "data_format": "channels_last", "dilation_rate": [1, 1], "groups": 1, "activation": "linear", "use_bias": true, "kernel_initializer": {"class_name": "HeNormal", "config": {"seed": null}}, "bias_initializer": {"class_name": "Zeros", "config": {}}, "kernel_regularizer": {"class_name": "L2", "config": {"l2": 9.999999747378752e-05}}, "bias_regularizer": null, "activity_regularizer": null, "kernel_constraint": null, "bias_constraint": null}, "name": "Conv2D_0_6_0_1", "inbound_nodes": [[["activation_103", 0, 0, {}]]]}, {"class_name": "BatchNormalization", "config": {"name": "BatchNorm1_0_6_0_1", "trainable": true, "dtype": "float32", "axis": [3], "momentum": 0.99, "epsilon": 0.001, "center": true, "scale": true, "beta_initializer": {"class_name": "Zeros", "config": {}}, "gamma_initializer": {"class_name": "Ones", "config": {}}, "moving_mean_initializer": {"class_name": "Zeros", "config": {}}, "moving_variance_initializer": {"class_name": "Ones", "config": {}}, "beta_regularizer": null, "gamma_regularizer": null, "beta_constraint": null, "gamma_constraint": null}, "name": "BatchNorm1_0_6_0_1", "inbound_nodes": [[["Conv2D_0_6_0_1", 0, 0, {}]]]}, {"class_name": "Activation", "config": {"name": "Act1_0_6_0_1", "trainable": true, "dtype": "float32", "activation": "relu"}, "name": "Act1_0_6_0_1", "inbound_nodes": [[["BatchNorm1_0_6_0_1", 0, 0, {}]]]}, {"class_name": "Conv2D", "config": {"name": "Conv2D_0_6_0_2", "trainable": true, "dtype": "float32", "filters": 16, "kernel_size": [3, 3], "strides": [1, 1], "padding": "same", "data_format": "channels_last", "dilation_rate": [1, 1], "groups": 1, "activation": "linear", "use_bias": true, "kernel_initializer": {"class_name": "HeNormal", "config": {"seed": null}}, "bias_initializer": {"class_name": "Zeros", "config": {}}, "kernel_regularizer": {"class_name": "L2", "config": {"l2": 9.999999747378752e-05}}, "bias_regularizer": null, "activity_regularizer": null, "kernel_constraint": null, "bias_constraint": null}, "name": "Conv2D_0_6_0_2", "inbound_nodes": [[["Act1_0_6_0_1", 0, 0, {}]]]}, {"class_name": "BatchNormalization", "config": {"name": "BatchNorm1_0_6_0_2", "trainable": true, "dtype": "float32", "axis": [3], "momentum": 0.99, "epsilon": 0.001, "center": true, "scale": true, "beta_initializer": {"class_name": "Zeros", "config": {}}, "gamma_initializer": {"class_name": "Ones", "config": {}}, "moving_mean_initializer": {"class_name": "Zeros", "config": {}}, "moving_variance_initializer": {"class_name": "Ones", "config": {}}, "beta_regularizer": null, "gamma_regularizer": null, "beta_constraint": null, "gamma_constraint": null}, "name": "BatchNorm1_0_6_0_2", "inbound_nodes": [[["Conv2D_0_6_0_2", 0, 0, {}]]]}, {"class_name": "Add", "config": {"name": "add_104", "trainable": true, "dtype": "float32"}, "name": "add_104", "inbound_nodes": [[["activation_103", 0, 0, {}], ["BatchNorm1_0_6_0_2", 0, 0, {}]]]}, {"class_name": "Activation", "config": {"name": "activation_104", "trainable": true, "dtype": "float32", "activation": "relu"}, "name": "activation_104", "inbound_nodes": [[["add_104", 0, 0, {}]]]}, {"class_name": "Conv2D", "config": {"name": "Conv2D_1_0_0_1", "trainable": true, "dtype": "float32", "filters": 32, "kernel_size": [3, 3], "strides": [2, 2], "padding": "same", "data_format": "channels_last", "dilation_rate": [1, 1], "groups": 1, "activation": "linear", "use_bias": true, "kernel_initializer": {"class_name": "HeNormal", "config": {"seed": null}}, "bias_initializer": {"class_name": "Zeros", "config": {}}, "kernel_regularizer": {"class_name": "L2", "config": {"l2": 9.999999747378752e-05}}, "bias_regularizer": null, "activity_regularizer": null, "kernel_constraint": null, "bias_constraint": null}, "name": "Conv2D_1_0_0_1", "inbound_nodes": [[["activation_104", 0, 0, {}]]]}, {"class_name": "BatchNormalization", "config": {"name": "BatchNorm1_1_0_0_1", "trainable": true, "dtype": "float32", "axis": [3], "momentum": 0.99, "epsilon": 0.001, "center": true, "scale": true, "beta_initializer": {"class_name": "Zeros", "config": {}}, "gamma_initializer": {"class_name": "Ones", "config": {}}, "moving_mean_initializer": {"class_name": "Zeros", "config": {}}, "moving_variance_initializer": {"class_name": "Ones", "config": {}}, "beta_regularizer": null, "gamma_regularizer": null, "beta_constraint": null, "gamma_constraint": null}, "name": "BatchNorm1_1_0_0_1", "inbound_nodes": [[["Conv2D_1_0_0_1", 0, 0, {}]]]}, {"class_name": "Activation", "config": {"name": "Act1_1_0_0_1", "trainable": true, "dtype": "float32", "activation": "relu"}, "name": "Act1_1_0_0_1", "inbound_nodes": [[["BatchNorm1_1_0_0_1", 0, 0, {}]]]}, {"class_name": "Conv2D", "config": {"name": "Conv2D_1_0_0_2", "trainable": true, "dtype": "float32", "filters": 32, "kernel_size": [3, 3], "strides": [1, 1], "padding": "same", "data_format": "channels_last", "dilation_rate": [1, 1], "groups": 1, "activation": "linear", "use_bias": true, "kernel_initializer": {"class_name": "HeNormal", "config": {"seed": null}}, "bias_initializer": {"class_name": "Zeros", "config": {}}, "kernel_regularizer": {"class_name": "L2", "config": {"l2": 9.999999747378752e-05}}, "bias_regularizer": null, "activity_regularizer": null, "kernel_constraint": null, "bias_constraint": null}, "name": "Conv2D_1_0_0_2", "inbound_nodes": [[["Act1_1_0_0_1", 0, 0, {}]]]}, {"class_name": "Conv2D", "config": {"name": "Conv2D_1_0_0_3", "trainable": true, "dtype": "float32", "filters": 32, "kernel_size": [1, 1], "strides": [2, 2], "padding": "same", "data_format": "channels_last", "dilation_rate": [1, 1], "groups": 1, "activation": "linear", "use_bias": true, "kernel_initializer": {"class_name": "HeNormal", "config": {"seed": null}}, "bias_initializer": {"class_name": "Zeros", "config": {}}, "kernel_regularizer": {"class_name": "L2", "config": {"l2": 9.999999747378752e-05}}, "bias_regularizer": null, "activity_regularizer": null, "kernel_constraint": null, "bias_constraint": null}, "name": "Conv2D_1_0_0_3", "inbound_nodes": [[["activation_104", 0, 0, {}]]]}, {"class_name": "BatchNormalization", "config": {"name": "BatchNorm1_1_0_0_2", "trainable": true, "dtype": "float32", "axis": [3], "momentum": 0.99, "epsilon": 0.001, "center": true, "scale": true, "beta_initializer": {"class_name": "Zeros", "config": {}}, "gamma_initializer": {"class_name": "Ones", "config": {}}, "moving_mean_initializer": {"class_name": "Zeros", "config": {}}, "moving_variance_initializer": {"class_name": "Ones", "config": {}}, "beta_regularizer": null, "gamma_regularizer": null, "beta_constraint": null, "gamma_constraint": null}, "name": "BatchNorm1_1_0_0_2", "inbound_nodes": [[["Conv2D_1_0_0_2", 0, 0, {}]]]}, {"class_name": "Add", "config": {"name": "add_105", "trainable": true, "dtype": "float32"}, "name": "add_105", "inbound_nodes": [[["Conv2D_1_0_0_3", 0, 0, {}], ["BatchNorm1_1_0_0_2", 0, 0, {}]]]}, {"class_name": "Activation", "config": {"name": "activation_105", "trainable": true, "dtype": "float32", "activation": "relu"}, "name": "activation_105", "inbound_nodes": [[["add_105", 0, 0, {}]]]}, {"class_name": "Conv2D", "config": {"name": "Conv2D_1_1_0_1", "trainable": true, "dtype": "float32", "filters": 32, "kernel_size": [3, 3], "strides": [1, 1], "padding": "same", "data_format": "channels_last", "dilation_rate": [1, 1], "groups": 1, "activation": "linear", "use_bias": true, "kernel_initializer": {"class_name": "HeNormal", "config": {"seed": null}}, "bias_initializer": {"class_name": "Zeros", "config": {}}, "kernel_regularizer": {"class_name": "L2", "config": {"l2": 9.999999747378752e-05}}, "bias_regularizer": null, "activity_regularizer": null, "kernel_constraint": null, "bias_constraint": null}, "name": "Conv2D_1_1_0_1", "inbound_nodes": [[["activation_105", 0, 0, {}]]]}, {"class_name": "BatchNormalization", "config": {"name": "BatchNorm1_1_1_0_1", "trainable": true, "dtype": "float32", "axis": [3], "momentum": 0.99, "epsilon": 0.001, "center": true, "scale": true, "beta_initializer": {"class_name": "Zeros", "config": {}}, "gamma_initializer": {"class_name": "Ones", "config": {}}, "moving_mean_initializer": {"class_name": "Zeros", "config": {}}, "moving_variance_initializer": {"class_name": "Ones", "config": {}}, "beta_regularizer": null, "gamma_regularizer": null, "beta_constraint": null, "gamma_constraint": null}, "name": "BatchNorm1_1_1_0_1", "inbound_nodes": [[["Conv2D_1_1_0_1", 0, 0, {}]]]}, {"class_name": "Activation", "config": {"name": "Act1_1_1_0_1", "trainable": true, "dtype": "float32", "activation": "relu"}, "name": "Act1_1_1_0_1", "inbound_nodes": [[["BatchNorm1_1_1_0_1", 0, 0, {}]]]}, {"class_name": "Conv2D", "config": {"name": "Conv2D_1_1_0_2", "trainable": true, "dtype": "float32", "filters": 32, "kernel_size": [3, 3], "strides": [1, 1], "padding": "same", "data_format": "channels_last", "dilation_rate": [1, 1], "groups": 1, "activation": "linear", "use_bias": true, "kernel_initializer": {"class_name": "HeNormal", "config": {"seed": null}}, "bias_initializer": {"class_name": "Zeros", "config": {}}, "kernel_regularizer": {"class_name": "L2", "config": {"l2": 9.999999747378752e-05}}, "bias_regularizer": null, "activity_regularizer": null, "kernel_constraint": null, "bias_constraint": null}, "name": "Conv2D_1_1_0_2", "inbound_nodes": [[["Act1_1_1_0_1", 0, 0, {}]]]}, {"class_name": "BatchNormalization", "config": {"name": "BatchNorm1_1_1_0_2", "trainable": true, "dtype": "float32", "axis": [3], "momentum": 0.99, "epsilon": 0.001, "center": true, "scale": true, "beta_initializer": {"class_name": "Zeros", "config": {}}, "gamma_initializer": {"class_name": "Ones", "config": {}}, "moving_mean_initializer": {"class_name": "Zeros", "config": {}}, "moving_variance_initializer": {"class_name": "Ones", "config": {}}, "beta_regularizer": null, "gamma_regularizer": null, "beta_constraint": null, "gamma_constraint": null}, "name": "BatchNorm1_1_1_0_2", "inbound_nodes": [[["Conv2D_1_1_0_2", 0, 0, {}]]]}, {"class_name": "Add", "config": {"name": "add_106", "trainable": true, "dtype": "float32"}, "name": "add_106", "inbound_nodes": [[["activation_105", 0, 0, {}], ["BatchNorm1_1_1_0_2", 0, 0, {}]]]}, {"class_name": "Activation", "config": {"name": "activation_106", "trainable": true, "dtype": "float32", "activation": "relu"}, "name": "activation_106", "inbound_nodes": [[["add_106", 0, 0, {}]]]}, {"class_name": "Conv2D", "config": {"name": "Conv2D_1_2_0_1", "trainable": true, "dtype": "float32", "filters": 32, "kernel_size": [3, 3], "strides": [1, 1], "padding": "same", "data_format": "channels_last", "dilation_rate": [1, 1], "groups": 1, "activation": "linear", "use_bias": true, "kernel_initializer": {"class_name": "HeNormal", "config": {"seed": null}}, "bias_initializer": {"class_name": "Zeros", "config": {}}, "kernel_regularizer": {"class_name": "L2", "config": {"l2": 9.999999747378752e-05}}, "bias_regularizer": null, "activity_regularizer": null, "kernel_constraint": null, "bias_constraint": null}, "name": "Conv2D_1_2_0_1", "inbound_nodes": [[["activation_106", 0, 0, {}]]]}, {"class_name": "BatchNormalization", "config": {"name": "BatchNorm1_1_2_0_1", "trainable": true, "dtype": "float32", "axis": [3], "momentum": 0.99, "epsilon": 0.001, "center": true, "scale": true, "beta_initializer": {"class_name": "Zeros", "config": {}}, "gamma_initializer": {"class_name": "Ones", "config": {}}, "moving_mean_initializer": {"class_name": "Zeros", "config": {}}, "moving_variance_initializer": {"class_name": "Ones", "config": {}}, "beta_regularizer": null, "gamma_regularizer": null, "beta_constraint": null, "gamma_constraint": null}, "name": "BatchNorm1_1_2_0_1", "inbound_nodes": [[["Conv2D_1_2_0_1", 0, 0, {}]]]}, {"class_name": "Activation", "config": {"name": "Act1_1_2_0_1", "trainable": true, "dtype": "float32", "activation": "relu"}, "name": "Act1_1_2_0_1", "inbound_nodes": [[["BatchNorm1_1_2_0_1", 0, 0, {}]]]}, {"class_name": "Conv2D", "config": {"name": "Conv2D_1_2_0_2", "trainable": true, "dtype": "float32", "filters": 32, "kernel_size": [3, 3], "strides": [1, 1], "padding": "same", "data_format": "channels_last", "dilation_rate": [1, 1], "groups": 1, "activation": "linear", "use_bias": true, "kernel_initializer": {"class_name": "HeNormal", "config": {"seed": null}}, "bias_initializer": {"class_name": "Zeros", "config": {}}, "kernel_regularizer": {"class_name": "L2", "config": {"l2": 9.999999747378752e-05}}, "bias_regularizer": null, "activity_regularizer": null, "kernel_constraint": null, "bias_constraint": null}, "name": "Conv2D_1_2_0_2", "inbound_nodes": [[["Act1_1_2_0_1", 0, 0, {}]]]}, {"class_name": "BatchNormalization", "config": {"name": "BatchNorm1_1_2_0_2", "trainable": true, "dtype": "float32", "axis": [3], "momentum": 0.99, "epsilon": 0.001, "center": true, "scale": true, "beta_initializer": {"class_name": "Zeros", "config": {}}, "gamma_initializer": {"class_name": "Ones", "config": {}}, "moving_mean_initializer": {"class_name": "Zeros", "config": {}}, "moving_variance_initializer": {"class_name": "Ones", "config": {}}, "beta_regularizer": null, "gamma_regularizer": null, "beta_constraint": null, "gamma_constraint": null}, "name": "BatchNorm1_1_2_0_2", "inbound_nodes": [[["Conv2D_1_2_0_2", 0, 0, {}]]]}, {"class_name": "Add", "config": {"name": "add_107", "trainable": true, "dtype": "float32"}, "name": "add_107", "inbound_nodes": [[["activation_106", 0, 0, {}], ["BatchNorm1_1_2_0_2", 0, 0, {}]]]}, {"class_name": "Activation", "config": {"name": "activation_107", "trainable": true, "dtype": "float32", "activation": "relu"}, "name": "activation_107", "inbound_nodes": [[["add_107", 0, 0, {}]]]}, {"class_name": "Conv2D", "config": {"name": "Conv2D_1_3_0_1", "trainable": true, "dtype": "float32", "filters": 32, "kernel_size": [3, 3], "strides": [1, 1], "padding": "same", "data_format": "channels_last", "dilation_rate": [1, 1], "groups": 1, "activation": "linear", "use_bias": true, "kernel_initializer": {"class_name": "HeNormal", "config": {"seed": null}}, "bias_initializer": {"class_name": "Zeros", "config": {}}, "kernel_regularizer": {"class_name": "L2", "config": {"l2": 9.999999747378752e-05}}, "bias_regularizer": null, "activity_regularizer": null, "kernel_constraint": null, "bias_constraint": null}, "name": "Conv2D_1_3_0_1", "inbound_nodes": [[["activation_107", 0, 0, {}]]]}, {"class_name": "BatchNormalization", "config": {"name": "BatchNorm1_1_3_0_1", "trainable": true, "dtype": "float32", "axis": [3], "momentum": 0.99, "epsilon": 0.001, "center": true, "scale": true, "beta_initializer": {"class_name": "Zeros", "config": {}}, "gamma_initializer": {"class_name": "Ones", "config": {}}, "moving_mean_initializer": {"class_name": "Zeros", "config": {}}, "moving_variance_initializer": {"class_name": "Ones", "config": {}}, "beta_regularizer": null, "gamma_regularizer": null, "beta_constraint": null, "gamma_constraint": null}, "name": "BatchNorm1_1_3_0_1", "inbound_nodes": [[["Conv2D_1_3_0_1", 0, 0, {}]]]}, {"class_name": "Activation", "config": {"name": "Act1_1_3_0_1", "trainable": true, "dtype": "float32", "activation": "relu"}, "name": "Act1_1_3_0_1", "inbound_nodes": [[["BatchNorm1_1_3_0_1", 0, 0, {}]]]}, {"class_name": "Conv2D", "config": {"name": "Conv2D_1_3_0_2", "trainable": true, "dtype": "float32", "filters": 32, "kernel_size": [3, 3], "strides": [1, 1], "padding": "same", "data_format": "channels_last", "dilation_rate": [1, 1], "groups": 1, "activation": "linear", "use_bias": true, "kernel_initializer": {"class_name": "HeNormal", "config": {"seed": null}}, "bias_initializer": {"class_name": "Zeros", "config": {}}, "kernel_regularizer": {"class_name": "L2", "config": {"l2": 9.999999747378752e-05}}, "bias_regularizer": null, "activity_regularizer": null, "kernel_constraint": null, "bias_constraint": null}, "name": "Conv2D_1_3_0_2", "inbound_nodes": [[["Act1_1_3_0_1", 0, 0, {}]]]}, {"class_name": "BatchNormalization", "config": {"name": "BatchNorm1_1_3_0_2", "trainable": true, "dtype": "float32", "axis": [3], "momentum": 0.99, "epsilon": 0.001, "center": true, "scale": true, "beta_initializer": {"class_name": "Zeros", "config": {}}, "gamma_initializer": {"class_name": "Ones", "config": {}}, "moving_mean_initializer": {"class_name": "Zeros", "config": {}}, "moving_variance_initializer": {"class_name": "Ones", "config": {}}, "beta_regularizer": null, "gamma_regularizer": null, "beta_constraint": null, "gamma_constraint": null}, "name": "BatchNorm1_1_3_0_2", "inbound_nodes": [[["Conv2D_1_3_0_2", 0, 0, {}]]]}, {"class_name": "Add", "config": {"name": "add_108", "trainable": true, "dtype": "float32"}, "name": "add_108", "inbound_nodes": [[["activation_107", 0, 0, {}], ["BatchNorm1_1_3_0_2", 0, 0, {}]]]}, {"class_name": "Activation", "config": {"name": "activation_108", "trainable": true, "dtype": "float32", "activation": "relu"}, "name": "activation_108", "inbound_nodes": [[["add_108", 0, 0, {}]]]}, {"class_name": "Conv2D", "config": {"name": "Conv2D_1_4_0_1", "trainable": true, "dtype": "float32", "filters": 32, "kernel_size": [3, 3], "strides": [1, 1], "padding": "same", "data_format": "channels_last", "dilation_rate": [1, 1], "groups": 1, "activation": "linear", "use_bias": true, "kernel_initializer": {"class_name": "HeNormal", "config": {"seed": null}}, "bias_initializer": {"class_name": "Zeros", "config": {}}, "kernel_regularizer": {"class_name": "L2", "config": {"l2": 9.999999747378752e-05}}, "bias_regularizer": null, "activity_regularizer": null, "kernel_constraint": null, "bias_constraint": null}, "name": "Conv2D_1_4_0_1", "inbound_nodes": [[["activation_108", 0, 0, {}]]]}, {"class_name": "BatchNormalization", "config": {"name": "BatchNorm1_1_4_0_1", "trainable": true, "dtype": "float32", "axis": [3], "momentum": 0.99, "epsilon": 0.001, "center": true, "scale": true, "beta_initializer": {"class_name": "Zeros", "config": {}}, "gamma_initializer": {"class_name": "Ones", "config": {}}, "moving_mean_initializer": {"class_name": "Zeros", "config": {}}, "moving_variance_initializer": {"class_name": "Ones", "config": {}}, "beta_regularizer": null, "gamma_regularizer": null, "beta_constraint": null, "gamma_constraint": null}, "name": "BatchNorm1_1_4_0_1", "inbound_nodes": [[["Conv2D_1_4_0_1", 0, 0, {}]]]}, {"class_name": "Activation", "config": {"name": "Act1_1_4_0_1", "trainable": true, "dtype": "float32", "activation": "relu"}, "name": "Act1_1_4_0_1", "inbound_nodes": [[["BatchNorm1_1_4_0_1", 0, 0, {}]]]}, {"class_name": "Conv2D", "config": {"name": "Conv2D_1_4_0_2", "trainable": true, "dtype": "float32", "filters": 32, "kernel_size": [3, 3], "strides": [1, 1], "padding": "same", "data_format": "channels_last", "dilation_rate": [1, 1], "groups": 1, "activation": "linear", "use_bias": true, "kernel_initializer": {"class_name": "HeNormal", "config": {"seed": null}}, "bias_initializer": {"class_name": "Zeros", "config": {}}, "kernel_regularizer": {"class_name": "L2", "config": {"l2": 9.999999747378752e-05}}, "bias_regularizer": null, "activity_regularizer": null, "kernel_constraint": null, "bias_constraint": null}, "name": "Conv2D_1_4_0_2", "inbound_nodes": [[["Act1_1_4_0_1", 0, 0, {}]]]}, {"class_name": "BatchNormalization", "config": {"name": "BatchNorm1_1_4_0_2", "trainable": true, "dtype": "float32", "axis": [3], "momentum": 0.99, "epsilon": 0.001, "center": true, "scale": true, "beta_initializer": {"class_name": "Zeros", "config": {}}, "gamma_initializer": {"class_name": "Ones", "config": {}}, "moving_mean_initializer": {"class_name": "Zeros", "config": {}}, "moving_variance_initializer": {"class_name": "Ones", "config": {}}, "beta_regularizer": null, "gamma_regularizer": null, "beta_constraint": null, "gamma_constraint": null}, "name": "BatchNorm1_1_4_0_2", "inbound_nodes": [[["Conv2D_1_4_0_2", 0, 0, {}]]]}, {"class_name": "Add", "config": {"name": "add_109", "trainable": true, "dtype": "float32"}, "name": "add_109", "inbound_nodes": [[["activation_108", 0, 0, {}], ["BatchNorm1_1_4_0_2", 0, 0, {}]]]}, {"class_name": "Activation", "config": {"name": "activation_109", "trainable": true, "dtype": "float32", "activation": "relu"}, "name": "activation_109", "inbound_nodes": [[["add_109", 0, 0, {}]]]}, {"class_name": "Conv2D", "config": {"name": "Conv2D_1_5_0_1", "trainable": true, "dtype": "float32", "filters": 32, "kernel_size": [3, 3], "strides": [1, 1], "padding": "same", "data_format": "channels_last", "dilation_rate": [1, 1], "groups": 1, "activation": "linear", "use_bias": true, "kernel_initializer": {"class_name": "HeNormal", "config": {"seed": null}}, "bias_initializer": {"class_name": "Zeros", "config": {}}, "kernel_regularizer": {"class_name": "L2", "config": {"l2": 9.999999747378752e-05}}, "bias_regularizer": null, "activity_regularizer": null, "kernel_constraint": null, "bias_constraint": null}, "name": "Conv2D_1_5_0_1", "inbound_nodes": [[["activation_109", 0, 0, {}]]]}, {"class_name": "BatchNormalization", "config": {"name": "BatchNorm1_1_5_0_1", "trainable": true, "dtype": "float32", "axis": [3], "momentum": 0.99, "epsilon": 0.001, "center": true, "scale": true, "beta_initializer": {"class_name": "Zeros", "config": {}}, "gamma_initializer": {"class_name": "Ones", "config": {}}, "moving_mean_initializer": {"class_name": "Zeros", "config": {}}, "moving_variance_initializer": {"class_name": "Ones", "config": {}}, "beta_regularizer": null, "gamma_regularizer": null, "beta_constraint": null, "gamma_constraint": null}, "name": "BatchNorm1_1_5_0_1", "inbound_nodes": [[["Conv2D_1_5_0_1", 0, 0, {}]]]}, {"class_name": "Activation", "config": {"name": "Act1_1_5_0_1", "trainable": true, "dtype": "float32", "activation": "relu"}, "name": "Act1_1_5_0_1", "inbound_nodes": [[["BatchNorm1_1_5_0_1", 0, 0, {}]]]}, {"class_name": "Conv2D", "config": {"name": "Conv2D_1_5_0_2", "trainable": true, "dtype": "float32", "filters": 32, "kernel_size": [3, 3], "strides": [1, 1], "padding": "same", "data_format": "channels_last", "dilation_rate": [1, 1], "groups": 1, "activation": "linear", "use_bias": true, "kernel_initializer": {"class_name": "HeNormal", "config": {"seed": null}}, "bias_initializer": {"class_name": "Zeros", "config": {}}, "kernel_regularizer": {"class_name": "L2", "config": {"l2": 9.999999747378752e-05}}, "bias_regularizer": null, "activity_regularizer": null, "kernel_constraint": null, "bias_constraint": null}, "name": "Conv2D_1_5_0_2", "inbound_nodes": [[["Act1_1_5_0_1", 0, 0, {}]]]}, {"class_name": "BatchNormalization", "config": {"name": "BatchNorm1_1_5_0_2", "trainable": true, "dtype": "float32", "axis": [3], "momentum": 0.99, "epsilon": 0.001, "center": true, "scale": true, "beta_initializer": {"class_name": "Zeros", "config": {}}, "gamma_initializer": {"class_name": "Ones", "config": {}}, "moving_mean_initializer": {"class_name": "Zeros", "config": {}}, "moving_variance_initializer": {"class_name": "Ones", "config": {}}, "beta_regularizer": null, "gamma_regularizer": null, "beta_constraint": null, "gamma_constraint": null}, "name": "BatchNorm1_1_5_0_2", "inbound_nodes": [[["Conv2D_1_5_0_2", 0, 0, {}]]]}, {"class_name": "Add", "config": {"name": "add_110", "trainable": true, "dtype": "float32"}, "name": "add_110", "inbound_nodes": [[["activation_109", 0, 0, {}], ["BatchNorm1_1_5_0_2", 0, 0, {}]]]}, {"class_name": "Activation", "config": {"name": "activation_110", "trainable": true, "dtype": "float32", "activation": "relu"}, "name": "activation_110", "inbound_nodes": [[["add_110", 0, 0, {}]]]}, {"class_name": "Conv2D", "config": {"name": "Conv2D_2_0_0_1", "trainable": true, "dtype": "float32", "filters": 64, "kernel_size": [3, 3], "strides": [2, 2], "padding": "same", "data_format": "channels_last", "dilation_rate": [1, 1], "groups": 1, "activation": "linear", "use_bias": true, "kernel_initializer": {"class_name": "HeNormal", "config": {"seed": null}}, "bias_initializer": {"class_name": "Zeros", "config": {}}, "kernel_regularizer": {"class_name": "L2", "config": {"l2": 9.999999747378752e-05}}, "bias_regularizer": null, "activity_regularizer": null, "kernel_constraint": null, "bias_constraint": null}, "name": "Conv2D_2_0_0_1", "inbound_nodes": [[["activation_110", 0, 0, {}]]]}, {"class_name": "BatchNormalization", "config": {"name": "BatchNorm1_2_0_0_1", "trainable": true, "dtype": "float32", "axis": [3], "momentum": 0.99, "epsilon": 0.001, "center": true, "scale": true, "beta_initializer": {"class_name": "Zeros", "config": {}}, "gamma_initializer": {"class_name": "Ones", "config": {}}, "moving_mean_initializer": {"class_name": "Zeros", "config": {}}, "moving_variance_initializer": {"class_name": "Ones", "config": {}}, "beta_regularizer": null, "gamma_regularizer": null, "beta_constraint": null, "gamma_constraint": null}, "name": "BatchNorm1_2_0_0_1", "inbound_nodes": [[["Conv2D_2_0_0_1", 0, 0, {}]]]}, {"class_name": "Activation", "config": {"name": "Act1_2_0_0_1", "trainable": true, "dtype": "float32", "activation": "relu"}, "name": "Act1_2_0_0_1", "inbound_nodes": [[["BatchNorm1_2_0_0_1", 0, 0, {}]]]}, {"class_name": "Conv2D", "config": {"name": "Conv2D_2_0_0_2", "trainable": true, "dtype": "float32", "filters": 64, "kernel_size": [3, 3], "strides": [1, 1], "padding": "same", "data_format": "channels_last", "dilation_rate": [1, 1], "groups": 1, "activation": "linear", "use_bias": true, "kernel_initializer": {"class_name": "HeNormal", "config": {"seed": null}}, "bias_initializer": {"class_name": "Zeros", "config": {}}, "kernel_regularizer": {"class_name": "L2", "config": {"l2": 9.999999747378752e-05}}, "bias_regularizer": null, "activity_regularizer": null, "kernel_constraint": null, "bias_constraint": null}, "name": "Conv2D_2_0_0_2", "inbound_nodes": [[["Act1_2_0_0_1", 0, 0, {}]]]}, {"class_name": "Conv2D", "config": {"name": "Conv2D_2_0_0_3", "trainable": true, "dtype": "float32", "filters": 64, "kernel_size": [1, 1], "strides": [2, 2], "padding": "same", "data_format": "channels_last", "dilation_rate": [1, 1], "groups": 1, "activation": "linear", "use_bias": true, "kernel_initializer": {"class_name": "HeNormal", "config": {"seed": null}}, "bias_initializer": {"class_name": "Zeros", "config": {}}, "kernel_regularizer": {"class_name": "L2", "config": {"l2": 9.999999747378752e-05}}, "bias_regularizer": null, "activity_regularizer": null, "kernel_constraint": null, "bias_constraint": null}, "name": "Conv2D_2_0_0_3", "inbound_nodes": [[["activation_110", 0, 0, {}]]]}, {"class_name": "BatchNormalization", "config": {"name": "BatchNorm1_2_0_0_2", "trainable": true, "dtype": "float32", "axis": [3], "momentum": 0.99, "epsilon": 0.001, "center": true, "scale": true, "beta_initializer": {"class_name": "Zeros", "config": {}}, "gamma_initializer": {"class_name": "Ones", "config": {}}, "moving_mean_initializer": {"class_name": "Zeros", "config": {}}, "moving_variance_initializer": {"class_name": "Ones", "config": {}}, "beta_regularizer": null, "gamma_regularizer": null, "beta_constraint": null, "gamma_constraint": null}, "name": "BatchNorm1_2_0_0_2", "inbound_nodes": [[["Conv2D_2_0_0_2", 0, 0, {}]]]}, {"class_name": "Add", "config": {"name": "add_111", "trainable": true, "dtype": "float32"}, "name": "add_111", "inbound_nodes": [[["Conv2D_2_0_0_3", 0, 0, {}], ["BatchNorm1_2_0_0_2", 0, 0, {}]]]}, {"class_name": "Activation", "config": {"name": "activation_111", "trainable": true, "dtype": "float32", "activation": "relu"}, "name": "activation_111", "inbound_nodes": [[["add_111", 0, 0, {}]]]}, {"class_name": "Conv2D", "config": {"name": "Conv2D_2_1_0_1", "trainable": true, "dtype": "float32", "filters": 64, "kernel_size": [3, 3], "strides": [1, 1], "padding": "same", "data_format": "channels_last", "dilation_rate": [1, 1], "groups": 1, "activation": "linear", "use_bias": true, "kernel_initializer": {"class_name": "HeNormal", "config": {"seed": null}}, "bias_initializer": {"class_name": "Zeros", "config": {}}, "kernel_regularizer": {"class_name": "L2", "config": {"l2": 9.999999747378752e-05}}, "bias_regularizer": null, "activity_regularizer": null, "kernel_constraint": null, "bias_constraint": null}, "name": "Conv2D_2_1_0_1", "inbound_nodes": [[["activation_111", 0, 0, {}]]]}, {"class_name": "BatchNormalization", "config": {"name": "BatchNorm1_2_1_0_1", "trainable": true, "dtype": "float32", "axis": [3], "momentum": 0.99, "epsilon": 0.001, "center": true, "scale": true, "beta_initializer": {"class_name": "Zeros", "config": {}}, "gamma_initializer": {"class_name": "Ones", "config": {}}, "moving_mean_initializer": {"class_name": "Zeros", "config": {}}, "moving_variance_initializer": {"class_name": "Ones", "config": {}}, "beta_regularizer": null, "gamma_regularizer": null, "beta_constraint": null, "gamma_constraint": null}, "name": "BatchNorm1_2_1_0_1", "inbound_nodes": [[["Conv2D_2_1_0_1", 0, 0, {}]]]}, {"class_name": "Activation", "config": {"name": "Act1_2_1_0_1", "trainable": true, "dtype": "float32", "activation": "relu"}, "name": "Act1_2_1_0_1", "inbound_nodes": [[["BatchNorm1_2_1_0_1", 0, 0, {}]]]}, {"class_name": "Conv2D", "config": {"name": "Conv2D_2_1_0_2", "trainable": true, "dtype": "float32", "filters": 64, "kernel_size": [3, 3], "strides": [1, 1], "padding": "same", "data_format": "channels_last", "dilation_rate": [1, 1], "groups": 1, "activation": "linear", "use_bias": true, "kernel_initializer": {"class_name": "HeNormal", "config": {"seed": null}}, "bias_initializer": {"class_name": "Zeros", "config": {}}, "kernel_regularizer": {"class_name": "L2", "config": {"l2": 9.999999747378752e-05}}, "bias_regularizer": null, "activity_regularizer": null, "kernel_constraint": null, "bias_constraint": null}, "name": "Conv2D_2_1_0_2", "inbound_nodes": [[["Act1_2_1_0_1", 0, 0, {}]]]}, {"class_name": "BatchNormalization", "config": {"name": "BatchNorm1_2_1_0_2", "trainable": true, "dtype": "float32", "axis": [3], "momentum": 0.99, "epsilon": 0.001, "center": true, "scale": true, "beta_initializer": {"class_name": "Zeros", "config": {}}, "gamma_initializer": {"class_name": "Ones", "config": {}}, "moving_mean_initializer": {"class_name": "Zeros", "config": {}}, "moving_variance_initializer": {"class_name": "Ones", "config": {}}, "beta_regularizer": null, "gamma_regularizer": null, "beta_constraint": null, "gamma_constraint": null}, "name": "BatchNorm1_2_1_0_2", "inbound_nodes": [[["Conv2D_2_1_0_2", 0, 0, {}]]]}, {"class_name": "Add", "config": {"name": "add_112", "trainable": true, "dtype": "float32"}, "name": "add_112", "inbound_nodes": [[["activation_111", 0, 0, {}], ["BatchNorm1_2_1_0_2", 0, 0, {}]]]}, {"class_name": "Activation", "config": {"name": "activation_112", "trainable": true, "dtype": "float32", "activation": "relu"}, "name": "activation_112", "inbound_nodes": [[["add_112", 0, 0, {}]]]}, {"class_name": "Conv2D", "config": {"name": "Conv2D_2_2_0_1", "trainable": true, "dtype": "float32", "filters": 64, "kernel_size": [3, 3], "strides": [1, 1], "padding": "same", "data_format": "channels_last", "dilation_rate": [1, 1], "groups": 1, "activation": "linear", "use_bias": true, "kernel_initializer": {"class_name": "HeNormal", "config": {"seed": null}}, "bias_initializer": {"class_name": "Zeros", "config": {}}, "kernel_regularizer": {"class_name": "L2", "config": {"l2": 9.999999747378752e-05}}, "bias_regularizer": null, "activity_regularizer": null, "kernel_constraint": null, "bias_constraint": null}, "name": "Conv2D_2_2_0_1", "inbound_nodes": [[["activation_112", 0, 0, {}]]]}, {"class_name": "BatchNormalization", "config": {"name": "BatchNorm1_2_2_0_1", "trainable": true, "dtype": "float32", "axis": [3], "momentum": 0.99, "epsilon": 0.001, "center": true, "scale": true, "beta_initializer": {"class_name": "Zeros", "config": {}}, "gamma_initializer": {"class_name": "Ones", "config": {}}, "moving_mean_initializer": {"class_name": "Zeros", "config": {}}, "moving_variance_initializer": {"class_name": "Ones", "config": {}}, "beta_regularizer": null, "gamma_regularizer": null, "beta_constraint": null, "gamma_constraint": null}, "name": "BatchNorm1_2_2_0_1", "inbound_nodes": [[["Conv2D_2_2_0_1", 0, 0, {}]]]}, {"class_name": "Activation", "config": {"name": "Act1_2_2_0_1", "trainable": true, "dtype": "float32", "activation": "relu"}, "name": "Act1_2_2_0_1", "inbound_nodes": [[["BatchNorm1_2_2_0_1", 0, 0, {}]]]}, {"class_name": "Conv2D", "config": {"name": "Conv2D_2_2_0_2", "trainable": true, "dtype": "float32", "filters": 64, "kernel_size": [3, 3], "strides": [1, 1], "padding": "same", "data_format": "channels_last", "dilation_rate": [1, 1], "groups": 1, "activation": "linear", "use_bias": true, "kernel_initializer": {"class_name": "HeNormal", "config": {"seed": null}}, "bias_initializer": {"class_name": "Zeros", "config": {}}, "kernel_regularizer": {"class_name": "L2", "config": {"l2": 9.999999747378752e-05}}, "bias_regularizer": null, "activity_regularizer": null, "kernel_constraint": null, "bias_constraint": null}, "name": "Conv2D_2_2_0_2", "inbound_nodes": [[["Act1_2_2_0_1", 0, 0, {}]]]}, {"class_name": "BatchNormalization", "config": {"name": "BatchNorm1_2_2_0_2", "trainable": true, "dtype": "float32", "axis": [3], "momentum": 0.99, "epsilon": 0.001, "center": true, "scale": true, "beta_initializer": {"class_name": "Zeros", "config": {}}, "gamma_initializer": {"class_name": "Ones", "config": {}}, "moving_mean_initializer": {"class_name": "Zeros", "config": {}}, "moving_variance_initializer": {"class_name": "Ones", "config": {}}, "beta_regularizer": null, "gamma_regularizer": null, "beta_constraint": null, "gamma_constraint": null}, "name": "BatchNorm1_2_2_0_2", "inbound_nodes": [[["Conv2D_2_2_0_2", 0, 0, {}]]]}, {"class_name": "Add", "config": {"name": "add_113", "trainable": true, "dtype": "float32"}, "name": "add_113", "inbound_nodes": [[["activation_112", 0, 0, {}], ["BatchNorm1_2_2_0_2", 0, 0, {}]]]}, {"class_name": "Activation", "config": {"name": "activation_113", "trainable": true, "dtype": "float32", "activation": "relu"}, "name": "activation_113", "inbound_nodes": [[["add_113", 0, 0, {}]]]}, {"class_name": "Conv2D", "config": {"name": "Conv2D_2_3_0_1", "trainable": true, "dtype": "float32", "filters": 64, "kernel_size": [3, 3], "strides": [1, 1], "padding": "same", "data_format": "channels_last", "dilation_rate": [1, 1], "groups": 1, "activation": "linear", "use_bias": true, "kernel_initializer": {"class_name": "HeNormal", "config": {"seed": null}}, "bias_initializer": {"class_name": "Zeros", "config": {}}, "kernel_regularizer": {"class_name": "L2", "config": {"l2": 9.999999747378752e-05}}, "bias_regularizer": null, "activity_regularizer": null, "kernel_constraint": null, "bias_constraint": null}, "name": "Conv2D_2_3_0_1", "inbound_nodes": [[["activation_113", 0, 0, {}]]]}, {"class_name": "BatchNormalization", "config": {"name": "BatchNorm1_2_3_0_1", "trainable": true, "dtype": "float32", "axis": [3], "momentum": 0.99, "epsilon": 0.001, "center": true, "scale": true, "beta_initializer": {"class_name": "Zeros", "config": {}}, "gamma_initializer": {"class_name": "Ones", "config": {}}, "moving_mean_initializer": {"class_name": "Zeros", "config": {}}, "moving_variance_initializer": {"class_name": "Ones", "config": {}}, "beta_regularizer": null, "gamma_regularizer": null, "beta_constraint": null, "gamma_constraint": null}, "name": "BatchNorm1_2_3_0_1", "inbound_nodes": [[["Conv2D_2_3_0_1", 0, 0, {}]]]}, {"class_name": "Activation", "config": {"name": "Act1_2_3_0_1", "trainable": true, "dtype": "float32", "activation": "relu"}, "name": "Act1_2_3_0_1", "inbound_nodes": [[["BatchNorm1_2_3_0_1", 0, 0, {}]]]}, {"class_name": "Conv2D", "config": {"name": "Conv2D_2_3_0_2", "trainable": true, "dtype": "float32", "filters": 64, "kernel_size": [3, 3], "strides": [1, 1], "padding": "same", "data_format": "channels_last", "dilation_rate": [1, 1], "groups": 1, "activation": "linear", "use_bias": true, "kernel_initializer": {"class_name": "HeNormal", "config": {"seed": null}}, "bias_initializer": {"class_name": "Zeros", "config": {}}, "kernel_regularizer": {"class_name": "L2", "config": {"l2": 9.999999747378752e-05}}, "bias_regularizer": null, "activity_regularizer": null, "kernel_constraint": null, "bias_constraint": null}, "name": "Conv2D_2_3_0_2", "inbound_nodes": [[["Act1_2_3_0_1", 0, 0, {}]]]}, {"class_name": "BatchNormalization", "config": {"name": "BatchNorm1_2_3_0_2", "trainable": true, "dtype": "float32", "axis": [3], "momentum": 0.99, "epsilon": 0.001, "center": true, "scale": true, "beta_initializer": {"class_name": "Zeros", "config": {}}, "gamma_initializer": {"class_name": "Ones", "config": {}}, "moving_mean_initializer": {"class_name": "Zeros", "config": {}}, "moving_variance_initializer": {"class_name": "Ones", "config": {}}, "beta_regularizer": null, "gamma_regularizer": null, "beta_constraint": null, "gamma_constraint": null}, "name": "BatchNorm1_2_3_0_2", "inbound_nodes": [[["Conv2D_2_3_0_2", 0, 0, {}]]]}, {"class_name": "Add", "config": {"name": "add_114", "trainable": true, "dtype": "float32"}, "name": "add_114", "inbound_nodes": [[["activation_113", 0, 0, {}], ["BatchNorm1_2_3_0_2", 0, 0, {}]]]}, {"class_name": "Activation", "config": {"name": "activation_114", "trainable": true, "dtype": "float32", "activation": "relu"}, "name": "activation_114", "inbound_nodes": [[["add_114", 0, 0, {}]]]}, {"class_name": "Conv2D", "config": {"name": "Conv2D_2_4_0_1", "trainable": true, "dtype": "float32", "filters": 64, "kernel_size": [3, 3], "strides": [1, 1], "padding": "same", "data_format": "channels_last", "dilation_rate": [1, 1], "groups": 1, "activation": "linear", "use_bias": true, "kernel_initializer": {"class_name": "HeNormal", "config": {"seed": null}}, "bias_initializer": {"class_name": "Zeros", "config": {}}, "kernel_regularizer": {"class_name": "L2", "config": {"l2": 9.999999747378752e-05}}, "bias_regularizer": null, "activity_regularizer": null, "kernel_constraint": null, "bias_constraint": null}, "name": "Conv2D_2_4_0_1", "inbound_nodes": [[["activation_114", 0, 0, {}]]]}, {"class_name": "BatchNormalization", "config": {"name": "BatchNorm1_2_4_0_1", "trainable": true, "dtype": "float32", "axis": [3], "momentum": 0.99, "epsilon": 0.001, "center": true, "scale": true, "beta_initializer": {"class_name": "Zeros", "config": {}}, "gamma_initializer": {"class_name": "Ones", "config": {}}, "moving_mean_initializer": {"class_name": "Zeros", "config": {}}, "moving_variance_initializer": {"class_name": "Ones", "config": {}}, "beta_regularizer": null, "gamma_regularizer": null, "beta_constraint": null, "gamma_constraint": null}, "name": "BatchNorm1_2_4_0_1", "inbound_nodes": [[["Conv2D_2_4_0_1", 0, 0, {}]]]}, {"class_name": "Activation", "config": {"name": "Act1_2_4_0_1", "trainable": true, "dtype": "float32", "activation": "relu"}, "name": "Act1_2_4_0_1", "inbound_nodes": [[["BatchNorm1_2_4_0_1", 0, 0, {}]]]}, {"class_name": "Conv2D", "config": {"name": "Conv2D_2_4_0_2", "trainable": true, "dtype": "float32", "filters": 64, "kernel_size": [3, 3], "strides": [1, 1], "padding": "same", "data_format": "channels_last", "dilation_rate": [1, 1], "groups": 1, "activation": "linear", "use_bias": true, "kernel_initializer": {"class_name": "HeNormal", "config": {"seed": null}}, "bias_initializer": {"class_name": "Zeros", "config": {}}, "kernel_regularizer": {"class_name": "L2", "config": {"l2": 9.999999747378752e-05}}, "bias_regularizer": null, "activity_regularizer": null, "kernel_constraint": null, "bias_constraint": null}, "name": "Conv2D_2_4_0_2", "inbound_nodes": [[["Act1_2_4_0_1", 0, 0, {}]]]}, {"class_name": "BatchNormalization", "config": {"name": "BatchNorm1_2_4_0_2", "trainable": true, "dtype": "float32", "axis": [3], "momentum": 0.99, "epsilon": 0.001, "center": true, "scale": true, "beta_initializer": {"class_name": "Zeros", "config": {}}, "gamma_initializer": {"class_name": "Ones", "config": {}}, "moving_mean_initializer": {"class_name": "Zeros", "config": {}}, "moving_variance_initializer": {"class_name": "Ones", "config": {}}, "beta_regularizer": null, "gamma_regularizer": null, "beta_constraint": null, "gamma_constraint": null}, "name": "BatchNorm1_2_4_0_2", "inbound_nodes": [[["Conv2D_2_4_0_2", 0, 0, {}]]]}, {"class_name": "Add", "config": {"name": "add_115", "trainable": true, "dtype": "float32"}, "name": "add_115", "inbound_nodes": [[["activation_114", 0, 0, {}], ["BatchNorm1_2_4_0_2", 0, 0, {}]]]}, {"class_name": "Activation", "config": {"name": "activation_115", "trainable": true, "dtype": "float32", "activation": "relu"}, "name": "activation_115", "inbound_nodes": [[["add_115", 0, 0, {}]]]}, {"class_name": "Conv2D", "config": {"name": "Conv2D_2_5_0_1", "trainable": true, "dtype": "float32", "filters": 64, "kernel_size": [3, 3], "strides": [1, 1], "padding": "same", "data_format": "channels_last", "dilation_rate": [1, 1], "groups": 1, "activation": "linear", "use_bias": true, "kernel_initializer": {"class_name": "HeNormal", "config": {"seed": null}}, "bias_initializer": {"class_name": "Zeros", "config": {}}, "kernel_regularizer": {"class_name": "L2", "config": {"l2": 9.999999747378752e-05}}, "bias_regularizer": null, "activity_regularizer": null, "kernel_constraint": null, "bias_constraint": null}, "name": "Conv2D_2_5_0_1", "inbound_nodes": [[["activation_115", 0, 0, {}]]]}, {"class_name": "BatchNormalization", "config": {"name": "BatchNorm1_2_5_0_1", "trainable": true, "dtype": "float32", "axis": [3], "momentum": 0.99, "epsilon": 0.001, "center": true, "scale": true, "beta_initializer": {"class_name": "Zeros", "config": {}}, "gamma_initializer": {"class_name": "Ones", "config": {}}, "moving_mean_initializer": {"class_name": "Zeros", "config": {}}, "moving_variance_initializer": {"class_name": "Ones", "config": {}}, "beta_regularizer": null, "gamma_regularizer": null, "beta_constraint": null, "gamma_constraint": null}, "name": "BatchNorm1_2_5_0_1", "inbound_nodes": [[["Conv2D_2_5_0_1", 0, 0, {}]]]}, {"class_name": "Activation", "config": {"name": "Act1_2_5_0_1", "trainable": true, "dtype": "float32", "activation": "relu"}, "name": "Act1_2_5_0_1", "inbound_nodes": [[["BatchNorm1_2_5_0_1", 0, 0, {}]]]}, {"class_name": "Conv2D", "config": {"name": "Conv2D_2_5_0_2", "trainable": true, "dtype": "float32", "filters": 64, "kernel_size": [3, 3], "strides": [1, 1], "padding": "same", "data_format": "channels_last", "dilation_rate": [1, 1], "groups": 1, "activation": "linear", "use_bias": true, "kernel_initializer": {"class_name": "HeNormal", "config": {"seed": null}}, "bias_initializer": {"class_name": "Zeros", "config": {}}, "kernel_regularizer": {"class_name": "L2", "config": {"l2": 9.999999747378752e-05}}, "bias_regularizer": null, "activity_regularizer": null, "kernel_constraint": null, "bias_constraint": null}, "name": "Conv2D_2_5_0_2", "inbound_nodes": [[["Act1_2_5_0_1", 0, 0, {}]]]}, {"class_name": "BatchNormalization", "config": {"name": "BatchNorm1_2_5_0_2", "trainable": true, "dtype": "float32", "axis": [3], "momentum": 0.99, "epsilon": 0.001, "center": true, "scale": true, "beta_initializer": {"class_name": "Zeros", "config": {}}, "gamma_initializer": {"class_name": "Ones", "config": {}}, "moving_mean_initializer": {"class_name": "Zeros", "config": {}}, "moving_variance_initializer": {"class_name": "Ones", "config": {}}, "beta_regularizer": null, "gamma_regularizer": null, "beta_constraint": null, "gamma_constraint": null}, "name": "BatchNorm1_2_5_0_2", "inbound_nodes": [[["Conv2D_2_5_0_2", 0, 0, {}]]]}, {"class_name": "Add", "config": {"name": "add_116", "trainable": true, "dtype": "float32"}, "name": "add_116", "inbound_nodes": [[["activation_115", 0, 0, {}], ["BatchNorm1_2_5_0_2", 0, 0, {}]]]}, {"class_name": "Activation", "config": {"name": "activation_116", "trainable": true, "dtype": "float32", "activation": "relu"}, "name": "activation_116", "inbound_nodes": [[["add_116", 0, 0, {}]]]}, {"class_name": "Conv2D", "config": {"name": "Conv2D_2_6_0_1", "trainable": true, "dtype": "float32", "filters": 64, "kernel_size": [3, 3], "strides": [1, 1], "padding": "same", "data_format": "channels_last", "dilation_rate": [1, 1], "groups": 1, "activation": "linear", "use_bias": true, "kernel_initializer": {"class_name": "HeNormal", "config": {"seed": null}}, "bias_initializer": {"class_name": "Zeros", "config": {}}, "kernel_regularizer": {"class_name": "L2", "config": {"l2": 9.999999747378752e-05}}, "bias_regularizer": null, "activity_regularizer": null, "kernel_constraint": null, "bias_constraint": null}, "name": "Conv2D_2_6_0_1", "inbound_nodes": [[["activation_116", 0, 0, {}]]]}, {"class_name": "BatchNormalization", "config": {"name": "BatchNorm1_2_6_0_1", "trainable": true, "dtype": "float32", "axis": [3], "momentum": 0.99, "epsilon": 0.001, "center": true, "scale": true, "beta_initializer": {"class_name": "Zeros", "config": {}}, "gamma_initializer": {"class_name": "Ones", "config": {}}, "moving_mean_initializer": {"class_name": "Zeros", "config": {}}, "moving_variance_initializer": {"class_name": "Ones", "config": {}}, "beta_regularizer": null, "gamma_regularizer": null, "beta_constraint": null, "gamma_constraint": null}, "name": "BatchNorm1_2_6_0_1", "inbound_nodes": [[["Conv2D_2_6_0_1", 0, 0, {}]]]}, {"class_name": "Activation", "config": {"name": "Act1_2_6_0_1", "trainable": true, "dtype": "float32", "activation": "relu"}, "name": "Act1_2_6_0_1", "inbound_nodes": [[["BatchNorm1_2_6_0_1", 0, 0, {}]]]}, {"class_name": "Conv2D", "config": {"name": "Conv2D_2_6_0_2", "trainable": true, "dtype": "float32", "filters": 64, "kernel_size": [3, 3], "strides": [1, 1], "padding": "same", "data_format": "channels_last", "dilation_rate": [1, 1], "groups": 1, "activation": "linear", "use_bias": true, "kernel_initializer": {"class_name": "HeNormal", "config": {"seed": null}}, "bias_initializer": {"class_name": "Zeros", "config": {}}, "kernel_regularizer": {"class_name": "L2", "config": {"l2": 9.999999747378752e-05}}, "bias_regularizer": null, "activity_regularizer": null, "kernel_constraint": null, "bias_constraint": null}, "name": "Conv2D_2_6_0_2", "inbound_nodes": [[["Act1_2_6_0_1", 0, 0, {}]]]}, {"class_name": "BatchNormalization", "config": {"name": "BatchNorm1_2_6_0_2", "trainable": true, "dtype": "float32", "axis": [3], "momentum": 0.99, "epsilon": 0.001, "center": true, "scale": true, "beta_initializer": {"class_name": "Zeros", "config": {}}, "gamma_initializer": {"class_name": "Ones", "config": {}}, "moving_mean_initializer": {"class_name": "Zeros", "config": {}}, "moving_variance_initializer": {"class_name": "Ones", "config": {}}, "beta_regularizer": null, "gamma_regularizer": null, "beta_constraint": null, "gamma_constraint": null}, "name": "BatchNorm1_2_6_0_2", "inbound_nodes": [[["Conv2D_2_6_0_2", 0, 0, {}]]]}, {"class_name": "Add", "config": {"name": "add_117", "trainable": true, "dtype": "float32"}, "name": "add_117", "inbound_nodes": [[["activation_116", 0, 0, {}], ["BatchNorm1_2_6_0_2", 0, 0, {}]]]}, {"class_name": "Activation", "config": {"name": "activation_117", "trainable": true, "dtype": "float32", "activation": "relu"}, "name": "activation_117", "inbound_nodes": [[["add_117", 0, 0, {}]]]}, {"class_name": "Conv2D", "config": {"name": "Conv2D_2_7_0_1", "trainable": true, "dtype": "float32", "filters": 64, "kernel_size": [3, 3], "strides": [1, 1], "padding": "same", "data_format": "channels_last", "dilation_rate": [1, 1], "groups": 1, "activation": "linear", "use_bias": true, "kernel_initializer": {"class_name": "HeNormal", "config": {"seed": null}}, "bias_initializer": {"class_name": "Zeros", "config": {}}, "kernel_regularizer": {"class_name": "L2", "config": {"l2": 9.999999747378752e-05}}, "bias_regularizer": null, "activity_regularizer": null, "kernel_constraint": null, "bias_constraint": null}, "name": "Conv2D_2_7_0_1", "inbound_nodes": [[["activation_117", 0, 0, {}]]]}, {"class_name": "BatchNormalization", "config": {"name": "BatchNorm1_2_7_0_1", "trainable": true, "dtype": "float32", "axis": [3], "momentum": 0.99, "epsilon": 0.001, "center": true, "scale": true, "beta_initializer": {"class_name": "Zeros", "config": {}}, "gamma_initializer": {"class_name": "Ones", "config": {}}, "moving_mean_initializer": {"class_name": "Zeros", "config": {}}, "moving_variance_initializer": {"class_name": "Ones", "config": {}}, "beta_regularizer": null, "gamma_regularizer": null, "beta_constraint": null, "gamma_constraint": null}, "name": "BatchNorm1_2_7_0_1", "inbound_nodes": [[["Conv2D_2_7_0_1", 0, 0, {}]]]}, {"class_name": "Activation", "config": {"name": "Act1_2_7_0_1", "trainable": true, "dtype": "float32", "activation": "relu"}, "name": "Act1_2_7_0_1", "inbound_nodes": [[["BatchNorm1_2_7_0_1", 0, 0, {}]]]}, {"class_name": "Conv2D", "config": {"name": "Conv2D_2_7_0_2", "trainable": true, "dtype": "float32", "filters": 64, "kernel_size": [3, 3], "strides": [1, 1], "padding": "same", "data_format": "channels_last", "dilation_rate": [1, 1], "groups": 1, "activation": "linear", "use_bias": true, "kernel_initializer": {"class_name": "HeNormal", "config": {"seed": null}}, "bias_initializer": {"class_name": "Zeros", "config": {}}, "kernel_regularizer": {"class_name": "L2", "config": {"l2": 9.999999747378752e-05}}, "bias_regularizer": null, "activity_regularizer": null, "kernel_constraint": null, "bias_constraint": null}, "name": "Conv2D_2_7_0_2", "inbound_nodes": [[["Act1_2_7_0_1", 0, 0, {}]]]}, {"class_name": "BatchNormalization", "config": {"name": "BatchNorm1_2_7_0_2", "trainable": true, "dtype": "float32", "axis": [3], "momentum": 0.99, "epsilon": 0.001, "center": true, "scale": true, "beta_initializer": {"class_name": "Zeros", "config": {}}, "gamma_initializer": {"class_name": "Ones", "config": {}}, "moving_mean_initializer": {"class_name": "Zeros", "config": {}}, "moving_variance_initializer": {"class_name": "Ones", "config": {}}, "beta_regularizer": null, "gamma_regularizer": null, "beta_constraint": null, "gamma_constraint": null}, "name": "BatchNorm1_2_7_0_2", "inbound_nodes": [[["Conv2D_2_7_0_2", 0, 0, {}]]]}, {"class_name": "Add", "config": {"name": "add_118", "trainable": true, "dtype": "float32"}, "name": "add_118", "inbound_nodes": [[["activation_117", 0, 0, {}], ["BatchNorm1_2_7_0_2", 0, 0, {}]]]}, {"class_name": "Activation", "config": {"name": "activation_118", "trainable": true, "dtype": "float32", "activation": "relu"}, "name": "activation_118", "inbound_nodes": [[["add_118", 0, 0, {}]]]}, {"class_name": "Conv2D", "config": {"name": "Conv2D_2_8_0_1", "trainable": true, "dtype": "float32", "filters": 64, "kernel_size": [3, 3], "strides": [1, 1], "padding": "same", "data_format": "channels_last", "dilation_rate": [1, 1], "groups": 1, "activation": "linear", "use_bias": true, "kernel_initializer": {"class_name": "HeNormal", "config": {"seed": null}}, "bias_initializer": {"class_name": "Zeros", "config": {}}, "kernel_regularizer": {"class_name": "L2", "config": {"l2": 9.999999747378752e-05}}, "bias_regularizer": null, "activity_regularizer": null, "kernel_constraint": null, "bias_constraint": null}, "name": "Conv2D_2_8_0_1", "inbound_nodes": [[["activation_118", 0, 0, {}]]]}, {"class_name": "BatchNormalization", "config": {"name": "BatchNorm1_2_8_0_1", "trainable": true, "dtype": "float32", "axis": [3], "momentum": 0.99, "epsilon": 0.001, "center": true, "scale": true, "beta_initializer": {"class_name": "Zeros", "config": {}}, "gamma_initializer": {"class_name": "Ones", "config": {}}, "moving_mean_initializer": {"class_name": "Zeros", "config": {}}, "moving_variance_initializer": {"class_name": "Ones", "config": {}}, "beta_regularizer": null, "gamma_regularizer": null, "beta_constraint": null, "gamma_constraint": null}, "name": "BatchNorm1_2_8_0_1", "inbound_nodes": [[["Conv2D_2_8_0_1", 0, 0, {}]]]}, {"class_name": "Activation", "config": {"name": "Act1_2_8_0_1", "trainable": true, "dtype": "float32", "activation": "relu"}, "name": "Act1_2_8_0_1", "inbound_nodes": [[["BatchNorm1_2_8_0_1", 0, 0, {}]]]}, {"class_name": "Conv2D", "config": {"name": "Conv2D_2_8_0_2", "trainable": true, "dtype": "float32", "filters": 64, "kernel_size": [3, 3], "strides": [1, 1], "padding": "same", "data_format": "channels_last", "dilation_rate": [1, 1], "groups": 1, "activation": "linear", "use_bias": true, "kernel_initializer": {"class_name": "HeNormal", "config": {"seed": null}}, "bias_initializer": {"class_name": "Zeros", "config": {}}, "kernel_regularizer": {"class_name": "L2", "config": {"l2": 9.999999747378752e-05}}, "bias_regularizer": null, "activity_regularizer": null, "kernel_constraint": null, "bias_constraint": null}, "name": "Conv2D_2_8_0_2", "inbound_nodes": [[["Act1_2_8_0_1", 0, 0, {}]]]}, {"class_name": "BatchNormalization", "config": {"name": "BatchNorm1_2_8_0_2", "trainable": true, "dtype": "float32", "axis": [3], "momentum": 0.99, "epsilon": 0.001, "center": true, "scale": true, "beta_initializer": {"class_name": "Zeros", "config": {}}, "gamma_initializer": {"class_name": "Ones", "config": {}}, "moving_mean_initializer": {"class_name": "Zeros", "config": {}}, "moving_variance_initializer": {"class_name": "Ones", "config": {}}, "beta_regularizer": null, "gamma_regularizer": null, "beta_constraint": null, "gamma_constraint": null}, "name": "BatchNorm1_2_8_0_2", "inbound_nodes": [[["Conv2D_2_8_0_2", 0, 0, {}]]]}, {"class_name": "Add", "config": {"name": "add_119", "trainable": true, "dtype": "float32"}, "name": "add_119", "inbound_nodes": [[["activation_118", 0, 0, {}], ["BatchNorm1_2_8_0_2", 0, 0, {}]]]}, {"class_name": "Activation", "config": {"name": "activation_119", "trainable": true, "dtype": "float32", "activation": "relu"}, "name": "activation_119", "inbound_nodes": [[["add_119", 0, 0, {}]]]}, {"class_name": "AveragePooling2D", "config": {"name": "average_pooling2d_4", "trainable": true, "dtype": "float32", "pool_size": [8, 8], "padding": "valid", "strides": [8, 8], "data_format": "channels_last"}, "name": "average_pooling2d_4", "inbound_nodes": [[["activation_119", 0, 0, {}]]]}, {"class_name": "Flatten", "config": {"name": "flatten_4", "trainable": true, "dtype": "float32", "data_format": "channels_last"}, "name": "flatten_4", "inbound_nodes": [[["average_pooling2d_4", 0, 0, {}]]]}, {"class_name": "Dense", "config": {"name": "dense_4", "trainable": true, "dtype": "float32", "units": 10, "activation": "softmax", "use_bias": true, "kernel_initializer": {"class_name": "HeNormal", "config": {"seed": null}}, "bias_initializer": {"class_name": "Zeros", "config": {}}, "kernel_regularizer": null, "bias_regularizer": null, "activity_regularizer": null, "kernel_constraint": null, "bias_constraint": null}, "name": "dense_4", "inbound_nodes": [[["flatten_4", 0, 0, {}]]]}], "input_layers": [["input_5", 0, 0]], "output_layers": [["dense_4", 0, 0]]}, "keras_version": "2.10.0", "backend": "tensorflow"}