{"class_name": "Functional", "config": {"name": "model_181", "layers": [{"class_name": "InputLayer", "config": {"batch_input_shape": [null, 32, 32, 3], "dtype": "float32", "sparse": false, "ragged": false, "name": "input_13"}, "name": "input_13", "inbound_nodes": []}, {"class_name": "Conv2D", "config": {"name": "Conv2D_", "trainable": true, "dtype": "float32", "filters": 16, "kernel_size": [3, 3], "strides": [1, 1], "padding": "same", "data_format": "channels_last", "dilation_rate": [1, 1], "groups": 1, "activation": "linear", "use_bias": true, "kernel_initializer": {"class_name": "HeNormal", "config": {"seed": null}}, "bias_initializer": {"class_name": "Zeros", "config": {}}, "kernel_regularizer": {"class_name": "L2", "config": {"l2": 9.999999747378752e-05}}, "bias_regularizer": null, "activity_regularizer": null, "kernel_constraint": null, "bias_constraint": null}, "name": "Conv2D_", "inbound_nodes": [[["input_13", 0, 0, {}]]]}, {"class_name": "BatchNormalization", "config": {"name": "BatchNorm1_", "trainable": true, "dtype": "float32", "axis": [3], "momentum": 0.99, "epsilon": 0.001, "center": true, "scale": true, "beta_initializer": {"class_name": "Zeros", "config": {}}, "gamma_initializer": {"class_name": "Ones", "config": {}}, "moving_mean_initializer": {"class_name": "Zeros", "config": {}}, "moving_variance_initializer": {"class_name": "Ones", "config": {}}, "beta_regularizer": null, "gamma_regularizer": null, "beta_constraint": null, "gamma_constraint": null}, "name": "BatchNorm1_", "inbound_nodes": [[["Conv2D_", 0, 0, {}]]]}, {"class_name": "Activation", "config": {"name": "Act1_", "trainable": true, "dtype": "float32", "activation": "relu"}, "name": "Act1_", "inbound_nodes": [[["BatchNorm1_", 0, 0, {}]]]}, {"class_name": "Conv2D", "config": {"name": "Conv2D_0_0_0_1", "trainable": true, "dtype": "float32", "filters": 16, "kernel_size": [3, 3], "strides": [1, 1], "padding": "same", "data_format": "channels_last", "dilation_rate": [1, 1], "groups": 1, "activation": "linear", "use_bias": true, "kernel_initializer": {"class_name": "HeNormal", "config": {"seed": null}}, "bias_initializer": {"class_name": "Zeros", "config": {}}, "kernel_regularizer": {"class_name": "L2", "config": {"l2": 9.999999747378752e-05}}, "bias_regularizer": null, "activity_regularizer": null, "kernel_constraint": null, "bias_constraint": null}, "name": "Conv2D_0_0_0_1", "inbound_nodes": [[["Act1_", 0, 0, {}]]]}, {"class_name": "BatchNormalization", "config": {"name": "BatchNorm1_0_0_0_1", "trainable": true, "dtype": "float32", "axis": [3], "momentum": 0.99, "epsilon": 0.001, "center": true, "scale": true, "beta_initializer": {"class_name": "Zeros", "config": {}}, "gamma_initializer": {"class_name": "Ones", "config": {}}, "moving_mean_initializer": {"class_name": "Zeros", "config": {}}, "moving_variance_initializer": {"class_name": "Ones", "config": {}}, "beta_regularizer": null, "gamma_regularizer": null, "beta_constraint": null, "gamma_constraint": null}, "name": "BatchNorm1_0_0_0_1", "inbound_nodes": [[["Conv2D_0_0_0_1", 0, 0, {}]]]}, {"class_name": "Activation", "config": {"name": "Act1_0_0_0_1", "trainable": true, "dtype": "float32", "activation": "relu"}, "name": "Act1_0_0_0_1", "inbound_nodes": [[["BatchNorm1_0_0_0_1", 0, 0, {}]]]}, {"class_name": "Conv2D", "config": {"name": "Conv2D_0_0_0_2", "trainable": true, "dtype": "float32", "filters": 16, "kernel_size": [3, 3], "strides": [1, 1], "padding": "same", "data_format": "channels_last", "dilation_rate": [1, 1], "groups": 1, "activation": "linear", "use_bias": true, "kernel_initializer": {"class_name": "HeNormal", "config": {"seed": null}}, "bias_initializer": {"class_name": "Zeros", "config": {}}, "kernel_regularizer": {"class_name": "L2", "config": {"l2": 9.999999747378752e-05}}, "bias_regularizer": null, "activity_regularizer": null, "kernel_constraint": null, "bias_constraint": null}, "name": "Conv2D_0_0_0_2", "inbound_nodes": [[["Act1_0_0_0_1", 0, 0, {}]]]}, {"class_name": "BatchNormalization", "config": {"name": "BatchNorm1_0_0_0_2", "trainable": true, "dtype": "float32", "axis": [3], "momentum": 0.99, "epsilon": 0.001, "center": true, "scale": true, "beta_initializer": {"class_name": "Zeros", "config": {}}, "gamma_initializer": {"class_name": "Ones", "config": {}}, "moving_mean_initializer": {"class_name": "Zeros", "config": {}}, "moving_variance_initializer": {"class_name": "Ones", "config": {}}, "beta_regularizer": null, "gamma_regularizer": null, "beta_constraint": null, "gamma_constraint": null}, "name": "BatchNorm1_0_0_0_2", "inbound_nodes": [[["Conv2D_0_0_0_2", 0, 0, {}]]]}, {"class_name": "Add", "config": {"name": "add_174", "trainable": true, "dtype": "float32"}, "name": "add_174", "inbound_nodes": [[["Act1_", 0, 0, {}], ["BatchNorm1_0_0_0_2", 0, 0, {}]]]}, {"class_name": "Activation", "config": {"name": "activation_174", "trainable": true, "dtype": "float32", "activation": "relu"}, "name": "activation_174", "inbound_nodes": [[["add_174", 0, 0, {}]]]}, {"class_name": "Conv2D", "config": {"name": "Conv2D_0_1_0_1", "trainable": true, "dtype": "float32", "filters": 16, "kernel_size": [3, 3], "strides": [1, 1], "padding": "same", "data_format": "channels_last", "dilation_rate": [1, 1], "groups": 1, "activation": "linear", "use_bias": true, "kernel_initializer": {"class_name": "HeNormal", "config": {"seed": null}}, "bias_initializer": {"class_name": "Zeros", "config": {}}, "kernel_regularizer": {"class_name": "L2", "config": {"l2": 9.999999747378752e-05}}, "bias_regularizer": null, "activity_regularizer": null, "kernel_constraint": null, "bias_constraint": null}, "name": "Conv2D_0_1_0_1", "inbound_nodes": [[["activation_174", 0, 0, {}]]]}, {"class_name": "BatchNormalization", "config": {"name": "BatchNorm1_0_1_0_1", "trainable": true, "dtype": "float32", "axis": [3], "momentum": 0.99, "epsilon": 0.001, "center": true, "scale": true, "beta_initializer": {"class_name": "Zeros", "config": {}}, "gamma_initializer": {"class_name": "Ones", "config": {}}, "moving_mean_initializer": {"class_name": "Zeros", "config": {}}, "moving_variance_initializer": {"class_name": "Ones", "config": {}}, "beta_regularizer": null, "gamma_regularizer": null, "beta_constraint": null, "gamma_constraint": null}, "name": "BatchNorm1_0_1_0_1", "inbound_nodes": [[["Conv2D_0_1_0_1", 0, 0, {}]]]}, {"class_name": "Activation", "config": {"name": "Act1_0_1_0_1", "trainable": true, "dtype": "float32", "activation": "relu"}, "name": "Act1_0_1_0_1", "inbound_nodes": [[["BatchNorm1_0_1_0_1", 0, 0, {}]]]}, {"class_name": "Conv2D", "config": {"name": "Conv2D_0_1_0_2", "trainable": true, "dtype": "float32", "filters": 16, "kernel_size": [3, 3], "strides": [1, 1], "padding": "same", "data_format": "channels_last", "dilation_rate": [1, 1], "groups": 1, "activation": "linear", "use_bias": true, "kernel_initializer": {"class_name": "HeNormal", "config": {"seed": null}}, "bias_initializer": {"class_name": "Zeros", "config": {}}, "kernel_regularizer": {"class_name": "L2", "config": {"l2": 9.999999747378752e-05}}, "bias_regularizer": null, "activity_regularizer": null, "kernel_constraint": null, "bias_constraint": null}, "name": "Conv2D_0_1_0_2", "inbound_nodes": [[["Act1_0_1_0_1", 0, 0, {}]]]}, {"class_name": "BatchNormalization", "config": {"name": "BatchNorm1_0_1_0_2", "trainable": true, "dtype": "float32", "axis": [3], "momentum": 0.99, "epsilon": 0.001, "center": true, "scale": true, "beta_initializer": {"class_name": "Zeros", "config": {}}, "gamma_initializer": {"class_name": "Ones", "config": {}}, "moving_mean_initializer": {"class_name": "Zeros", "config": {}}, "moving_variance_initializer": {"class_name": "Ones", "config": {}}, "beta_regularizer": null, "gamma_regularizer": null, "beta_constraint": null, "gamma_constraint": null}, "name": "BatchNorm1_0_1_0_2", "inbound_nodes": [[["Conv2D_0_1_0_2", 0, 0, {}]]]}, {"class_name": "Add", "config": {"name": "add_175", "trainable": true, "dtype": "float32"}, "name": "add_175", "inbound_nodes": [[["activation_174", 0, 0, {}], ["BatchNorm1_0_1_0_2", 0, 0, {}]]]}, {"class_name": "Activation", "config": {"name": "activation_175", "trainable": true, "dtype": "float32", "activation": "relu"}, "name": "activation_175", "inbound_nodes": [[["add_175", 0, 0, {}]]]}, {"class_name": "Conv2D", "config": {"name": "Conv2D_0_2_0_1", "trainable": true, "dtype": "float32", "filters": 16, "kernel_size": [3, 3], "strides": [1, 1], "padding": "same", "data_format": "channels_last", "dilation_rate": [1, 1], "groups": 1, "activation": "linear", "use_bias": true, "kernel_initializer": {"class_name": "HeNormal", "config": {"seed": null}}, "bias_initializer": {"class_name": "Zeros", "config": {}}, "kernel_regularizer": {"class_name": "L2", "config": {"l2": 9.999999747378752e-05}}, "bias_regularizer": null, "activity_regularizer": null, "kernel_constraint": null, "bias_constraint": null}, "name": "Conv2D_0_2_0_1", "inbound_nodes": [[["activation_175", 0, 0, {}]]]}, {"class_name": "BatchNormalization", "config": {"name": "BatchNorm1_0_2_0_1", "trainable": true, "dtype": "float32", "axis": [3], "momentum": 0.99, "epsilon": 0.001, "center": true, "scale": true, "beta_initializer": {"class_name": "Zeros", "config": {}}, "gamma_initializer": {"class_name": "Ones", "config": {}}, "moving_mean_initializer": {"class_name": "Zeros", "config": {}}, "moving_variance_initializer": {"class_name": "Ones", "config": {}}, "beta_regularizer": null, "gamma_regularizer": null, "beta_constraint": null, "gamma_constraint": null}, "name": "BatchNorm1_0_2_0_1", "inbound_nodes": [[["Conv2D_0_2_0_1", 0, 0, {}]]]}, {"class_name": "Activation", "config": {"name": "Act1_0_2_0_1", "trainable": true, "dtype": "float32", "activation": "relu"}, "name": "Act1_0_2_0_1", "inbound_nodes": [[["BatchNorm1_0_2_0_1", 0, 0, {}]]]}, {"class_name": "Conv2D", "config": {"name": "Conv2D_0_2_0_2", "trainable": true, "dtype": "float32", "filters": 16, "kernel_size": [3, 3], "strides": [1, 1], "padding": "same", "data_format": "channels_last", "dilation_rate": [1, 1], "groups": 1, "activation": "linear", "use_bias": true, "kernel_initializer": {"class_name": "HeNormal", "config": {"seed": null}}, "bias_initializer": {"class_name": "Zeros", "config": {}}, "kernel_regularizer": {"class_name": "L2", "config": {"l2": 9.999999747378752e-05}}, "bias_regularizer": null, "activity_regularizer": null, "kernel_constraint": null, "bias_constraint": null}, "name": "Conv2D_0_2_0_2", "inbound_nodes": [[["Act1_0_2_0_1", 0, 0, {}]]]}, {"class_name": "BatchNormalization", "config": {"name": "BatchNorm1_0_2_0_2", "trainable": true, "dtype": "float32", "axis": [3], "momentum": 0.99, "epsilon": 0.001, "center": true, "scale": true, "beta_initializer": {"class_name": "Zeros", "config": {}}, "gamma_initializer": {"class_name": "Ones", "config": {}}, "moving_mean_initializer": {"class_name": "Zeros", "config": {}}, "moving_variance_initializer": {"class_name": "Ones", "config": {}}, "beta_regularizer": null, "gamma_regularizer": null, "beta_constraint": null, "gamma_constraint": null}, "name": "BatchNorm1_0_2_0_2", "inbound_nodes": [[["Conv2D_0_2_0_2", 0, 0, {}]]]}, {"class_name": "Add", "config": {"name": "add_176", "trainable": true, "dtype": "float32"}, "name": "add_176", "inbound_nodes": [[["activation_175", 0, 0, {}], ["BatchNorm1_0_2_0_2", 0, 0, {}]]]}, {"class_name": "Activation", "config": {"name": "activation_176", "trainable": true, "dtype": "float32", "activation": "relu"}, "name": "activation_176", "inbound_nodes": [[["add_176", 0, 0, {}]]]}, {"class_name": "Conv2D", "config": {"name": "Conv2D_1_0_0_1", "trainable": true, "dtype": "float32", "filters": 32, "kernel_size": [3, 3], "strides": [2, 2], "padding": "same", "data_format": "channels_last", "dilation_rate": [1, 1], "groups": 1, "activation": "linear", "use_bias": true, "kernel_initializer": {"class_name": "HeNormal", "config": {"seed": null}}, "bias_initializer": {"class_name": "Zeros", "config": {}}, "kernel_regularizer": {"class_name": "L2", "config": {"l2": 9.999999747378752e-05}}, "bias_regularizer": null, "activity_regularizer": null, "kernel_constraint": null, "bias_constraint": null}, "name": "Conv2D_1_0_0_1", "inbound_nodes": [[["activation_176", 0, 0, {}]]]}, {"class_name": "BatchNormalization", "config": {"name": "BatchNorm1_1_0_0_1", "trainable": true, "dtype": "float32", "axis": [3], "momentum": 0.99, "epsilon": 0.001, "center": true, "scale": true, "beta_initializer": {"class_name": "Zeros", "config": {}}, "gamma_initializer": {"class_name": "Ones", "config": {}}, "moving_mean_initializer": {"class_name": "Zeros", "config": {}}, "moving_variance_initializer": {"class_name": "Ones", "config": {}}, "beta_regularizer": null, "gamma_regularizer": null, "beta_constraint": null, "gamma_constraint": null}, "name": "BatchNorm1_1_0_0_1", "inbound_nodes": [[["Conv2D_1_0_0_1", 0, 0, {}]]]}, {"class_name": "Activation", "config": {"name": "Act1_1_0_0_1", "trainable": true, "dtype": "float32", "activation": "relu"}, "name": "Act1_1_0_0_1", "inbound_nodes": [[["BatchNorm1_1_0_0_1", 0, 0, {}]]]}, {"class_name": "Conv2D", "config": {"name": "Conv2D_1_0_0_2", "trainable": true, "dtype": "float32", "filters": 32, "kernel_size": [3, 3], "strides": [1, 1], "padding": "same", "data_format": "channels_last", "dilation_rate": [1, 1], "groups": 1, "activation": "linear", "use_bias": true, "kernel_initializer": {"class_name": "HeNormal", "config": {"seed": null}}, "bias_initializer": {"class_name": "Zeros", "config": {}}, "kernel_regularizer": {"class_name": "L2", "config": {"l2": 9.999999747378752e-05}}, "bias_regularizer": null, "activity_regularizer": null, "kernel_constraint": null, "bias_constraint": null}, "name": "Conv2D_1_0_0_2", "inbound_nodes": [[["Act1_1_0_0_1", 0, 0, {}]]]}, {"class_name": "Conv2D", "config": {"name": "Conv2D_1_0_0_3", "trainable": true, "dtype": "float32", "filters": 32, "kernel_size": [1, 1], "strides": [2, 2], "padding": "same", "data_format": "channels_last", "dilation_rate": [1, 1], "groups": 1, "activation": "linear", "use_bias": true, "kernel_initializer": {"class_name": "HeNormal", "config": {"seed": null}}, "bias_initializer": {"class_name": "Zeros", "config": {}}, "kernel_regularizer": {"class_name": "L2", "config": {"l2": 9.999999747378752e-05}}, "bias_regularizer": null, "activity_regularizer": null, "kernel_constraint": null, "bias_constraint": null}, "name": "Conv2D_1_0_0_3", "inbound_nodes": [[["activation_176", 0, 0, {}]]]}, {"class_name": "BatchNormalization", "config": {"name": "BatchNorm1_1_0_0_2", "trainable": true, "dtype": "float32", "axis": [3], "momentum": 0.99, "epsilon": 0.001, "center": true, "scale": true, "beta_initializer": {"class_name": "Zeros", "config": {}}, "gamma_initializer": {"class_name": "Ones", "config": {}}, "moving_mean_initializer": {"class_name": "Zeros", "config": {}}, "moving_variance_initializer": {"class_name": "Ones", "config": {}}, "beta_regularizer": null, "gamma_regularizer": null, "beta_constraint": null, "gamma_constraint": null}, "name": "BatchNorm1_1_0_0_2", "inbound_nodes": [[["Conv2D_1_0_0_2", 0, 0, {}]]]}, {"class_name": "Add", "config": {"name": "add_177", "trainable": true, "dtype": "float32"}, "name": "add_177", "inbound_nodes": [[["Conv2D_1_0_0_3", 0, 0, {}], ["BatchNorm1_1_0_0_2", 0, 0, {}]]]}, {"class_name": "Activation", "config": {"name": "activation_177", "trainable": true, "dtype": "float32", "activation": "relu"}, "name": "activation_177", "inbound_nodes": [[["add_177", 0, 0, {}]]]}, {"class_name": "Conv2D", "config": {"name": "Conv2D_1_1_0_1", "trainable": true, "dtype": "float32", "filters": 32, "kernel_size": [3, 3], "strides": [1, 1], "padding": "same", "data_format": "channels_last", "dilation_rate": [1, 1], "groups": 1, "activation": "linear", "use_bias": true, "kernel_initializer": {"class_name": "HeNormal", "config": {"seed": null}}, "bias_initializer": {"class_name": "Zeros", "config": {}}, "kernel_regularizer": {"class_name": "L2", "config": {"l2": 9.999999747378752e-05}}, "bias_regularizer": null, "activity_regularizer": null, "kernel_constraint": null, "bias_constraint": null}, "name": "Conv2D_1_1_0_1", "inbound_nodes": [[["activation_177", 0, 0, {}]]]}, {"class_name": "BatchNormalization", "config": {"name": "BatchNorm1_1_1_0_1", "trainable": true, "dtype": "float32", "axis": [3], "momentum": 0.99, "epsilon": 0.001, "center": true, "scale": true, "beta_initializer": {"class_name": "Zeros", "config": {}}, "gamma_initializer": {"class_name": "Ones", "config": {}}, "moving_mean_initializer": {"class_name": "Zeros", "config": {}}, "moving_variance_initializer": {"class_name": "Ones", "config": {}}, "beta_regularizer": null, "gamma_regularizer": null, "beta_constraint": null, "gamma_constraint": null}, "name": "BatchNorm1_1_1_0_1", "inbound_nodes": [[["Conv2D_1_1_0_1", 0, 0, {}]]]}, {"class_name": "Activation", "config": {"name": "Act1_1_1_0_1", "trainable": true, "dtype": "float32", "activation": "relu"}, "name": "Act1_1_1_0_1", "inbound_nodes": [[["BatchNorm1_1_1_0_1", 0, 0, {}]]]}, {"class_name": "Conv2D", "config": {"name": "Conv2D_1_1_0_2", "trainable": true, "dtype": "float32", "filters": 32, "kernel_size": [3, 3], "strides": [1, 1], "padding": "same", "data_format": "channels_last", "dilation_rate": [1, 1], "groups": 1, "activation": "linear", "use_bias": true, "kernel_initializer": {"class_name": "HeNormal", "config": {"seed": null}}, "bias_initializer": {"class_name": "Zeros", "config": {}}, "kernel_regularizer": {"class_name": "L2", "config": {"l2": 9.999999747378752e-05}}, "bias_regularizer": null, "activity_regularizer": null, "kernel_constraint": null, "bias_constraint": null}, "name": "Conv2D_1_1_0_2", "inbound_nodes": [[["Act1_1_1_0_1", 0, 0, {}]]]}, {"class_name": "BatchNormalization", "config": {"name": "BatchNorm1_1_1_0_2", "trainable": true, "dtype": "float32", "axis": [3], "momentum": 0.99, "epsilon": 0.001, "center": true, "scale": true, "beta_initializer": {"class_name": "Zeros", "config": {}}, "gamma_initializer": {"class_name": "Ones", "config": {}}, "moving_mean_initializer": {"class_name": "Zeros", "config": {}}, "moving_variance_initializer": {"class_name": "Ones", "config": {}}, "beta_regularizer": null, "gamma_regularizer": null, "beta_constraint": null, "gamma_constraint": null}, "name": "BatchNorm1_1_1_0_2", "inbound_nodes": [[["Conv2D_1_1_0_2", 0, 0, {}]]]}, {"class_name": "Add", "config": {"name": "add_178", "trainable": true, "dtype": "float32"}, "name": "add_178", "inbound_nodes": [[["activation_177", 0, 0, {}], ["BatchNorm1_1_1_0_2", 0, 0, {}]]]}, {"class_name": "Activation", "config": {"name": "activation_178", "trainable": true, "dtype": "float32", "activation": "relu"}, "name": "activation_178", "inbound_nodes": [[["add_178", 0, 0, {}]]]}, {"class_name": "Conv2D", "config": {"name": "Conv2D_2_0_0_1", "trainable": true, "dtype": "float32", "filters": 64, "kernel_size": [3, 3], "strides": [2, 2], "padding": "same", "data_format": "channels_last", "dilation_rate": [1, 1], "groups": 1, "activation": "linear", "use_bias": true, "kernel_initializer": {"class_name": "HeNormal", "config": {"seed": null}}, "bias_initializer": {"class_name": "Zeros", "config": {}}, "kernel_regularizer": {"class_name": "L2", "config": {"l2": 9.999999747378752e-05}}, "bias_regularizer": null, "activity_regularizer": null, "kernel_constraint": null, "bias_constraint": null}, "name": "Conv2D_2_0_0_1", "inbound_nodes": [[["activation_178", 0, 0, {}]]]}, {"class_name": "BatchNormalization", "config": {"name": "BatchNorm1_2_0_0_1", "trainable": true, "dtype": "float32", "axis": [3], "momentum": 0.99, "epsilon": 0.001, "center": true, "scale": true, "beta_initializer": {"class_name": "Zeros", "config": {}}, "gamma_initializer": {"class_name": "Ones", "config": {}}, "moving_mean_initializer": {"class_name": "Zeros", "config": {}}, "moving_variance_initializer": {"class_name": "Ones", "config": {}}, "beta_regularizer": null, "gamma_regularizer": null, "beta_constraint": null, "gamma_constraint": null}, "name": "BatchNorm1_2_0_0_1", "inbound_nodes": [[["Conv2D_2_0_0_1", 0, 0, {}]]]}, {"class_name": "Activation", "config": {"name": "Act1_2_0_0_1", "trainable": true, "dtype": "float32", "activation": "relu"}, "name": "Act1_2_0_0_1", "inbound_nodes": [[["BatchNorm1_2_0_0_1", 0, 0, {}]]]}, {"class_name": "Conv2D", "config": {"name": "Conv2D_2_0_0_2", "trainable": true, "dtype": "float32", "filters": 64, "kernel_size": [3, 3], "strides": [1, 1], "padding": "same", "data_format": "channels_last", "dilation_rate": [1, 1], "groups": 1, "activation": "linear", "use_bias": true, "kernel_initializer": {"class_name": "HeNormal", "config": {"seed": null}}, "bias_initializer": {"class_name": "Zeros", "config": {}}, "kernel_regularizer": {"class_name": "L2", "config": {"l2": 9.999999747378752e-05}}, "bias_regularizer": null, "activity_regularizer": null, "kernel_constraint": null, "bias_constraint": null}, "name": "Conv2D_2_0_0_2", "inbound_nodes": [[["Act1_2_0_0_1", 0, 0, {}]]]}, {"class_name": "Conv2D", "config": {"name": "Conv2D_2_0_0_3", "trainable": true, "dtype": "float32", "filters": 64, "kernel_size": [1, 1], "strides": [2, 2], "padding": "same", "data_format": "channels_last", "dilation_rate": [1, 1], "groups": 1, "activation": "linear", "use_bias": true, "kernel_initializer": {"class_name": "HeNormal", "config": {"seed": null}}, "bias_initializer": {"class_name": "Zeros", "config": {}}, "kernel_regularizer": {"class_name": "L2", "config": {"l2": 9.999999747378752e-05}}, "bias_regularizer": null, "activity_regularizer": null, "kernel_constraint": null, "bias_constraint": null}, "name": "Conv2D_2_0_0_3", "inbound_nodes": [[["activation_178", 0, 0, {}]]]}, {"class_name": "BatchNormalization", "config": {"name": "BatchNorm1_2_0_0_2", "trainable": true, "dtype": "float32", "axis": [3], "momentum": 0.99, "epsilon": 0.001, "center": true, "scale": true, "beta_initializer": {"class_name": "Zeros", "config": {}}, "gamma_initializer": {"class_name": "Ones", "config": {}}, "moving_mean_initializer": {"class_name": "Zeros", "config": {}}, "moving_variance_initializer": {"class_name": "Ones", "config": {}}, "beta_regularizer": null, "gamma_regularizer": null, "beta_constraint": null, "gamma_constraint": null}, "name": "BatchNorm1_2_0_0_2", "inbound_nodes": [[["Conv2D_2_0_0_2", 0, 0, {}]]]}, {"class_name": "Add", "config": {"name": "add_179", "trainable": true, "dtype": "float32"}, "name": "add_179", "inbound_nodes": [[["Conv2D_2_0_0_3", 0, 0, {}], ["BatchNorm1_2_0_0_2", 0, 0, {}]]]}, {"class_name": "Activation", "config": {"name": "activation_179", "trainable": true, "dtype": "float32", "activation": "relu"}, "name": "activation_179", "inbound_nodes": [[["add_179", 0, 0, {}]]]}, {"class_name": "Conv2D", "config": {"name": "Conv2D_2_1_0_1", "trainable": true, "dtype": "float32", "filters": 64, "kernel_size": [3, 3], "strides": [1, 1], "padding": "same", "data_format": "channels_last", "dilation_rate": [1, 1], "groups": 1, "activation": "linear", "use_bias": true, "kernel_initializer": {"class_name": "HeNormal", "config": {"seed": null}}, "bias_initializer": {"class_name": "Zeros", "config": {}}, "kernel_regularizer": {"class_name": "L2", "config": {"l2": 9.999999747378752e-05}}, "bias_regularizer": null, "activity_regularizer": null, "kernel_constraint": null, "bias_constraint": null}, "name": "Conv2D_2_1_0_1", "inbound_nodes": [[["activation_179", 0, 0, {}]]]}, {"class_name": "BatchNormalization", "config": {"name": "BatchNorm1_2_1_0_1", "trainable": true, "dtype": "float32", "axis": [3], "momentum": 0.99, "epsilon": 0.001, "center": true, "scale": true, "beta_initializer": {"class_name": "Zeros", "config": {}}, "gamma_initializer": {"class_name": "Ones", "config": {}}, "moving_mean_initializer": {"class_name": "Zeros", "config": {}}, "moving_variance_initializer": {"class_name": "Ones", "config": {}}, "beta_regularizer": null, "gamma_regularizer": null, "beta_constraint": null, "gamma_constraint": null}, "name": "BatchNorm1_2_1_0_1", "inbound_nodes": [[["Conv2D_2_1_0_1", 0, 0, {}]]]}, {"class_name": "Activation", "config": {"name": "Act1_2_1_0_1", "trainable": true, "dtype": "float32", "activation": "relu"}, "name": "Act1_2_1_0_1", "inbound_nodes": [[["BatchNorm1_2_1_0_1", 0, 0, {}]]]}, {"class_name": "Conv2D", "config": {"name": "Conv2D_2_1_0_2", "trainable": true, "dtype": "float32", "filters": 64, "kernel_size": [3, 3], "strides": [1, 1], "padding": "same", "data_format": "channels_last", "dilation_rate": [1, 1], "groups": 1, "activation": "linear", "use_bias": true, "kernel_initializer": {"class_name": "HeNormal", "config": {"seed": null}}, "bias_initializer": {"class_name": "Zeros", "config": {}}, "kernel_regularizer": {"class_name": "L2", "config": {"l2": 9.999999747378752e-05}}, "bias_regularizer": null, "activity_regularizer": null, "kernel_constraint": null, "bias_constraint": null}, "name": "Conv2D_2_1_0_2", "inbound_nodes": [[["Act1_2_1_0_1", 0, 0, {}]]]}, {"class_name": "BatchNormalization", "config": {"name": "BatchNorm1_2_1_0_2", "trainable": true, "dtype": "float32", "axis": [3], "momentum": 0.99, "epsilon": 0.001, "center": true, "scale": true, "beta_initializer": {"class_name": "Zeros", "config": {}}, "gamma_initializer": {"class_name": "Ones", "config": {}}, "moving_mean_initializer": {"class_name": "Zeros", "config": {}}, "moving_variance_initializer": {"class_name": "Ones", "config": {}}, "beta_regularizer": null, "gamma_regularizer": null, "beta_constraint": null, "gamma_constraint": null}, "name": "BatchNorm1_2_1_0_2", "inbound_nodes": [[["Conv2D_2_1_0_2", 0, 0, {}]]]}, {"class_name": "Add", "config": {"name": "add_180", "trainable": true, "dtype": "float32"}, "name": "add_180", "inbound_nodes": [[["activation_179", 0, 0, {}], ["BatchNorm1_2_1_0_2", 0, 0, {}]]]}, {"class_name": "Activation", "config": {"name": "activation_180", "trainable": true, "dtype": "float32", "activation": "relu"}, "name": "activation_180", "inbound_nodes": [[["add_180", 0, 0, {}]]]}, {"class_name": "Conv2D", "config": {"name": "Conv2D_2_2_0_1", "trainable": true, "dtype": "float32", "filters": 64, "kernel_size": [3, 3], "strides": [1, 1], "padding": "same", "data_format": "channels_last", "dilation_rate": [1, 1], "groups": 1, "activation": "linear", "use_bias": true, "kernel_initializer": {"class_name": "HeNormal", "config": {"seed": null}}, "bias_initializer": {"class_name": "Zeros", "config": {}}, "kernel_regularizer": {"class_name": "L2", "config": {"l2": 9.999999747378752e-05}}, "bias_regularizer": null, "activity_regularizer": null, "kernel_constraint": null, "bias_constraint": null}, "name": "Conv2D_2_2_0_1", "inbound_nodes": [[["activation_180", 0, 0, {}]]]}, {"class_name": "BatchNormalization", "config": {"name": "BatchNorm1_2_2_0_1", "trainable": true, "dtype": "float32", "axis": [3], "momentum": 0.99, "epsilon": 0.001, "center": true, "scale": true, "beta_initializer": {"class_name": "Zeros", "config": {}}, "gamma_initializer": {"class_name": "Ones", "config": {}}, "moving_mean_initializer": {"class_name": "Zeros", "config": {}}, "moving_variance_initializer": {"class_name": "Ones", "config": {}}, "beta_regularizer": null, "gamma_regularizer": null, "beta_constraint": null, "gamma_constraint": null}, "name": "BatchNorm1_2_2_0_1", "inbound_nodes": [[["Conv2D_2_2_0_1", 0, 0, {}]]]}, {"class_name": "Activation", "config": {"name": "Act1_2_2_0_1", "trainable": true, "dtype": "float32", "activation": "relu"}, "name": "Act1_2_2_0_1", "inbound_nodes": [[["BatchNorm1_2_2_0_1", 0, 0, {}]]]}, {"class_name": "Conv2D", "config": {"name": "Conv2D_2_2_0_2", "trainable": true, "dtype": "float32", "filters": 64, "kernel_size": [3, 3], "strides": [1, 1], "padding": "same", "data_format": "channels_last", "dilation_rate": [1, 1], "groups": 1, "activation": "linear", "use_bias": true, "kernel_initializer": {"class_name": "HeNormal", "config": {"seed": null}}, "bias_initializer": {"class_name": "Zeros", "config": {}}, "kernel_regularizer": {"class_name": "L2", "config": {"l2": 9.999999747378752e-05}}, "bias_regularizer": null, "activity_regularizer": null, "kernel_constraint": null, "bias_constraint": null}, "name": "Conv2D_2_2_0_2", "inbound_nodes": [[["Act1_2_2_0_1", 0, 0, {}]]]}, {"class_name": "BatchNormalization", "config": {"name": "BatchNorm1_2_2_0_2", "trainable": true, "dtype": "float32", "axis": [3], "momentum": 0.99, "epsilon": 0.001, "center": true, "scale": true, "beta_initializer": {"class_name": "Zeros", "config": {}}, "gamma_initializer": {"class_name": "Ones", "config": {}}, "moving_mean_initializer": {"class_name": "Zeros", "config": {}}, "moving_variance_initializer": {"class_name": "Ones", "config": {}}, "beta_regularizer": null, "gamma_regularizer": null, "beta_constraint": null, "gamma_constraint": null}, "name": "BatchNorm1_2_2_0_2", "inbound_nodes": [[["Conv2D_2_2_0_2", 0, 0, {}]]]}, {"class_name": "Add", "config": {"name": "add_181", "trainable": true, "dtype": "float32"}, "name": "add_181", "inbound_nodes": [[["activation_180", 0, 0, {}], ["BatchNorm1_2_2_0_2", 0, 0, {}]]]}, {"class_name": "Activation", "config": {"name": "activation_181", "trainable": true, "dtype": "float32", "activation": "relu"}, "name": "activation_181", "inbound_nodes": [[["add_181", 0, 0, {}]]]}, {"class_name": "AveragePooling2D", "config": {"name": "average_pooling2d_12", "trainable": true, "dtype": "float32", "pool_size": [8, 8], "padding": "valid", "strides": [8, 8], "data_format": "channels_last"}, "name": "average_pooling2d_12", "inbound_nodes": [[["activation_181", 0, 0, {}]]]}, {"class_name": "Flatten", "config": {"name": "flatten_12", "trainable": true, "dtype": "float32", "data_format": "channels_last"}, "name": "flatten_12", "inbound_nodes": [[["average_pooling2d_12", 0, 0, {}]]]}, {"class_name": "Dense", "config": {"name": "dense_12", "trainable": true, "dtype": "float32", "units": 10, "activation": "softmax", "use_bias": true, "kernel_initializer": {"class_name": "HeNormal", "config": {"seed": null}}, "bias_initializer": {"class_name": "Zeros", "config": {}}, "kernel_regularizer": null, "bias_regularizer": null, "activity_regularizer": null, "kernel_constraint": null, "bias_constraint": null}, "name": "dense_12", "inbound_nodes": [[["flatten_12", 0, 0, {}]]]}], "input_layers": [["input_13", 0, 0]], "output_layers": [["dense_12", 0, 0]]}, "keras_version": "2.10.0", "backend": "tensorflow"}