{"class_name": "Functional", "config": {"name": "model_56", "layers": [{"class_name": "InputLayer", "config": {"batch_input_shape": [null, 32, 32, 3], "dtype": "float32", "sparse": false, "ragged": false, "name": "input_3"}, "name": "input_3", "inbound_nodes": []}, {"class_name": "Conv2D", "config": {"name": "Conv2D_", "trainable": true, "dtype": "float32", "filters": 16, "kernel_size": [3, 3], "strides": [1, 1], "padding": "same", "data_format": "channels_last", "dilation_rate": [1, 1], "groups": 1, "activation": "linear", "use_bias": true, "kernel_initializer": {"class_name": "HeNormal", "config": {"seed": null}}, "bias_initializer": {"class_name": "Zeros", "config": {}}, "kernel_regularizer": {"class_name": "L2", "config": {"l2": 9.999999747378752e-05}}, "bias_regularizer": null, "activity_regularizer": null, "kernel_constraint": null, "bias_constraint": null}, "name": "Conv2D_", "inbound_nodes": [[["input_3", 0, 0, {}]]]}, {"class_name": "BatchNormalization", "config": {"name": "BatchNorm1_", "trainable": true, "dtype": "float32", "axis": [3], "momentum": 0.99, "epsilon": 0.001, "center": true, "scale": true, "beta_initializer": {"class_name": "Zeros", "config": {}}, "gamma_initializer": {"class_name": "Ones", "config": {}}, "moving_mean_initializer": {"class_name": "Zeros", "config": {}}, "moving_variance_initializer": {"class_name": "Ones", "config": {}}, "beta_regularizer": null, "gamma_regularizer": null, "beta_constraint": null, "gamma_constraint": null}, "name": "BatchNorm1_", "inbound_nodes": [[["Conv2D_", 0, 0, {}]]]}, {"class_name": "Activation", "config": {"name": "Act1_", "trainable": true, "dtype": "float32", "activation": "relu"}, "name": "Act1_", "inbound_nodes": [[["BatchNorm1_", 0, 0, {}]]]}, {"class_name": "Conv2D", "config": {"name": "Conv2D_0_0_0_1", "trainable": true, "dtype": "float32", "filters": 16, "kernel_size": [3, 3], "strides": [1, 1], "padding": "same", "data_format": "channels_last", "dilation_rate": [1, 1], "groups": 1, "activation": "linear", "use_bias": true, "kernel_initializer": {"class_name": "HeNormal", "config": {"seed": null}}, "bias_initializer": {"class_name": "Zeros", "config": {}}, "kernel_regularizer": {"class_name": "L2", "config": {"l2": 9.999999747378752e-05}}, "bias_regularizer": null, "activity_regularizer": null, "kernel_constraint": null, "bias_constraint": null}, "name": "Conv2D_0_0_0_1", "inbound_nodes": [[["Act1_", 0, 0, {}]]]}, {"class_name": "BatchNormalization", "config": {"name": "BatchNorm1_0_0_0_1", "trainable": true, "dtype": "float32", "axis": [3], "momentum": 0.99, "epsilon": 0.001, "center": true, "scale": true, "beta_initializer": {"class_name": "Zeros", "config": {}}, "gamma_initializer": {"class_name": "Ones", "config": {}}, "moving_mean_initializer": {"class_name": "Zeros", "config": {}}, "moving_variance_initializer": {"class_name": "Ones", "config": {}}, "beta_regularizer": null, "gamma_regularizer": null, "beta_constraint": null, "gamma_constraint": null}, "name": "BatchNorm1_0_0_0_1", "inbound_nodes": [[["Conv2D_0_0_0_1", 0, 0, {}]]]}, {"class_name": "Activation", "config": {"name": "Act1_0_0_0_1", "trainable": true, "dtype": "float32", "activation": "relu"}, "name": "Act1_0_0_0_1", "inbound_nodes": [[["BatchNorm1_0_0_0_1", 0, 0, {}]]]}, {"class_name": "Conv2D", "config": {"name": "Conv2D_0_0_0_2", "trainable": true, "dtype": "float32", "filters": 16, "kernel_size": [3, 3], "strides": [1, 1], "padding": "same", "data_format": "channels_last", "dilation_rate": [1, 1], "groups": 1, "activation": "linear", "use_bias": true, "kernel_initializer": {"class_name": "HeNormal", "config": {"seed": null}}, "bias_initializer": {"class_name": "Zeros", "config": {}}, "kernel_regularizer": {"class_name": "L2", "config": {"l2": 9.999999747378752e-05}}, "bias_regularizer": null, "activity_regularizer": null, "kernel_constraint": null, "bias_constraint": null}, "name": "Conv2D_0_0_0_2", "inbound_nodes": [[["Act1_0_0_0_1", 0, 0, {}]]]}, {"class_name": "BatchNormalization", "config": {"name": "BatchNorm1_0_0_0_2", "trainable": true, "dtype": "float32", "axis": [3], "momentum": 0.99, "epsilon": 0.001, "center": true, "scale": true, "beta_initializer": {"class_name": "Zeros", "config": {}}, "gamma_initializer": {"class_name": "Ones", "config": {}}, "moving_mean_initializer": {"class_name": "Zeros", "config": {}}, "moving_variance_initializer": {"class_name": "Ones", "config": {}}, "beta_regularizer": null, "gamma_regularizer": null, "beta_constraint": null, "gamma_constraint": null}, "name": "BatchNorm1_0_0_0_2", "inbound_nodes": [[["Conv2D_0_0_0_2", 0, 0, {}]]]}, {"class_name": "Add", "config": {"name": "add_39", "trainable": true, "dtype": "float32"}, "name": "add_39", "inbound_nodes": [[["Act1_", 0, 0, {}], ["BatchNorm1_0_0_0_2", 0, 0, {}]]]}, {"class_name": "Activation", "config": {"name": "activation_39", "trainable": true, "dtype": "float32", "activation": "relu"}, "name": "activation_39", "inbound_nodes": [[["add_39", 0, 0, {}]]]}, {"class_name": "Conv2D", "config": {"name": "Conv2D_0_1_0_1", "trainable": true, "dtype": "float32", "filters": 16, "kernel_size": [3, 3], "strides": [1, 1], "padding": "same", "data_format": "channels_last", "dilation_rate": [1, 1], "groups": 1, "activation": "linear", "use_bias": true, "kernel_initializer": {"class_name": "HeNormal", "config": {"seed": null}}, "bias_initializer": {"class_name": "Zeros", "config": {}}, "kernel_regularizer": {"class_name": "L2", "config": {"l2": 9.999999747378752e-05}}, "bias_regularizer": null, "activity_regularizer": null, "kernel_constraint": null, "bias_constraint": null}, "name": "Conv2D_0_1_0_1", "inbound_nodes": [[["activation_39", 0, 0, {}]]]}, {"class_name": "BatchNormalization", "config": {"name": "BatchNorm1_0_1_0_1", "trainable": true, "dtype": "float32", "axis": [3], "momentum": 0.99, "epsilon": 0.001, "center": true, "scale": true, "beta_initializer": {"class_name": "Zeros", "config": {}}, "gamma_initializer": {"class_name": "Ones", "config": {}}, "moving_mean_initializer": {"class_name": "Zeros", "config": {}}, "moving_variance_initializer": {"class_name": "Ones", "config": {}}, "beta_regularizer": null, "gamma_regularizer": null, "beta_constraint": null, "gamma_constraint": null}, "name": "BatchNorm1_0_1_0_1", "inbound_nodes": [[["Conv2D_0_1_0_1", 0, 0, {}]]]}, {"class_name": "Activation", "config": {"name": "Act1_0_1_0_1", "trainable": true, "dtype": "float32", "activation": "relu"}, "name": "Act1_0_1_0_1", "inbound_nodes": [[["BatchNorm1_0_1_0_1", 0, 0, {}]]]}, {"class_name": "Conv2D", "config": {"name": "Conv2D_0_1_0_2", "trainable": true, "dtype": "float32", "filters": 16, "kernel_size": [3, 3], "strides": [1, 1], "padding": "same", "data_format": "channels_last", "dilation_rate": [1, 1], "groups": 1, "activation": "linear", "use_bias": true, "kernel_initializer": {"class_name": "HeNormal", "config": {"seed": null}}, "bias_initializer": {"class_name": "Zeros", "config": {}}, "kernel_regularizer": {"class_name": "L2", "config": {"l2": 9.999999747378752e-05}}, "bias_regularizer": null, "activity_regularizer": null, "kernel_constraint": null, "bias_constraint": null}, "name": "Conv2D_0_1_0_2", "inbound_nodes": [[["Act1_0_1_0_1", 0, 0, {}]]]}, {"class_name": "BatchNormalization", "config": {"name": "BatchNorm1_0_1_0_2", "trainable": true, "dtype": "float32", "axis": [3], "momentum": 0.99, "epsilon": 0.001, "center": true, "scale": true, "beta_initializer": {"class_name": "Zeros", "config": {}}, "gamma_initializer": {"class_name": "Ones", "config": {}}, "moving_mean_initializer": {"class_name": "Zeros", "config": {}}, "moving_variance_initializer": {"class_name": "Ones", "config": {}}, "beta_regularizer": null, "gamma_regularizer": null, "beta_constraint": null, "gamma_constraint": null}, "name": "BatchNorm1_0_1_0_2", "inbound_nodes": [[["Conv2D_0_1_0_2", 0, 0, {}]]]}, {"class_name": "Add", "config": {"name": "add_40", "trainable": true, "dtype": "float32"}, "name": "add_40", "inbound_nodes": [[["activation_39", 0, 0, {}], ["BatchNorm1_0_1_0_2", 0, 0, {}]]]}, {"class_name": "Activation", "config": {"name": "activation_40", "trainable": true, "dtype": "float32", "activation": "relu"}, "name": "activation_40", "inbound_nodes": [[["add_40", 0, 0, {}]]]}, {"class_name": "Conv2D", "config": {"name": "Conv2D_0_2_0_1", "trainable": true, "dtype": "float32", "filters": 16, "kernel_size": [3, 3], "strides": [1, 1], "padding": "same", "data_format": "channels_last", "dilation_rate": [1, 1], "groups": 1, "activation": "linear", "use_bias": true, "kernel_initializer": {"class_name": "HeNormal", "config": {"seed": null}}, "bias_initializer": {"class_name": "Zeros", "config": {}}, "kernel_regularizer": {"class_name": "L2", "config": {"l2": 9.999999747378752e-05}}, "bias_regularizer": null, "activity_regularizer": null, "kernel_constraint": null, "bias_constraint": null}, "name": "Conv2D_0_2_0_1", "inbound_nodes": [[["activation_40", 0, 0, {}]]]}, {"class_name": "BatchNormalization", "config": {"name": "BatchNorm1_0_2_0_1", "trainable": true, "dtype": "float32", "axis": [3], "momentum": 0.99, "epsilon": 0.001, "center": true, "scale": true, "beta_initializer": {"class_name": "Zeros", "config": {}}, "gamma_initializer": {"class_name": "Ones", "config": {}}, "moving_mean_initializer": {"class_name": "Zeros", "config": {}}, "moving_variance_initializer": {"class_name": "Ones", "config": {}}, "beta_regularizer": null, "gamma_regularizer": null, "beta_constraint": null, "gamma_constraint": null}, "name": "BatchNorm1_0_2_0_1", "inbound_nodes": [[["Conv2D_0_2_0_1", 0, 0, {}]]]}, {"class_name": "Activation", "config": {"name": "Act1_0_2_0_1", "trainable": true, "dtype": "float32", "activation": "relu"}, "name": "Act1_0_2_0_1", "inbound_nodes": [[["BatchNorm1_0_2_0_1", 0, 0, {}]]]}, {"class_name": "Conv2D", "config": {"name": "Conv2D_0_2_0_2", "trainable": true, "dtype": "float32", "filters": 16, "kernel_size": [3, 3], "strides": [1, 1], "padding": "same", "data_format": "channels_last", "dilation_rate": [1, 1], "groups": 1, "activation": "linear", "use_bias": true, "kernel_initializer": {"class_name": "HeNormal", "config": {"seed": null}}, "bias_initializer": {"class_name": "Zeros", "config": {}}, "kernel_regularizer": {"class_name": "L2", "config": {"l2": 9.999999747378752e-05}}, "bias_regularizer": null, "activity_regularizer": null, "kernel_constraint": null, "bias_constraint": null}, "name": "Conv2D_0_2_0_2", "inbound_nodes": [[["Act1_0_2_0_1", 0, 0, {}]]]}, {"class_name": "BatchNormalization", "config": {"name": "BatchNorm1_0_2_0_2", "trainable": true, "dtype": "float32", "axis": [3], "momentum": 0.99, "epsilon": 0.001, "center": true, "scale": true, "beta_initializer": {"class_name": "Zeros", "config": {}}, "gamma_initializer": {"class_name": "Ones", "config": {}}, "moving_mean_initializer": {"class_name": "Zeros", "config": {}}, "moving_variance_initializer": {"class_name": "Ones", "config": {}}, "beta_regularizer": null, "gamma_regularizer": null, "beta_constraint": null, "gamma_constraint": null}, "name": "BatchNorm1_0_2_0_2", "inbound_nodes": [[["Conv2D_0_2_0_2", 0, 0, {}]]]}, {"class_name": "Add", "config": {"name": "add_41", "trainable": true, "dtype": "float32"}, "name": "add_41", "inbound_nodes": [[["activation_40", 0, 0, {}], ["BatchNorm1_0_2_0_2", 0, 0, {}]]]}, {"class_name": "Activation", "config": {"name": "activation_41", "trainable": true, "dtype": "float32", "activation": "relu"}, "name": "activation_41", "inbound_nodes": [[["add_41", 0, 0, {}]]]}, {"class_name": "Conv2D", "config": {"name": "Conv2D_0_3_0_1", "trainable": true, "dtype": "float32", "filters": 16, "kernel_size": [3, 3], "strides": [1, 1], "padding": "same", "data_format": "channels_last", "dilation_rate": [1, 1], "groups": 1, "activation": "linear", "use_bias": true, "kernel_initializer": {"class_name": "HeNormal", "config": {"seed": null}}, "bias_initializer": {"class_name": "Zeros", "config": {}}, "kernel_regularizer": {"class_name": "L2", "config": {"l2": 9.999999747378752e-05}}, "bias_regularizer": null, "activity_regularizer": null, "kernel_constraint": null, "bias_constraint": null}, "name": "Conv2D_0_3_0_1", "inbound_nodes": [[["activation_41", 0, 0, {}]]]}, {"class_name": "BatchNormalization", "config": {"name": "BatchNorm1_0_3_0_1", "trainable": true, "dtype": "float32", "axis": [3], "momentum": 0.99, "epsilon": 0.001, "center": true, "scale": true, "beta_initializer": {"class_name": "Zeros", "config": {}}, "gamma_initializer": {"class_name": "Ones", "config": {}}, "moving_mean_initializer": {"class_name": "Zeros", "config": {}}, "moving_variance_initializer": {"class_name": "Ones", "config": {}}, "beta_regularizer": null, "gamma_regularizer": null, "beta_constraint": null, "gamma_constraint": null}, "name": "BatchNorm1_0_3_0_1", "inbound_nodes": [[["Conv2D_0_3_0_1", 0, 0, {}]]]}, {"class_name": "Activation", "config": {"name": "Act1_0_3_0_1", "trainable": true, "dtype": "float32", "activation": "relu"}, "name": "Act1_0_3_0_1", "inbound_nodes": [[["BatchNorm1_0_3_0_1", 0, 0, {}]]]}, {"class_name": "Conv2D", "config": {"name": "Conv2D_0_3_0_2", "trainable": true, "dtype": "float32", "filters": 16, "kernel_size": [3, 3], "strides": [1, 1], "padding": "same", "data_format": "channels_last", "dilation_rate": [1, 1], "groups": 1, "activation": "linear", "use_bias": true, "kernel_initializer": {"class_name": "HeNormal", "config": {"seed": null}}, "bias_initializer": {"class_name": "Zeros", "config": {}}, "kernel_regularizer": {"class_name": "L2", "config": {"l2": 9.999999747378752e-05}}, "bias_regularizer": null, "activity_regularizer": null, "kernel_constraint": null, "bias_constraint": null}, "name": "Conv2D_0_3_0_2", "inbound_nodes": [[["Act1_0_3_0_1", 0, 0, {}]]]}, {"class_name": "BatchNormalization", "config": {"name": "BatchNorm1_0_3_0_2", "trainable": true, "dtype": "float32", "axis": [3], "momentum": 0.99, "epsilon": 0.001, "center": true, "scale": true, "beta_initializer": {"class_name": "Zeros", "config": {}}, "gamma_initializer": {"class_name": "Ones", "config": {}}, "moving_mean_initializer": {"class_name": "Zeros", "config": {}}, "moving_variance_initializer": {"class_name": "Ones", "config": {}}, "beta_regularizer": null, "gamma_regularizer": null, "beta_constraint": null, "gamma_constraint": null}, "name": "BatchNorm1_0_3_0_2", "inbound_nodes": [[["Conv2D_0_3_0_2", 0, 0, {}]]]}, {"class_name": "Add", "config": {"name": "add_42", "trainable": true, "dtype": "float32"}, "name": "add_42", "inbound_nodes": [[["activation_41", 0, 0, {}], ["BatchNorm1_0_3_0_2", 0, 0, {}]]]}, {"class_name": "Activation", "config": {"name": "activation_42", "trainable": true, "dtype": "float32", "activation": "relu"}, "name": "activation_42", "inbound_nodes": [[["add_42", 0, 0, {}]]]}, {"class_name": "Conv2D", "config": {"name": "Conv2D_0_4_0_1", "trainable": true, "dtype": "float32", "filters": 16, "kernel_size": [3, 3], "strides": [1, 1], "padding": "same", "data_format": "channels_last", "dilation_rate": [1, 1], "groups": 1, "activation": "linear", "use_bias": true, "kernel_initializer": {"class_name": "HeNormal", "config": {"seed": null}}, "bias_initializer": {"class_name": "Zeros", "config": {}}, "kernel_regularizer": {"class_name": "L2", "config": {"l2": 9.999999747378752e-05}}, "bias_regularizer": null, "activity_regularizer": null, "kernel_constraint": null, "bias_constraint": null}, "name": "Conv2D_0_4_0_1", "inbound_nodes": [[["activation_42", 0, 0, {}]]]}, {"class_name": "BatchNormalization", "config": {"name": "BatchNorm1_0_4_0_1", "trainable": true, "dtype": "float32", "axis": [3], "momentum": 0.99, "epsilon": 0.001, "center": true, "scale": true, "beta_initializer": {"class_name": "Zeros", "config": {}}, "gamma_initializer": {"class_name": "Ones", "config": {}}, "moving_mean_initializer": {"class_name": "Zeros", "config": {}}, "moving_variance_initializer": {"class_name": "Ones", "config": {}}, "beta_regularizer": null, "gamma_regularizer": null, "beta_constraint": null, "gamma_constraint": null}, "name": "BatchNorm1_0_4_0_1", "inbound_nodes": [[["Conv2D_0_4_0_1", 0, 0, {}]]]}, {"class_name": "Activation", "config": {"name": "Act1_0_4_0_1", "trainable": true, "dtype": "float32", "activation": "relu"}, "name": "Act1_0_4_0_1", "inbound_nodes": [[["BatchNorm1_0_4_0_1", 0, 0, {}]]]}, {"class_name": "Conv2D", "config": {"name": "Conv2D_0_4_0_2", "trainable": true, "dtype": "float32", "filters": 16, "kernel_size": [3, 3], "strides": [1, 1], "padding": "same", "data_format": "channels_last", "dilation_rate": [1, 1], "groups": 1, "activation": "linear", "use_bias": true, "kernel_initializer": {"class_name": "HeNormal", "config": {"seed": null}}, "bias_initializer": {"class_name": "Zeros", "config": {}}, "kernel_regularizer": {"class_name": "L2", "config": {"l2": 9.999999747378752e-05}}, "bias_regularizer": null, "activity_regularizer": null, "kernel_constraint": null, "bias_constraint": null}, "name": "Conv2D_0_4_0_2", "inbound_nodes": [[["Act1_0_4_0_1", 0, 0, {}]]]}, {"class_name": "BatchNormalization", "config": {"name": "BatchNorm1_0_4_0_2", "trainable": true, "dtype": "float32", "axis": [3], "momentum": 0.99, "epsilon": 0.001, "center": true, "scale": true, "beta_initializer": {"class_name": "Zeros", "config": {}}, "gamma_initializer": {"class_name": "Ones", "config": {}}, "moving_mean_initializer": {"class_name": "Zeros", "config": {}}, "moving_variance_initializer": {"class_name": "Ones", "config": {}}, "beta_regularizer": null, "gamma_regularizer": null, "beta_constraint": null, "gamma_constraint": null}, "name": "BatchNorm1_0_4_0_2", "inbound_nodes": [[["Conv2D_0_4_0_2", 0, 0, {}]]]}, {"class_name": "Add", "config": {"name": "add_43", "trainable": true, "dtype": "float32"}, "name": "add_43", "inbound_nodes": [[["activation_42", 0, 0, {}], ["BatchNorm1_0_4_0_2", 0, 0, {}]]]}, {"class_name": "Activation", "config": {"name": "activation_43", "trainable": true, "dtype": "float32", "activation": "relu"}, "name": "activation_43", "inbound_nodes": [[["add_43", 0, 0, {}]]]}, {"class_name": "Conv2D", "config": {"name": "Conv2D_0_5_0_1", "trainable": true, "dtype": "float32", "filters": 16, "kernel_size": [3, 3], "strides": [1, 1], "padding": "same", "data_format": "channels_last", "dilation_rate": [1, 1], "groups": 1, "activation": "linear", "use_bias": true, "kernel_initializer": {"class_name": "HeNormal", "config": {"seed": null}}, "bias_initializer": {"class_name": "Zeros", "config": {}}, "kernel_regularizer": {"class_name": "L2", "config": {"l2": 9.999999747378752e-05}}, "bias_regularizer": null, "activity_regularizer": null, "kernel_constraint": null, "bias_constraint": null}, "name": "Conv2D_0_5_0_1", "inbound_nodes": [[["activation_43", 0, 0, {}]]]}, {"class_name": "BatchNormalization", "config": {"name": "BatchNorm1_0_5_0_1", "trainable": true, "dtype": "float32", "axis": [3], "momentum": 0.99, "epsilon": 0.001, "center": true, "scale": true, "beta_initializer": {"class_name": "Zeros", "config": {}}, "gamma_initializer": {"class_name": "Ones", "config": {}}, "moving_mean_initializer": {"class_name": "Zeros", "config": {}}, "moving_variance_initializer": {"class_name": "Ones", "config": {}}, "beta_regularizer": null, "gamma_regularizer": null, "beta_constraint": null, "gamma_constraint": null}, "name": "BatchNorm1_0_5_0_1", "inbound_nodes": [[["Conv2D_0_5_0_1", 0, 0, {}]]]}, {"class_name": "Activation", "config": {"name": "Act1_0_5_0_1", "trainable": true, "dtype": "float32", "activation": "relu"}, "name": "Act1_0_5_0_1", "inbound_nodes": [[["BatchNorm1_0_5_0_1", 0, 0, {}]]]}, {"class_name": "Conv2D", "config": {"name": "Conv2D_0_5_0_2", "trainable": true, "dtype": "float32", "filters": 16, "kernel_size": [3, 3], "strides": [1, 1], "padding": "same", "data_format": "channels_last", "dilation_rate": [1, 1], "groups": 1, "activation": "linear", "use_bias": true, "kernel_initializer": {"class_name": "HeNormal", "config": {"seed": null}}, "bias_initializer": {"class_name": "Zeros", "config": {}}, "kernel_regularizer": {"class_name": "L2", "config": {"l2": 9.999999747378752e-05}}, "bias_regularizer": null, "activity_regularizer": null, "kernel_constraint": null, "bias_constraint": null}, "name": "Conv2D_0_5_0_2", "inbound_nodes": [[["Act1_0_5_0_1", 0, 0, {}]]]}, {"class_name": "BatchNormalization", "config": {"name": "BatchNorm1_0_5_0_2", "trainable": true, "dtype": "float32", "axis": [3], "momentum": 0.99, "epsilon": 0.001, "center": true, "scale": true, "beta_initializer": {"class_name": "Zeros", "config": {}}, "gamma_initializer": {"class_name": "Ones", "config": {}}, "moving_mean_initializer": {"class_name": "Zeros", "config": {}}, "moving_variance_initializer": {"class_name": "Ones", "config": {}}, "beta_regularizer": null, "gamma_regularizer": null, "beta_constraint": null, "gamma_constraint": null}, "name": "BatchNorm1_0_5_0_2", "inbound_nodes": [[["Conv2D_0_5_0_2", 0, 0, {}]]]}, {"class_name": "Add", "config": {"name": "add_44", "trainable": true, "dtype": "float32"}, "name": "add_44", "inbound_nodes": [[["activation_43", 0, 0, {}], ["BatchNorm1_0_5_0_2", 0, 0, {}]]]}, {"class_name": "Activation", "config": {"name": "activation_44", "trainable": true, "dtype": "float32", "activation": "relu"}, "name": "activation_44", "inbound_nodes": [[["add_44", 0, 0, {}]]]}, {"class_name": "Conv2D", "config": {"name": "Conv2D_1_0_0_1", "trainable": true, "dtype": "float32", "filters": 32, "kernel_size": [3, 3], "strides": [2, 2], "padding": "same", "data_format": "channels_last", "dilation_rate": [1, 1], "groups": 1, "activation": "linear", "use_bias": true, "kernel_initializer": {"class_name": "HeNormal", "config": {"seed": null}}, "bias_initializer": {"class_name": "Zeros", "config": {}}, "kernel_regularizer": {"class_name": "L2", "config": {"l2": 9.999999747378752e-05}}, "bias_regularizer": null, "activity_regularizer": null, "kernel_constraint": null, "bias_constraint": null}, "name": "Conv2D_1_0_0_1", "inbound_nodes": [[["activation_44", 0, 0, {}]]]}, {"class_name": "BatchNormalization", "config": {"name": "BatchNorm1_1_0_0_1", "trainable": true, "dtype": "float32", "axis": [3], "momentum": 0.99, "epsilon": 0.001, "center": true, "scale": true, "beta_initializer": {"class_name": "Zeros", "config": {}}, "gamma_initializer": {"class_name": "Ones", "config": {}}, "moving_mean_initializer": {"class_name": "Zeros", "config": {}}, "moving_variance_initializer": {"class_name": "Ones", "config": {}}, "beta_regularizer": null, "gamma_regularizer": null, "beta_constraint": null, "gamma_constraint": null}, "name": "BatchNorm1_1_0_0_1", "inbound_nodes": [[["Conv2D_1_0_0_1", 0, 0, {}]]]}, {"class_name": "Activation", "config": {"name": "Act1_1_0_0_1", "trainable": true, "dtype": "float32", "activation": "relu"}, "name": "Act1_1_0_0_1", "inbound_nodes": [[["BatchNorm1_1_0_0_1", 0, 0, {}]]]}, {"class_name": "Conv2D", "config": {"name": "Conv2D_1_0_0_2", "trainable": true, "dtype": "float32", "filters": 32, "kernel_size": [3, 3], "strides": [1, 1], "padding": "same", "data_format": "channels_last", "dilation_rate": [1, 1], "groups": 1, "activation": "linear", "use_bias": true, "kernel_initializer": {"class_name": "HeNormal", "config": {"seed": null}}, "bias_initializer": {"class_name": "Zeros", "config": {}}, "kernel_regularizer": {"class_name": "L2", "config": {"l2": 9.999999747378752e-05}}, "bias_regularizer": null, "activity_regularizer": null, "kernel_constraint": null, "bias_constraint": null}, "name": "Conv2D_1_0_0_2", "inbound_nodes": [[["Act1_1_0_0_1", 0, 0, {}]]]}, {"class_name": "Conv2D", "config": {"name": "Conv2D_1_0_0_3", "trainable": true, "dtype": "float32", "filters": 32, "kernel_size": [1, 1], "strides": [2, 2], "padding": "same", "data_format": "channels_last", "dilation_rate": [1, 1], "groups": 1, "activation": "linear", "use_bias": true, "kernel_initializer": {"class_name": "HeNormal", "config": {"seed": null}}, "bias_initializer": {"class_name": "Zeros", "config": {}}, "kernel_regularizer": {"class_name": "L2", "config": {"l2": 9.999999747378752e-05}}, "bias_regularizer": null, "activity_regularizer": null, "kernel_constraint": null, "bias_constraint": null}, "name": "Conv2D_1_0_0_3", "inbound_nodes": [[["activation_44", 0, 0, {}]]]}, {"class_name": "BatchNormalization", "config": {"name": "BatchNorm1_1_0_0_2", "trainable": true, "dtype": "float32", "axis": [3], "momentum": 0.99, "epsilon": 0.001, "center": true, "scale": true, "beta_initializer": {"class_name": "Zeros", "config": {}}, "gamma_initializer": {"class_name": "Ones", "config": {}}, "moving_mean_initializer": {"class_name": "Zeros", "config": {}}, "moving_variance_initializer": {"class_name": "Ones", "config": {}}, "beta_regularizer": null, "gamma_regularizer": null, "beta_constraint": null, "gamma_constraint": null}, "name": "BatchNorm1_1_0_0_2", "inbound_nodes": [[["Conv2D_1_0_0_2", 0, 0, {}]]]}, {"class_name": "Add", "config": {"name": "add_45", "trainable": true, "dtype": "float32"}, "name": "add_45", "inbound_nodes": [[["Conv2D_1_0_0_3", 0, 0, {}], ["BatchNorm1_1_0_0_2", 0, 0, {}]]]}, {"class_name": "Activation", "config": {"name": "activation_45", "trainable": true, "dtype": "float32", "activation": "relu"}, "name": "activation_45", "inbound_nodes": [[["add_45", 0, 0, {}]]]}, {"class_name": "Conv2D", "config": {"name": "Conv2D_1_1_0_1", "trainable": true, "dtype": "float32", "filters": 32, "kernel_size": [3, 3], "strides": [1, 1], "padding": "same", "data_format": "channels_last", "dilation_rate": [1, 1], "groups": 1, "activation": "linear", "use_bias": true, "kernel_initializer": {"class_name": "HeNormal", "config": {"seed": null}}, "bias_initializer": {"class_name": "Zeros", "config": {}}, "kernel_regularizer": {"class_name": "L2", "config": {"l2": 9.999999747378752e-05}}, "bias_regularizer": null, "activity_regularizer": null, "kernel_constraint": null, "bias_constraint": null}, "name": "Conv2D_1_1_0_1", "inbound_nodes": [[["activation_45", 0, 0, {}]]]}, {"class_name": "BatchNormalization", "config": {"name": "BatchNorm1_1_1_0_1", "trainable": true, "dtype": "float32", "axis": [3], "momentum": 0.99, "epsilon": 0.001, "center": true, "scale": true, "beta_initializer": {"class_name": "Zeros", "config": {}}, "gamma_initializer": {"class_name": "Ones", "config": {}}, "moving_mean_initializer": {"class_name": "Zeros", "config": {}}, "moving_variance_initializer": {"class_name": "Ones", "config": {}}, "beta_regularizer": null, "gamma_regularizer": null, "beta_constraint": null, "gamma_constraint": null}, "name": "BatchNorm1_1_1_0_1", "inbound_nodes": [[["Conv2D_1_1_0_1", 0, 0, {}]]]}, {"class_name": "Activation", "config": {"name": "Act1_1_1_0_1", "trainable": true, "dtype": "float32", "activation": "relu"}, "name": "Act1_1_1_0_1", "inbound_nodes": [[["BatchNorm1_1_1_0_1", 0, 0, {}]]]}, {"class_name": "Conv2D", "config": {"name": "Conv2D_1_1_0_2", "trainable": true, "dtype": "float32", "filters": 32, "kernel_size": [3, 3], "strides": [1, 1], "padding": "same", "data_format": "channels_last", "dilation_rate": [1, 1], "groups": 1, "activation": "linear", "use_bias": true, "kernel_initializer": {"class_name": "HeNormal", "config": {"seed": null}}, "bias_initializer": {"class_name": "Zeros", "config": {}}, "kernel_regularizer": {"class_name": "L2", "config": {"l2": 9.999999747378752e-05}}, "bias_regularizer": null, "activity_regularizer": null, "kernel_constraint": null, "bias_constraint": null}, "name": "Conv2D_1_1_0_2", "inbound_nodes": [[["Act1_1_1_0_1", 0, 0, {}]]]}, {"class_name": "BatchNormalization", "config": {"name": "BatchNorm1_1_1_0_2", "trainable": true, "dtype": "float32", "axis": [3], "momentum": 0.99, "epsilon": 0.001, "center": true, "scale": true, "beta_initializer": {"class_name": "Zeros", "config": {}}, "gamma_initializer": {"class_name": "Ones", "config": {}}, "moving_mean_initializer": {"class_name": "Zeros", "config": {}}, "moving_variance_initializer": {"class_name": "Ones", "config": {}}, "beta_regularizer": null, "gamma_regularizer": null, "beta_constraint": null, "gamma_constraint": null}, "name": "BatchNorm1_1_1_0_2", "inbound_nodes": [[["Conv2D_1_1_0_2", 0, 0, {}]]]}, {"class_name": "Add", "config": {"name": "add_46", "trainable": true, "dtype": "float32"}, "name": "add_46", "inbound_nodes": [[["activation_45", 0, 0, {}], ["BatchNorm1_1_1_0_2", 0, 0, {}]]]}, {"class_name": "Activation", "config": {"name": "activation_46", "trainable": true, "dtype": "float32", "activation": "relu"}, "name": "activation_46", "inbound_nodes": [[["add_46", 0, 0, {}]]]}, {"class_name": "Conv2D", "config": {"name": "Conv2D_1_2_0_1", "trainable": true, "dtype": "float32", "filters": 32, "kernel_size": [3, 3], "strides": [1, 1], "padding": "same", "data_format": "channels_last", "dilation_rate": [1, 1], "groups": 1, "activation": "linear", "use_bias": true, "kernel_initializer": {"class_name": "HeNormal", "config": {"seed": null}}, "bias_initializer": {"class_name": "Zeros", "config": {}}, "kernel_regularizer": {"class_name": "L2", "config": {"l2": 9.999999747378752e-05}}, "bias_regularizer": null, "activity_regularizer": null, "kernel_constraint": null, "bias_constraint": null}, "name": "Conv2D_1_2_0_1", "inbound_nodes": [[["activation_46", 0, 0, {}]]]}, {"class_name": "BatchNormalization", "config": {"name": "BatchNorm1_1_2_0_1", "trainable": true, "dtype": "float32", "axis": [3], "momentum": 0.99, "epsilon": 0.001, "center": true, "scale": true, "beta_initializer": {"class_name": "Zeros", "config": {}}, "gamma_initializer": {"class_name": "Ones", "config": {}}, "moving_mean_initializer": {"class_name": "Zeros", "config": {}}, "moving_variance_initializer": {"class_name": "Ones", "config": {}}, "beta_regularizer": null, "gamma_regularizer": null, "beta_constraint": null, "gamma_constraint": null}, "name": "BatchNorm1_1_2_0_1", "inbound_nodes": [[["Conv2D_1_2_0_1", 0, 0, {}]]]}, {"class_name": "Activation", "config": {"name": "Act1_1_2_0_1", "trainable": true, "dtype": "float32", "activation": "relu"}, "name": "Act1_1_2_0_1", "inbound_nodes": [[["BatchNorm1_1_2_0_1", 0, 0, {}]]]}, {"class_name": "Conv2D", "config": {"name": "Conv2D_1_2_0_2", "trainable": true, "dtype": "float32", "filters": 32, "kernel_size": [3, 3], "strides": [1, 1], "padding": "same", "data_format": "channels_last", "dilation_rate": [1, 1], "groups": 1, "activation": "linear", "use_bias": true, "kernel_initializer": {"class_name": "HeNormal", "config": {"seed": null}}, "bias_initializer": {"class_name": "Zeros", "config": {}}, "kernel_regularizer": {"class_name": "L2", "config": {"l2": 9.999999747378752e-05}}, "bias_regularizer": null, "activity_regularizer": null, "kernel_constraint": null, "bias_constraint": null}, "name": "Conv2D_1_2_0_2", "inbound_nodes": [[["Act1_1_2_0_1", 0, 0, {}]]]}, {"class_name": "BatchNormalization", "config": {"name": "BatchNorm1_1_2_0_2", "trainable": true, "dtype": "float32", "axis": [3], "momentum": 0.99, "epsilon": 0.001, "center": true, "scale": true, "beta_initializer": {"class_name": "Zeros", "config": {}}, "gamma_initializer": {"class_name": "Ones", "config": {}}, "moving_mean_initializer": {"class_name": "Zeros", "config": {}}, "moving_variance_initializer": {"class_name": "Ones", "config": {}}, "beta_regularizer": null, "gamma_regularizer": null, "beta_constraint": null, "gamma_constraint": null}, "name": "BatchNorm1_1_2_0_2", "inbound_nodes": [[["Conv2D_1_2_0_2", 0, 0, {}]]]}, {"class_name": "Add", "config": {"name": "add_47", "trainable": true, "dtype": "float32"}, "name": "add_47", "inbound_nodes": [[["activation_46", 0, 0, {}], ["BatchNorm1_1_2_0_2", 0, 0, {}]]]}, {"class_name": "Activation", "config": {"name": "activation_47", "trainable": true, "dtype": "float32", "activation": "relu"}, "name": "activation_47", "inbound_nodes": [[["add_47", 0, 0, {}]]]}, {"class_name": "Conv2D", "config": {"name": "Conv2D_2_0_0_1", "trainable": true, "dtype": "float32", "filters": 64, "kernel_size": [3, 3], "strides": [2, 2], "padding": "same", "data_format": "channels_last", "dilation_rate": [1, 1], "groups": 1, "activation": "linear", "use_bias": true, "kernel_initializer": {"class_name": "HeNormal", "config": {"seed": null}}, "bias_initializer": {"class_name": "Zeros", "config": {}}, "kernel_regularizer": {"class_name": "L2", "config": {"l2": 9.999999747378752e-05}}, "bias_regularizer": null, "activity_regularizer": null, "kernel_constraint": null, "bias_constraint": null}, "name": "Conv2D_2_0_0_1", "inbound_nodes": [[["activation_47", 0, 0, {}]]]}, {"class_name": "BatchNormalization", "config": {"name": "BatchNorm1_2_0_0_1", "trainable": true, "dtype": "float32", "axis": [3], "momentum": 0.99, "epsilon": 0.001, "center": true, "scale": true, "beta_initializer": {"class_name": "Zeros", "config": {}}, "gamma_initializer": {"class_name": "Ones", "config": {}}, "moving_mean_initializer": {"class_name": "Zeros", "config": {}}, "moving_variance_initializer": {"class_name": "Ones", "config": {}}, "beta_regularizer": null, "gamma_regularizer": null, "beta_constraint": null, "gamma_constraint": null}, "name": "BatchNorm1_2_0_0_1", "inbound_nodes": [[["Conv2D_2_0_0_1", 0, 0, {}]]]}, {"class_name": "Activation", "config": {"name": "Act1_2_0_0_1", "trainable": true, "dtype": "float32", "activation": "relu"}, "name": "Act1_2_0_0_1", "inbound_nodes": [[["BatchNorm1_2_0_0_1", 0, 0, {}]]]}, {"class_name": "Conv2D", "config": {"name": "Conv2D_2_0_0_2", "trainable": true, "dtype": "float32", "filters": 64, "kernel_size": [3, 3], "strides": [1, 1], "padding": "same", "data_format": "channels_last", "dilation_rate": [1, 1], "groups": 1, "activation": "linear", "use_bias": true, "kernel_initializer": {"class_name": "HeNormal", "config": {"seed": null}}, "bias_initializer": {"class_name": "Zeros", "config": {}}, "kernel_regularizer": {"class_name": "L2", "config": {"l2": 9.999999747378752e-05}}, "bias_regularizer": null, "activity_regularizer": null, "kernel_constraint": null, "bias_constraint": null}, "name": "Conv2D_2_0_0_2", "inbound_nodes": [[["Act1_2_0_0_1", 0, 0, {}]]]}, {"class_name": "Conv2D", "config": {"name": "Conv2D_2_0_0_3", "trainable": true, "dtype": "float32", "filters": 64, "kernel_size": [1, 1], "strides": [2, 2], "padding": "same", "data_format": "channels_last", "dilation_rate": [1, 1], "groups": 1, "activation": "linear", "use_bias": true, "kernel_initializer": {"class_name": "HeNormal", "config": {"seed": null}}, "bias_initializer": {"class_name": "Zeros", "config": {}}, "kernel_regularizer": {"class_name": "L2", "config": {"l2": 9.999999747378752e-05}}, "bias_regularizer": null, "activity_regularizer": null, "kernel_constraint": null, "bias_constraint": null}, "name": "Conv2D_2_0_0_3", "inbound_nodes": [[["activation_47", 0, 0, {}]]]}, {"class_name": "BatchNormalization", "config": {"name": "BatchNorm1_2_0_0_2", "trainable": true, "dtype": "float32", "axis": [3], "momentum": 0.99, "epsilon": 0.001, "center": true, "scale": true, "beta_initializer": {"class_name": "Zeros", "config": {}}, "gamma_initializer": {"class_name": "Ones", "config": {}}, "moving_mean_initializer": {"class_name": "Zeros", "config": {}}, "moving_variance_initializer": {"class_name": "Ones", "config": {}}, "beta_regularizer": null, "gamma_regularizer": null, "beta_constraint": null, "gamma_constraint": null}, "name": "BatchNorm1_2_0_0_2", "inbound_nodes": [[["Conv2D_2_0_0_2", 0, 0, {}]]]}, {"class_name": "Add", "config": {"name": "add_48", "trainable": true, "dtype": "float32"}, "name": "add_48", "inbound_nodes": [[["Conv2D_2_0_0_3", 0, 0, {}], ["BatchNorm1_2_0_0_2", 0, 0, {}]]]}, {"class_name": "Activation", "config": {"name": "activation_48", "trainable": true, "dtype": "float32", "activation": "relu"}, "name": "activation_48", "inbound_nodes": [[["add_48", 0, 0, {}]]]}, {"class_name": "Conv2D", "config": {"name": "Conv2D_2_1_0_1", "trainable": true, "dtype": "float32", "filters": 64, "kernel_size": [3, 3], "strides": [1, 1], "padding": "same", "data_format": "channels_last", "dilation_rate": [1, 1], "groups": 1, "activation": "linear", "use_bias": true, "kernel_initializer": {"class_name": "HeNormal", "config": {"seed": null}}, "bias_initializer": {"class_name": "Zeros", "config": {}}, "kernel_regularizer": {"class_name": "L2", "config": {"l2": 9.999999747378752e-05}}, "bias_regularizer": null, "activity_regularizer": null, "kernel_constraint": null, "bias_constraint": null}, "name": "Conv2D_2_1_0_1", "inbound_nodes": [[["activation_48", 0, 0, {}]]]}, {"class_name": "BatchNormalization", "config": {"name": "BatchNorm1_2_1_0_1", "trainable": true, "dtype": "float32", "axis": [3], "momentum": 0.99, "epsilon": 0.001, "center": true, "scale": true, "beta_initializer": {"class_name": "Zeros", "config": {}}, "gamma_initializer": {"class_name": "Ones", "config": {}}, "moving_mean_initializer": {"class_name": "Zeros", "config": {}}, "moving_variance_initializer": {"class_name": "Ones", "config": {}}, "beta_regularizer": null, "gamma_regularizer": null, "beta_constraint": null, "gamma_constraint": null}, "name": "BatchNorm1_2_1_0_1", "inbound_nodes": [[["Conv2D_2_1_0_1", 0, 0, {}]]]}, {"class_name": "Activation", "config": {"name": "Act1_2_1_0_1", "trainable": true, "dtype": "float32", "activation": "relu"}, "name": "Act1_2_1_0_1", "inbound_nodes": [[["BatchNorm1_2_1_0_1", 0, 0, {}]]]}, {"class_name": "Conv2D", "config": {"name": "Conv2D_2_1_0_2", "trainable": true, "dtype": "float32", "filters": 64, "kernel_size": [3, 3], "strides": [1, 1], "padding": "same", "data_format": "channels_last", "dilation_rate": [1, 1], "groups": 1, "activation": "linear", "use_bias": true, "kernel_initializer": {"class_name": "HeNormal", "config": {"seed": null}}, "bias_initializer": {"class_name": "Zeros", "config": {}}, "kernel_regularizer": {"class_name": "L2", "config": {"l2": 9.999999747378752e-05}}, "bias_regularizer": null, "activity_regularizer": null, "kernel_constraint": null, "bias_constraint": null}, "name": "Conv2D_2_1_0_2", "inbound_nodes": [[["Act1_2_1_0_1", 0, 0, {}]]]}, {"class_name": "BatchNormalization", "config": {"name": "BatchNorm1_2_1_0_2", "trainable": true, "dtype": "float32", "axis": [3], "momentum": 0.99, "epsilon": 0.001, "center": true, "scale": true, "beta_initializer": {"class_name": "Zeros", "config": {}}, "gamma_initializer": {"class_name": "Ones", "config": {}}, "moving_mean_initializer": {"class_name": "Zeros", "config": {}}, "moving_variance_initializer": {"class_name": "Ones", "config": {}}, "beta_regularizer": null, "gamma_regularizer": null, "beta_constraint": null, "gamma_constraint": null}, "name": "BatchNorm1_2_1_0_2", "inbound_nodes": [[["Conv2D_2_1_0_2", 0, 0, {}]]]}, {"class_name": "Add", "config": {"name": "add_49", "trainable": true, "dtype": "float32"}, "name": "add_49", "inbound_nodes": [[["activation_48", 0, 0, {}], ["BatchNorm1_2_1_0_2", 0, 0, {}]]]}, {"class_name": "Activation", "config": {"name": "activation_49", "trainable": true, "dtype": "float32", "activation": "relu"}, "name": "activation_49", "inbound_nodes": [[["add_49", 0, 0, {}]]]}, {"class_name": "Conv2D", "config": {"name": "Conv2D_2_2_0_1", "trainable": true, "dtype": "float32", "filters": 64, "kernel_size": [3, 3], "strides": [1, 1], "padding": "same", "data_format": "channels_last", "dilation_rate": [1, 1], "groups": 1, "activation": "linear", "use_bias": true, "kernel_initializer": {"class_name": "HeNormal", "config": {"seed": null}}, "bias_initializer": {"class_name": "Zeros", "config": {}}, "kernel_regularizer": {"class_name": "L2", "config": {"l2": 9.999999747378752e-05}}, "bias_regularizer": null, "activity_regularizer": null, "kernel_constraint": null, "bias_constraint": null}, "name": "Conv2D_2_2_0_1", "inbound_nodes": [[["activation_49", 0, 0, {}]]]}, {"class_name": "BatchNormalization", "config": {"name": "BatchNorm1_2_2_0_1", "trainable": true, "dtype": "float32", "axis": [3], "momentum": 0.99, "epsilon": 0.001, "center": true, "scale": true, "beta_initializer": {"class_name": "Zeros", "config": {}}, "gamma_initializer": {"class_name": "Ones", "config": {}}, "moving_mean_initializer": {"class_name": "Zeros", "config": {}}, "moving_variance_initializer": {"class_name": "Ones", "config": {}}, "beta_regularizer": null, "gamma_regularizer": null, "beta_constraint": null, "gamma_constraint": null}, "name": "BatchNorm1_2_2_0_1", "inbound_nodes": [[["Conv2D_2_2_0_1", 0, 0, {}]]]}, {"class_name": "Activation", "config": {"name": "Act1_2_2_0_1", "trainable": true, "dtype": "float32", "activation": "relu"}, "name": "Act1_2_2_0_1", "inbound_nodes": [[["BatchNorm1_2_2_0_1", 0, 0, {}]]]}, {"class_name": "Conv2D", "config": {"name": "Conv2D_2_2_0_2", "trainable": true, "dtype": "float32", "filters": 64, "kernel_size": [3, 3], "strides": [1, 1], "padding": "same", "data_format": "channels_last", "dilation_rate": [1, 1], "groups": 1, "activation": "linear", "use_bias": true, "kernel_initializer": {"class_name": "HeNormal", "config": {"seed": null}}, "bias_initializer": {"class_name": "Zeros", "config": {}}, "kernel_regularizer": {"class_name": "L2", "config": {"l2": 9.999999747378752e-05}}, "bias_regularizer": null, "activity_regularizer": null, "kernel_constraint": null, "bias_constraint": null}, "name": "Conv2D_2_2_0_2", "inbound_nodes": [[["Act1_2_2_0_1", 0, 0, {}]]]}, {"class_name": "BatchNormalization", "config": {"name": "BatchNorm1_2_2_0_2", "trainable": true, "dtype": "float32", "axis": [3], "momentum": 0.99, "epsilon": 0.001, "center": true, "scale": true, "beta_initializer": {"class_name": "Zeros", "config": {}}, "gamma_initializer": {"class_name": "Ones", "config": {}}, "moving_mean_initializer": {"class_name": "Zeros", "config": {}}, "moving_variance_initializer": {"class_name": "Ones", "config": {}}, "beta_regularizer": null, "gamma_regularizer": null, "beta_constraint": null, "gamma_constraint": null}, "name": "BatchNorm1_2_2_0_2", "inbound_nodes": [[["Conv2D_2_2_0_2", 0, 0, {}]]]}, {"class_name": "Add", "config": {"name": "add_50", "trainable": true, "dtype": "float32"}, "name": "add_50", "inbound_nodes": [[["activation_49", 0, 0, {}], ["BatchNorm1_2_2_0_2", 0, 0, {}]]]}, {"class_name": "Activation", "config": {"name": "activation_50", "trainable": true, "dtype": "float32", "activation": "relu"}, "name": "activation_50", "inbound_nodes": [[["add_50", 0, 0, {}]]]}, {"class_name": "Conv2D", "config": {"name": "Conv2D_2_3_0_1", "trainable": true, "dtype": "float32", "filters": 64, "kernel_size": [3, 3], "strides": [1, 1], "padding": "same", "data_format": "channels_last", "dilation_rate": [1, 1], "groups": 1, "activation": "linear", "use_bias": true, "kernel_initializer": {"class_name": "HeNormal", "config": {"seed": null}}, "bias_initializer": {"class_name": "Zeros", "config": {}}, "kernel_regularizer": {"class_name": "L2", "config": {"l2": 9.999999747378752e-05}}, "bias_regularizer": null, "activity_regularizer": null, "kernel_constraint": null, "bias_constraint": null}, "name": "Conv2D_2_3_0_1", "inbound_nodes": [[["activation_50", 0, 0, {}]]]}, {"class_name": "BatchNormalization", "config": {"name": "BatchNorm1_2_3_0_1", "trainable": true, "dtype": "float32", "axis": [3], "momentum": 0.99, "epsilon": 0.001, "center": true, "scale": true, "beta_initializer": {"class_name": "Zeros", "config": {}}, "gamma_initializer": {"class_name": "Ones", "config": {}}, "moving_mean_initializer": {"class_name": "Zeros", "config": {}}, "moving_variance_initializer": {"class_name": "Ones", "config": {}}, "beta_regularizer": null, "gamma_regularizer": null, "beta_constraint": null, "gamma_constraint": null}, "name": "BatchNorm1_2_3_0_1", "inbound_nodes": [[["Conv2D_2_3_0_1", 0, 0, {}]]]}, {"class_name": "Activation", "config": {"name": "Act1_2_3_0_1", "trainable": true, "dtype": "float32", "activation": "relu"}, "name": "Act1_2_3_0_1", "inbound_nodes": [[["BatchNorm1_2_3_0_1", 0, 0, {}]]]}, {"class_name": "Conv2D", "config": {"name": "Conv2D_2_3_0_2", "trainable": true, "dtype": "float32", "filters": 64, "kernel_size": [3, 3], "strides": [1, 1], "padding": "same", "data_format": "channels_last", "dilation_rate": [1, 1], "groups": 1, "activation": "linear", "use_bias": true, "kernel_initializer": {"class_name": "HeNormal", "config": {"seed": null}}, "bias_initializer": {"class_name": "Zeros", "config": {}}, "kernel_regularizer": {"class_name": "L2", "config": {"l2": 9.999999747378752e-05}}, "bias_regularizer": null, "activity_regularizer": null, "kernel_constraint": null, "bias_constraint": null}, "name": "Conv2D_2_3_0_2", "inbound_nodes": [[["Act1_2_3_0_1", 0, 0, {}]]]}, {"class_name": "BatchNormalization", "config": {"name": "BatchNorm1_2_3_0_2", "trainable": true, "dtype": "float32", "axis": [3], "momentum": 0.99, "epsilon": 0.001, "center": true, "scale": true, "beta_initializer": {"class_name": "Zeros", "config": {}}, "gamma_initializer": {"class_name": "Ones", "config": {}}, "moving_mean_initializer": {"class_name": "Zeros", "config": {}}, "moving_variance_initializer": {"class_name": "Ones", "config": {}}, "beta_regularizer": null, "gamma_regularizer": null, "beta_constraint": null, "gamma_constraint": null}, "name": "BatchNorm1_2_3_0_2", "inbound_nodes": [[["Conv2D_2_3_0_2", 0, 0, {}]]]}, {"class_name": "Add", "config": {"name": "add_51", "trainable": true, "dtype": "float32"}, "name": "add_51", "inbound_nodes": [[["activation_50", 0, 0, {}], ["BatchNorm1_2_3_0_2", 0, 0, {}]]]}, {"class_name": "Activation", "config": {"name": "activation_51", "trainable": true, "dtype": "float32", "activation": "relu"}, "name": "activation_51", "inbound_nodes": [[["add_51", 0, 0, {}]]]}, {"class_name": "Conv2D", "config": {"name": "Conv2D_2_4_0_1", "trainable": true, "dtype": "float32", "filters": 64, "kernel_size": [3, 3], "strides": [1, 1], "padding": "same", "data_format": "channels_last", "dilation_rate": [1, 1], "groups": 1, "activation": "linear", "use_bias": true, "kernel_initializer": {"class_name": "HeNormal", "config": {"seed": null}}, "bias_initializer": {"class_name": "Zeros", "config": {}}, "kernel_regularizer": {"class_name": "L2", "config": {"l2": 9.999999747378752e-05}}, "bias_regularizer": null, "activity_regularizer": null, "kernel_constraint": null, "bias_constraint": null}, "name": "Conv2D_2_4_0_1", "inbound_nodes": [[["activation_51", 0, 0, {}]]]}, {"class_name": "BatchNormalization", "config": {"name": "BatchNorm1_2_4_0_1", "trainable": true, "dtype": "float32", "axis": [3], "momentum": 0.99, "epsilon": 0.001, "center": true, "scale": true, "beta_initializer": {"class_name": "Zeros", "config": {}}, "gamma_initializer": {"class_name": "Ones", "config": {}}, "moving_mean_initializer": {"class_name": "Zeros", "config": {}}, "moving_variance_initializer": {"class_name": "Ones", "config": {}}, "beta_regularizer": null, "gamma_regularizer": null, "beta_constraint": null, "gamma_constraint": null}, "name": "BatchNorm1_2_4_0_1", "inbound_nodes": [[["Conv2D_2_4_0_1", 0, 0, {}]]]}, {"class_name": "Activation", "config": {"name": "Act1_2_4_0_1", "trainable": true, "dtype": "float32", "activation": "relu"}, "name": "Act1_2_4_0_1", "inbound_nodes": [[["BatchNorm1_2_4_0_1", 0, 0, {}]]]}, {"class_name": "Conv2D", "config": {"name": "Conv2D_2_4_0_2", "trainable": true, "dtype": "float32", "filters": 64, "kernel_size": [3, 3], "strides": [1, 1], "padding": "same", "data_format": "channels_last", "dilation_rate": [1, 1], "groups": 1, "activation": "linear", "use_bias": true, "kernel_initializer": {"class_name": "HeNormal", "config": {"seed": null}}, "bias_initializer": {"class_name": "Zeros", "config": {}}, "kernel_regularizer": {"class_name": "L2", "config": {"l2": 9.999999747378752e-05}}, "bias_regularizer": null, "activity_regularizer": null, "kernel_constraint": null, "bias_constraint": null}, "name": "Conv2D_2_4_0_2", "inbound_nodes": [[["Act1_2_4_0_1", 0, 0, {}]]]}, {"class_name": "BatchNormalization", "config": {"name": "BatchNorm1_2_4_0_2", "trainable": true, "dtype": "float32", "axis": [3], "momentum": 0.99, "epsilon": 0.001, "center": true, "scale": true, "beta_initializer": {"class_name": "Zeros", "config": {}}, "gamma_initializer": {"class_name": "Ones", "config": {}}, "moving_mean_initializer": {"class_name": "Zeros", "config": {}}, "moving_variance_initializer": {"class_name": "Ones", "config": {}}, "beta_regularizer": null, "gamma_regularizer": null, "beta_constraint": null, "gamma_constraint": null}, "name": "BatchNorm1_2_4_0_2", "inbound_nodes": [[["Conv2D_2_4_0_2", 0, 0, {}]]]}, {"class_name": "Add", "config": {"name": "add_52", "trainable": true, "dtype": "float32"}, "name": "add_52", "inbound_nodes": [[["activation_51", 0, 0, {}], ["BatchNorm1_2_4_0_2", 0, 0, {}]]]}, {"class_name": "Activation", "config": {"name": "activation_52", "trainable": true, "dtype": "float32", "activation": "relu"}, "name": "activation_52", "inbound_nodes": [[["add_52", 0, 0, {}]]]}, {"class_name": "Conv2D", "config": {"name": "Conv2D_2_5_0_1", "trainable": true, "dtype": "float32", "filters": 64, "kernel_size": [3, 3], "strides": [1, 1], "padding": "same", "data_format": "channels_last", "dilation_rate": [1, 1], "groups": 1, "activation": "linear", "use_bias": true, "kernel_initializer": {"class_name": "HeNormal", "config": {"seed": null}}, "bias_initializer": {"class_name": "Zeros", "config": {}}, "kernel_regularizer": {"class_name": "L2", "config": {"l2": 9.999999747378752e-05}}, "bias_regularizer": null, "activity_regularizer": null, "kernel_constraint": null, "bias_constraint": null}, "name": "Conv2D_2_5_0_1", "inbound_nodes": [[["activation_52", 0, 0, {}]]]}, {"class_name": "BatchNormalization", "config": {"name": "BatchNorm1_2_5_0_1", "trainable": true, "dtype": "float32", "axis": [3], "momentum": 0.99, "epsilon": 0.001, "center": true, "scale": true, "beta_initializer": {"class_name": "Zeros", "config": {}}, "gamma_initializer": {"class_name": "Ones", "config": {}}, "moving_mean_initializer": {"class_name": "Zeros", "config": {}}, "moving_variance_initializer": {"class_name": "Ones", "config": {}}, "beta_regularizer": null, "gamma_regularizer": null, "beta_constraint": null, "gamma_constraint": null}, "name": "BatchNorm1_2_5_0_1", "inbound_nodes": [[["Conv2D_2_5_0_1", 0, 0, {}]]]}, {"class_name": "Activation", "config": {"name": "Act1_2_5_0_1", "trainable": true, "dtype": "float32", "activation": "relu"}, "name": "Act1_2_5_0_1", "inbound_nodes": [[["BatchNorm1_2_5_0_1", 0, 0, {}]]]}, {"class_name": "Conv2D", "config": {"name": "Conv2D_2_5_0_2", "trainable": true, "dtype": "float32", "filters": 64, "kernel_size": [3, 3], "strides": [1, 1], "padding": "same", "data_format": "channels_last", "dilation_rate": [1, 1], "groups": 1, "activation": "linear", "use_bias": true, "kernel_initializer": {"class_name": "HeNormal", "config": {"seed": null}}, "bias_initializer": {"class_name": "Zeros", "config": {}}, "kernel_regularizer": {"class_name": "L2", "config": {"l2": 9.999999747378752e-05}}, "bias_regularizer": null, "activity_regularizer": null, "kernel_constraint": null, "bias_constraint": null}, "name": "Conv2D_2_5_0_2", "inbound_nodes": [[["Act1_2_5_0_1", 0, 0, {}]]]}, {"class_name": "BatchNormalization", "config": {"name": "BatchNorm1_2_5_0_2", "trainable": true, "dtype": "float32", "axis": [3], "momentum": 0.99, "epsilon": 0.001, "center": true, "scale": true, "beta_initializer": {"class_name": "Zeros", "config": {}}, "gamma_initializer": {"class_name": "Ones", "config": {}}, "moving_mean_initializer": {"class_name": "Zeros", "config": {}}, "moving_variance_initializer": {"class_name": "Ones", "config": {}}, "beta_regularizer": null, "gamma_regularizer": null, "beta_constraint": null, "gamma_constraint": null}, "name": "BatchNorm1_2_5_0_2", "inbound_nodes": [[["Conv2D_2_5_0_2", 0, 0, {}]]]}, {"class_name": "Add", "config": {"name": "add_53", "trainable": true, "dtype": "float32"}, "name": "add_53", "inbound_nodes": [[["activation_52", 0, 0, {}], ["BatchNorm1_2_5_0_2", 0, 0, {}]]]}, {"class_name": "Activation", "config": {"name": "activation_53", "trainable": true, "dtype": "float32", "activation": "relu"}, "name": "activation_53", "inbound_nodes": [[["add_53", 0, 0, {}]]]}, {"class_name": "Conv2D", "config": {"name": "Conv2D_2_6_0_1", "trainable": true, "dtype": "float32", "filters": 64, "kernel_size": [3, 3], "strides": [1, 1], "padding": "same", "data_format": "channels_last", "dilation_rate": [1, 1], "groups": 1, "activation": "linear", "use_bias": true, "kernel_initializer": {"class_name": "HeNormal", "config": {"seed": null}}, "bias_initializer": {"class_name": "Zeros", "config": {}}, "kernel_regularizer": {"class_name": "L2", "config": {"l2": 9.999999747378752e-05}}, "bias_regularizer": null, "activity_regularizer": null, "kernel_constraint": null, "bias_constraint": null}, "name": "Conv2D_2_6_0_1", "inbound_nodes": [[["activation_53", 0, 0, {}]]]}, {"class_name": "BatchNormalization", "config": {"name": "BatchNorm1_2_6_0_1", "trainable": true, "dtype": "float32", "axis": [3], "momentum": 0.99, "epsilon": 0.001, "center": true, "scale": true, "beta_initializer": {"class_name": "Zeros", "config": {}}, "gamma_initializer": {"class_name": "Ones", "config": {}}, "moving_mean_initializer": {"class_name": "Zeros", "config": {}}, "moving_variance_initializer": {"class_name": "Ones", "config": {}}, "beta_regularizer": null, "gamma_regularizer": null, "beta_constraint": null, "gamma_constraint": null}, "name": "BatchNorm1_2_6_0_1", "inbound_nodes": [[["Conv2D_2_6_0_1", 0, 0, {}]]]}, {"class_name": "Activation", "config": {"name": "Act1_2_6_0_1", "trainable": true, "dtype": "float32", "activation": "relu"}, "name": "Act1_2_6_0_1", "inbound_nodes": [[["BatchNorm1_2_6_0_1", 0, 0, {}]]]}, {"class_name": "Conv2D", "config": {"name": "Conv2D_2_6_0_2", "trainable": true, "dtype": "float32", "filters": 64, "kernel_size": [3, 3], "strides": [1, 1], "padding": "same", "data_format": "channels_last", "dilation_rate": [1, 1], "groups": 1, "activation": "linear", "use_bias": true, "kernel_initializer": {"class_name": "HeNormal", "config": {"seed": null}}, "bias_initializer": {"class_name": "Zeros", "config": {}}, "kernel_regularizer": {"class_name": "L2", "config": {"l2": 9.999999747378752e-05}}, "bias_regularizer": null, "activity_regularizer": null, "kernel_constraint": null, "bias_constraint": null}, "name": "Conv2D_2_6_0_2", "inbound_nodes": [[["Act1_2_6_0_1", 0, 0, {}]]]}, {"class_name": "BatchNormalization", "config": {"name": "BatchNorm1_2_6_0_2", "trainable": true, "dtype": "float32", "axis": [3], "momentum": 0.99, "epsilon": 0.001, "center": true, "scale": true, "beta_initializer": {"class_name": "Zeros", "config": {}}, "gamma_initializer": {"class_name": "Ones", "config": {}}, "moving_mean_initializer": {"class_name": "Zeros", "config": {}}, "moving_variance_initializer": {"class_name": "Ones", "config": {}}, "beta_regularizer": null, "gamma_regularizer": null, "beta_constraint": null, "gamma_constraint": null}, "name": "BatchNorm1_2_6_0_2", "inbound_nodes": [[["Conv2D_2_6_0_2", 0, 0, {}]]]}, {"class_name": "Add", "config": {"name": "add_54", "trainable": true, "dtype": "float32"}, "name": "add_54", "inbound_nodes": [[["activation_53", 0, 0, {}], ["BatchNorm1_2_6_0_2", 0, 0, {}]]]}, {"class_name": "Activation", "config": {"name": "activation_54", "trainable": true, "dtype": "float32", "activation": "relu"}, "name": "activation_54", "inbound_nodes": [[["add_54", 0, 0, {}]]]}, {"class_name": "Conv2D", "config": {"name": "Conv2D_2_7_0_1", "trainable": true, "dtype": "float32", "filters": 64, "kernel_size": [3, 3], "strides": [1, 1], "padding": "same", "data_format": "channels_last", "dilation_rate": [1, 1], "groups": 1, "activation": "linear", "use_bias": true, "kernel_initializer": {"class_name": "HeNormal", "config": {"seed": null}}, "bias_initializer": {"class_name": "Zeros", "config": {}}, "kernel_regularizer": {"class_name": "L2", "config": {"l2": 9.999999747378752e-05}}, "bias_regularizer": null, "activity_regularizer": null, "kernel_constraint": null, "bias_constraint": null}, "name": "Conv2D_2_7_0_1", "inbound_nodes": [[["activation_54", 0, 0, {}]]]}, {"class_name": "BatchNormalization", "config": {"name": "BatchNorm1_2_7_0_1", "trainable": true, "dtype": "float32", "axis": [3], "momentum": 0.99, "epsilon": 0.001, "center": true, "scale": true, "beta_initializer": {"class_name": "Zeros", "config": {}}, "gamma_initializer": {"class_name": "Ones", "config": {}}, "moving_mean_initializer": {"class_name": "Zeros", "config": {}}, "moving_variance_initializer": {"class_name": "Ones", "config": {}}, "beta_regularizer": null, "gamma_regularizer": null, "beta_constraint": null, "gamma_constraint": null}, "name": "BatchNorm1_2_7_0_1", "inbound_nodes": [[["Conv2D_2_7_0_1", 0, 0, {}]]]}, {"class_name": "Activation", "config": {"name": "Act1_2_7_0_1", "trainable": true, "dtype": "float32", "activation": "relu"}, "name": "Act1_2_7_0_1", "inbound_nodes": [[["BatchNorm1_2_7_0_1", 0, 0, {}]]]}, {"class_name": "Conv2D", "config": {"name": "Conv2D_2_7_0_2", "trainable": true, "dtype": "float32", "filters": 64, "kernel_size": [3, 3], "strides": [1, 1], "padding": "same", "data_format": "channels_last", "dilation_rate": [1, 1], "groups": 1, "activation": "linear", "use_bias": true, "kernel_initializer": {"class_name": "HeNormal", "config": {"seed": null}}, "bias_initializer": {"class_name": "Zeros", "config": {}}, "kernel_regularizer": {"class_name": "L2", "config": {"l2": 9.999999747378752e-05}}, "bias_regularizer": null, "activity_regularizer": null, "kernel_constraint": null, "bias_constraint": null}, "name": "Conv2D_2_7_0_2", "inbound_nodes": [[["Act1_2_7_0_1", 0, 0, {}]]]}, {"class_name": "BatchNormalization", "config": {"name": "BatchNorm1_2_7_0_2", "trainable": true, "dtype": "float32", "axis": [3], "momentum": 0.99, "epsilon": 0.001, "center": true, "scale": true, "beta_initializer": {"class_name": "Zeros", "config": {}}, "gamma_initializer": {"class_name": "Ones", "config": {}}, "moving_mean_initializer": {"class_name": "Zeros", "config": {}}, "moving_variance_initializer": {"class_name": "Ones", "config": {}}, "beta_regularizer": null, "gamma_regularizer": null, "beta_constraint": null, "gamma_constraint": null}, "name": "BatchNorm1_2_7_0_2", "inbound_nodes": [[["Conv2D_2_7_0_2", 0, 0, {}]]]}, {"class_name": "Add", "config": {"name": "add_55", "trainable": true, "dtype": "float32"}, "name": "add_55", "inbound_nodes": [[["activation_54", 0, 0, {}], ["BatchNorm1_2_7_0_2", 0, 0, {}]]]}, {"class_name": "Activation", "config": {"name": "activation_55", "trainable": true, "dtype": "float32", "activation": "relu"}, "name": "activation_55", "inbound_nodes": [[["add_55", 0, 0, {}]]]}, {"class_name": "Conv2D", "config": {"name": "Conv2D_2_8_0_1", "trainable": true, "dtype": "float32", "filters": 64, "kernel_size": [3, 3], "strides": [1, 1], "padding": "same", "data_format": "channels_last", "dilation_rate": [1, 1], "groups": 1, "activation": "linear", "use_bias": true, "kernel_initializer": {"class_name": "HeNormal", "config": {"seed": null}}, "bias_initializer": {"class_name": "Zeros", "config": {}}, "kernel_regularizer": {"class_name": "L2", "config": {"l2": 9.999999747378752e-05}}, "bias_regularizer": null, "activity_regularizer": null, "kernel_constraint": null, "bias_constraint": null}, "name": "Conv2D_2_8_0_1", "inbound_nodes": [[["activation_55", 0, 0, {}]]]}, {"class_name": "BatchNormalization", "config": {"name": "BatchNorm1_2_8_0_1", "trainable": true, "dtype": "float32", "axis": [3], "momentum": 0.99, "epsilon": 0.001, "center": true, "scale": true, "beta_initializer": {"class_name": "Zeros", "config": {}}, "gamma_initializer": {"class_name": "Ones", "config": {}}, "moving_mean_initializer": {"class_name": "Zeros", "config": {}}, "moving_variance_initializer": {"class_name": "Ones", "config": {}}, "beta_regularizer": null, "gamma_regularizer": null, "beta_constraint": null, "gamma_constraint": null}, "name": "BatchNorm1_2_8_0_1", "inbound_nodes": [[["Conv2D_2_8_0_1", 0, 0, {}]]]}, {"class_name": "Activation", "config": {"name": "Act1_2_8_0_1", "trainable": true, "dtype": "float32", "activation": "relu"}, "name": "Act1_2_8_0_1", "inbound_nodes": [[["BatchNorm1_2_8_0_1", 0, 0, {}]]]}, {"class_name": "Conv2D", "config": {"name": "Conv2D_2_8_0_2", "trainable": true, "dtype": "float32", "filters": 64, "kernel_size": [3, 3], "strides": [1, 1], "padding": "same", "data_format": "channels_last", "dilation_rate": [1, 1], "groups": 1, "activation": "linear", "use_bias": true, "kernel_initializer": {"class_name": "HeNormal", "config": {"seed": null}}, "bias_initializer": {"class_name": "Zeros", "config": {}}, "kernel_regularizer": {"class_name": "L2", "config": {"l2": 9.999999747378752e-05}}, "bias_regularizer": null, "activity_regularizer": null, "kernel_constraint": null, "bias_constraint": null}, "name": "Conv2D_2_8_0_2", "inbound_nodes": [[["Act1_2_8_0_1", 0, 0, {}]]]}, {"class_name": "BatchNormalization", "config": {"name": "BatchNorm1_2_8_0_2", "trainable": true, "dtype": "float32", "axis": [3], "momentum": 0.99, "epsilon": 0.001, "center": true, "scale": true, "beta_initializer": {"class_name": "Zeros", "config": {}}, "gamma_initializer": {"class_name": "Ones", "config": {}}, "moving_mean_initializer": {"class_name": "Zeros", "config": {}}, "moving_variance_initializer": {"class_name": "Ones", "config": {}}, "beta_regularizer": null, "gamma_regularizer": null, "beta_constraint": null, "gamma_constraint": null}, "name": "BatchNorm1_2_8_0_2", "inbound_nodes": [[["Conv2D_2_8_0_2", 0, 0, {}]]]}, {"class_name": "Add", "config": {"name": "add_56", "trainable": true, "dtype": "float32"}, "name": "add_56", "inbound_nodes": [[["activation_55", 0, 0, {}], ["BatchNorm1_2_8_0_2", 0, 0, {}]]]}, {"class_name": "Activation", "config": {"name": "activation_56", "trainable": true, "dtype": "float32", "activation": "relu"}, "name": "activation_56", "inbound_nodes": [[["add_56", 0, 0, {}]]]}, {"class_name": "AveragePooling2D", "config": {"name": "average_pooling2d_2", "trainable": true, "dtype": "float32", "pool_size": [8, 8], "padding": "valid", "strides": [8, 8], "data_format": "channels_last"}, "name": "average_pooling2d_2", "inbound_nodes": [[["activation_56", 0, 0, {}]]]}, {"class_name": "Flatten", "config": {"name": "flatten_2", "trainable": true, "dtype": "float32", "data_format": "channels_last"}, "name": "flatten_2", "inbound_nodes": [[["average_pooling2d_2", 0, 0, {}]]]}, {"class_name": "Dense", "config": {"name": "dense_2", "trainable": true, "dtype": "float32", "units": 10, "activation": "softmax", "use_bias": true, "kernel_initializer": {"class_name": "HeNormal", "config": {"seed": null}}, "bias_initializer": {"class_name": "Zeros", "config": {}}, "kernel_regularizer": null, "bias_regularizer": null, "activity_regularizer": null, "kernel_constraint": null, "bias_constraint": null}, "name": "dense_2", "inbound_nodes": [[["flatten_2", 0, 0, {}]]]}], "input_layers": [["input_3", 0, 0]], "output_layers": [["dense_2", 0, 0]]}, "keras_version": "2.10.0", "backend": "tensorflow"}