{"class_name": "Functional", "config": {"name": "model_104", "layers": [{"class_name": "InputLayer", "config": {"batch_input_shape": [null, 32, 32, 3], "dtype": "float32", "sparse": false, "ragged": false, "name": "input_6"}, "name": "input_6", "inbound_nodes": []}, {"class_name": "Conv2D", "config": {"name": "Conv2D_", "trainable": true, "dtype": "float32", "filters": 16, "kernel_size": [3, 3], "strides": [1, 1], "padding": "same", "data_format": "channels_last", "dilation_rate": [1, 1], "groups": 1, "activation": "linear", "use_bias": true, "kernel_initializer": {"class_name": "HeNormal", "config": {"seed": null}}, "bias_initializer": {"class_name": "Zeros", "config": {}}, "kernel_regularizer": {"class_name": "L2", "config": {"l2": 9.999999747378752e-05}}, "bias_regularizer": null, "activity_regularizer": null, "kernel_constraint": null, "bias_constraint": null}, "name": "Conv2D_", "inbound_nodes": [[["input_6", 0, 0, {}]]]}, {"class_name": "BatchNormalization", "config": {"name": "BatchNorm1_", "trainable": true, "dtype": "float32", "axis": [3], "momentum": 0.99, "epsilon": 0.001, "center": true, "scale": true, "beta_initializer": {"class_name": "Zeros", "config": {}}, "gamma_initializer": {"class_name": "Ones", "config": {}}, "moving_mean_initializer": {"class_name": "Zeros", "config": {}}, "moving_variance_initializer": {"class_name": "Ones", "config": {}}, "beta_regularizer": null, "gamma_regularizer": null, "beta_constraint": null, "gamma_constraint": null}, "name": "BatchNorm1_", "inbound_nodes": [[["Conv2D_", 0, 0, {}]]]}, {"class_name": "Activation", "config": {"name": "Act1_", "trainable": true, "dtype": "float32", "activation": "relu"}, "name": "Act1_", "inbound_nodes": [[["BatchNorm1_", 0, 0, {}]]]}, {"class_name": "Conv2D", "config": {"name": "Conv2D_0_0_0_1", "trainable": true, "dtype": "float32", "filters": 16, "kernel_size": [3, 3], "strides": [1, 1], "padding": "same", "data_format": "channels_last", "dilation_rate": [1, 1], "groups": 1, "activation": "linear", "use_bias": true, "kernel_initializer": {"class_name": "HeNormal", "config": {"seed": null}}, "bias_initializer": {"class_name": "Zeros", "config": {}}, "kernel_regularizer": {"class_name": "L2", "config": {"l2": 9.999999747378752e-05}}, "bias_regularizer": null, "activity_regularizer": null, "kernel_constraint": null, "bias_constraint": null}, "name": "Conv2D_0_0_0_1", "inbound_nodes": [[["Act1_", 0, 0, {}]]]}, {"class_name": "BatchNormalization", "config": {"name": "BatchNorm1_0_0_0_1", "trainable": true, "dtype": "float32", "axis": [3], "momentum": 0.99, "epsilon": 0.001, "center": true, "scale": true, "beta_initializer": {"class_name": "Zeros", "config": {}}, "gamma_initializer": {"class_name": "Ones", "config": {}}, "moving_mean_initializer": {"class_name": "Zeros", "config": {}}, "moving_variance_initializer": {"class_name": "Ones", "config": {}}, "beta_regularizer": null, "gamma_regularizer": null, "beta_constraint": null, "gamma_constraint": null}, "name": "BatchNorm1_0_0_0_1", "inbound_nodes": [[["Conv2D_0_0_0_1", 0, 0, {}]]]}, {"class_name": "Activation", "config": {"name": "Act1_0_0_0_1", "trainable": true, "dtype": "float32", "activation": "relu"}, "name": "Act1_0_0_0_1", "inbound_nodes": [[["BatchNorm1_0_0_0_1", 0, 0, {}]]]}, {"class_name": "Conv2D", "config": {"name": "Conv2D_0_0_0_2", "trainable": true, "dtype": "float32", "filters": 16, "kernel_size": [3, 3], "strides": [1, 1], "padding": "same", "data_format": "channels_last", "dilation_rate": [1, 1], "groups": 1, "activation": "linear", "use_bias": true, "kernel_initializer": {"class_name": "HeNormal", "config": {"seed": null}}, "bias_initializer": {"class_name": "Zeros", "config": {}}, "kernel_regularizer": {"class_name": "L2", "config": {"l2": 9.999999747378752e-05}}, "bias_regularizer": null, "activity_regularizer": null, "kernel_constraint": null, "bias_constraint": null}, "name": "Conv2D_0_0_0_2", "inbound_nodes": [[["Act1_0_0_0_1", 0, 0, {}]]]}, {"class_name": "BatchNormalization", "config": {"name": "BatchNorm1_0_0_0_2", "trainable": true, "dtype": "float32", "axis": [3], "momentum": 0.99, "epsilon": 0.001, "center": true, "scale": true, "beta_initializer": {"class_name": "Zeros", "config": {}}, "gamma_initializer": {"class_name": "Ones", "config": {}}, "moving_mean_initializer": {"class_name": "Zeros", "config": {}}, "moving_variance_initializer": {"class_name": "Ones", "config": {}}, "beta_regularizer": null, "gamma_regularizer": null, "beta_constraint": null, "gamma_constraint": null}, "name": "BatchNorm1_0_0_0_2", "inbound_nodes": [[["Conv2D_0_0_0_2", 0, 0, {}]]]}, {"class_name": "Add", "config": {"name": "add_90", "trainable": true, "dtype": "float32"}, "name": "add_90", "inbound_nodes": [[["Act1_", 0, 0, {}], ["BatchNorm1_0_0_0_2", 0, 0, {}]]]}, {"class_name": "Activation", "config": {"name": "activation_90", "trainable": true, "dtype": "float32", "activation": "relu"}, "name": "activation_90", "inbound_nodes": [[["add_90", 0, 0, {}]]]}, {"class_name": "Conv2D", "config": {"name": "Conv2D_0_1_0_1", "trainable": true, "dtype": "float32", "filters": 16, "kernel_size": [3, 3], "strides": [1, 1], "padding": "same", "data_format": "channels_last", "dilation_rate": [1, 1], "groups": 1, "activation": "linear", "use_bias": true, "kernel_initializer": {"class_name": "HeNormal", "config": {"seed": null}}, "bias_initializer": {"class_name": "Zeros", "config": {}}, "kernel_regularizer": {"class_name": "L2", "config": {"l2": 9.999999747378752e-05}}, "bias_regularizer": null, "activity_regularizer": null, "kernel_constraint": null, "bias_constraint": null}, "name": "Conv2D_0_1_0_1", "inbound_nodes": [[["activation_90", 0, 0, {}]]]}, {"class_name": "BatchNormalization", "config": {"name": "BatchNorm1_0_1_0_1", "trainable": true, "dtype": "float32", "axis": [3], "momentum": 0.99, "epsilon": 0.001, "center": true, "scale": true, "beta_initializer": {"class_name": "Zeros", "config": {}}, "gamma_initializer": {"class_name": "Ones", "config": {}}, "moving_mean_initializer": {"class_name": "Zeros", "config": {}}, "moving_variance_initializer": {"class_name": "Ones", "config": {}}, "beta_regularizer": null, "gamma_regularizer": null, "beta_constraint": null, "gamma_constraint": null}, "name": "BatchNorm1_0_1_0_1", "inbound_nodes": [[["Conv2D_0_1_0_1", 0, 0, {}]]]}, {"class_name": "Activation", "config": {"name": "Act1_0_1_0_1", "trainable": true, "dtype": "float32", "activation": "relu"}, "name": "Act1_0_1_0_1", "inbound_nodes": [[["BatchNorm1_0_1_0_1", 0, 0, {}]]]}, {"class_name": "Conv2D", "config": {"name": "Conv2D_0_1_0_2", "trainable": true, "dtype": "float32", "filters": 16, "kernel_size": [3, 3], "strides": [1, 1], "padding": "same", "data_format": "channels_last", "dilation_rate": [1, 1], "groups": 1, "activation": "linear", "use_bias": true, "kernel_initializer": {"class_name": "HeNormal", "config": {"seed": null}}, "bias_initializer": {"class_name": "Zeros", "config": {}}, "kernel_regularizer": {"class_name": "L2", "config": {"l2": 9.999999747378752e-05}}, "bias_regularizer": null, "activity_regularizer": null, "kernel_constraint": null, "bias_constraint": null}, "name": "Conv2D_0_1_0_2", "inbound_nodes": [[["Act1_0_1_0_1", 0, 0, {}]]]}, {"class_name": "BatchNormalization", "config": {"name": "BatchNorm1_0_1_0_2", "trainable": true, "dtype": "float32", "axis": [3], "momentum": 0.99, "epsilon": 0.001, "center": true, "scale": true, "beta_initializer": {"class_name": "Zeros", "config": {}}, "gamma_initializer": {"class_name": "Ones", "config": {}}, "moving_mean_initializer": {"class_name": "Zeros", "config": {}}, "moving_variance_initializer": {"class_name": "Ones", "config": {}}, "beta_regularizer": null, "gamma_regularizer": null, "beta_constraint": null, "gamma_constraint": null}, "name": "BatchNorm1_0_1_0_2", "inbound_nodes": [[["Conv2D_0_1_0_2", 0, 0, {}]]]}, {"class_name": "Add", "config": {"name": "add_91", "trainable": true, "dtype": "float32"}, "name": "add_91", "inbound_nodes": [[["activation_90", 0, 0, {}], ["BatchNorm1_0_1_0_2", 0, 0, {}]]]}, {"class_name": "Activation", "config": {"name": "activation_91", "trainable": true, "dtype": "float32", "activation": "relu"}, "name": "activation_91", "inbound_nodes": [[["add_91", 0, 0, {}]]]}, {"class_name": "Conv2D", "config": {"name": "Conv2D_0_2_0_1", "trainable": true, "dtype": "float32", "filters": 16, "kernel_size": [3, 3], "strides": [1, 1], "padding": "same", "data_format": "channels_last", "dilation_rate": [1, 1], "groups": 1, "activation": "linear", "use_bias": true, "kernel_initializer": {"class_name": "HeNormal", "config": {"seed": null}}, "bias_initializer": {"class_name": "Zeros", "config": {}}, "kernel_regularizer": {"class_name": "L2", "config": {"l2": 9.999999747378752e-05}}, "bias_regularizer": null, "activity_regularizer": null, "kernel_constraint": null, "bias_constraint": null}, "name": "Conv2D_0_2_0_1", "inbound_nodes": [[["activation_91", 0, 0, {}]]]}, {"class_name": "BatchNormalization", "config": {"name": "BatchNorm1_0_2_0_1", "trainable": true, "dtype": "float32", "axis": [3], "momentum": 0.99, "epsilon": 0.001, "center": true, "scale": true, "beta_initializer": {"class_name": "Zeros", "config": {}}, "gamma_initializer": {"class_name": "Ones", "config": {}}, "moving_mean_initializer": {"class_name": "Zeros", "config": {}}, "moving_variance_initializer": {"class_name": "Ones", "config": {}}, "beta_regularizer": null, "gamma_regularizer": null, "beta_constraint": null, "gamma_constraint": null}, "name": "BatchNorm1_0_2_0_1", "inbound_nodes": [[["Conv2D_0_2_0_1", 0, 0, {}]]]}, {"class_name": "Activation", "config": {"name": "Act1_0_2_0_1", "trainable": true, "dtype": "float32", "activation": "relu"}, "name": "Act1_0_2_0_1", "inbound_nodes": [[["BatchNorm1_0_2_0_1", 0, 0, {}]]]}, {"class_name": "Conv2D", "config": {"name": "Conv2D_0_2_0_2", "trainable": true, "dtype": "float32", "filters": 16, "kernel_size": [3, 3], "strides": [1, 1], "padding": "same", "data_format": "channels_last", "dilation_rate": [1, 1], "groups": 1, "activation": "linear", "use_bias": true, "kernel_initializer": {"class_name": "HeNormal", "config": {"seed": null}}, "bias_initializer": {"class_name": "Zeros", "config": {}}, "kernel_regularizer": {"class_name": "L2", "config": {"l2": 9.999999747378752e-05}}, "bias_regularizer": null, "activity_regularizer": null, "kernel_constraint": null, "bias_constraint": null}, "name": "Conv2D_0_2_0_2", "inbound_nodes": [[["Act1_0_2_0_1", 0, 0, {}]]]}, {"class_name": "BatchNormalization", "config": {"name": "BatchNorm1_0_2_0_2", "trainable": true, "dtype": "float32", "axis": [3], "momentum": 0.99, "epsilon": 0.001, "center": true, "scale": true, "beta_initializer": {"class_name": "Zeros", "config": {}}, "gamma_initializer": {"class_name": "Ones", "config": {}}, "moving_mean_initializer": {"class_name": "Zeros", "config": {}}, "moving_variance_initializer": {"class_name": "Ones", "config": {}}, "beta_regularizer": null, "gamma_regularizer": null, "beta_constraint": null, "gamma_constraint": null}, "name": "BatchNorm1_0_2_0_2", "inbound_nodes": [[["Conv2D_0_2_0_2", 0, 0, {}]]]}, {"class_name": "Add", "config": {"name": "add_92", "trainable": true, "dtype": "float32"}, "name": "add_92", "inbound_nodes": [[["activation_91", 0, 0, {}], ["BatchNorm1_0_2_0_2", 0, 0, {}]]]}, {"class_name": "Activation", "config": {"name": "activation_92", "trainable": true, "dtype": "float32", "activation": "relu"}, "name": "activation_92", "inbound_nodes": [[["add_92", 0, 0, {}]]]}, {"class_name": "Conv2D", "config": {"name": "Conv2D_0_3_0_1", "trainable": true, "dtype": "float32", "filters": 16, "kernel_size": [3, 3], "strides": [1, 1], "padding": "same", "data_format": "channels_last", "dilation_rate": [1, 1], "groups": 1, "activation": "linear", "use_bias": true, "kernel_initializer": {"class_name": "HeNormal", "config": {"seed": null}}, "bias_initializer": {"class_name": "Zeros", "config": {}}, "kernel_regularizer": {"class_name": "L2", "config": {"l2": 9.999999747378752e-05}}, "bias_regularizer": null, "activity_regularizer": null, "kernel_constraint": null, "bias_constraint": null}, "name": "Conv2D_0_3_0_1", "inbound_nodes": [[["activation_92", 0, 0, {}]]]}, {"class_name": "BatchNormalization", "config": {"name": "BatchNorm1_0_3_0_1", "trainable": true, "dtype": "float32", "axis": [3], "momentum": 0.99, "epsilon": 0.001, "center": true, "scale": true, "beta_initializer": {"class_name": "Zeros", "config": {}}, "gamma_initializer": {"class_name": "Ones", "config": {}}, "moving_mean_initializer": {"class_name": "Zeros", "config": {}}, "moving_variance_initializer": {"class_name": "Ones", "config": {}}, "beta_regularizer": null, "gamma_regularizer": null, "beta_constraint": null, "gamma_constraint": null}, "name": "BatchNorm1_0_3_0_1", "inbound_nodes": [[["Conv2D_0_3_0_1", 0, 0, {}]]]}, {"class_name": "Activation", "config": {"name": "Act1_0_3_0_1", "trainable": true, "dtype": "float32", "activation": "relu"}, "name": "Act1_0_3_0_1", "inbound_nodes": [[["BatchNorm1_0_3_0_1", 0, 0, {}]]]}, {"class_name": "Conv2D", "config": {"name": "Conv2D_0_3_0_2", "trainable": true, "dtype": "float32", "filters": 16, "kernel_size": [3, 3], "strides": [1, 1], "padding": "same", "data_format": "channels_last", "dilation_rate": [1, 1], "groups": 1, "activation": "linear", "use_bias": true, "kernel_initializer": {"class_name": "HeNormal", "config": {"seed": null}}, "bias_initializer": {"class_name": "Zeros", "config": {}}, "kernel_regularizer": {"class_name": "L2", "config": {"l2": 9.999999747378752e-05}}, "bias_regularizer": null, "activity_regularizer": null, "kernel_constraint": null, "bias_constraint": null}, "name": "Conv2D_0_3_0_2", "inbound_nodes": [[["Act1_0_3_0_1", 0, 0, {}]]]}, {"class_name": "BatchNormalization", "config": {"name": "BatchNorm1_0_3_0_2", "trainable": true, "dtype": "float32", "axis": [3], "momentum": 0.99, "epsilon": 0.001, "center": true, "scale": true, "beta_initializer": {"class_name": "Zeros", "config": {}}, "gamma_initializer": {"class_name": "Ones", "config": {}}, "moving_mean_initializer": {"class_name": "Zeros", "config": {}}, "moving_variance_initializer": {"class_name": "Ones", "config": {}}, "beta_regularizer": null, "gamma_regularizer": null, "beta_constraint": null, "gamma_constraint": null}, "name": "BatchNorm1_0_3_0_2", "inbound_nodes": [[["Conv2D_0_3_0_2", 0, 0, {}]]]}, {"class_name": "Add", "config": {"name": "add_93", "trainable": true, "dtype": "float32"}, "name": "add_93", "inbound_nodes": [[["activation_92", 0, 0, {}], ["BatchNorm1_0_3_0_2", 0, 0, {}]]]}, {"class_name": "Activation", "config": {"name": "activation_93", "trainable": true, "dtype": "float32", "activation": "relu"}, "name": "activation_93", "inbound_nodes": [[["add_93", 0, 0, {}]]]}, {"class_name": "Conv2D", "config": {"name": "Conv2D_0_4_0_1", "trainable": true, "dtype": "float32", "filters": 16, "kernel_size": [3, 3], "strides": [1, 1], "padding": "same", "data_format": "channels_last", "dilation_rate": [1, 1], "groups": 1, "activation": "linear", "use_bias": true, "kernel_initializer": {"class_name": "HeNormal", "config": {"seed": null}}, "bias_initializer": {"class_name": "Zeros", "config": {}}, "kernel_regularizer": {"class_name": "L2", "config": {"l2": 9.999999747378752e-05}}, "bias_regularizer": null, "activity_regularizer": null, "kernel_constraint": null, "bias_constraint": null}, "name": "Conv2D_0_4_0_1", "inbound_nodes": [[["activation_93", 0, 0, {}]]]}, {"class_name": "BatchNormalization", "config": {"name": "BatchNorm1_0_4_0_1", "trainable": true, "dtype": "float32", "axis": [3], "momentum": 0.99, "epsilon": 0.001, "center": true, "scale": true, "beta_initializer": {"class_name": "Zeros", "config": {}}, "gamma_initializer": {"class_name": "Ones", "config": {}}, "moving_mean_initializer": {"class_name": "Zeros", "config": {}}, "moving_variance_initializer": {"class_name": "Ones", "config": {}}, "beta_regularizer": null, "gamma_regularizer": null, "beta_constraint": null, "gamma_constraint": null}, "name": "BatchNorm1_0_4_0_1", "inbound_nodes": [[["Conv2D_0_4_0_1", 0, 0, {}]]]}, {"class_name": "Activation", "config": {"name": "Act1_0_4_0_1", "trainable": true, "dtype": "float32", "activation": "relu"}, "name": "Act1_0_4_0_1", "inbound_nodes": [[["BatchNorm1_0_4_0_1", 0, 0, {}]]]}, {"class_name": "Conv2D", "config": {"name": "Conv2D_0_4_0_2", "trainable": true, "dtype": "float32", "filters": 16, "kernel_size": [3, 3], "strides": [1, 1], "padding": "same", "data_format": "channels_last", "dilation_rate": [1, 1], "groups": 1, "activation": "linear", "use_bias": true, "kernel_initializer": {"class_name": "HeNormal", "config": {"seed": null}}, "bias_initializer": {"class_name": "Zeros", "config": {}}, "kernel_regularizer": {"class_name": "L2", "config": {"l2": 9.999999747378752e-05}}, "bias_regularizer": null, "activity_regularizer": null, "kernel_constraint": null, "bias_constraint": null}, "name": "Conv2D_0_4_0_2", "inbound_nodes": [[["Act1_0_4_0_1", 0, 0, {}]]]}, {"class_name": "BatchNormalization", "config": {"name": "BatchNorm1_0_4_0_2", "trainable": true, "dtype": "float32", "axis": [3], "momentum": 0.99, "epsilon": 0.001, "center": true, "scale": true, "beta_initializer": {"class_name": "Zeros", "config": {}}, "gamma_initializer": {"class_name": "Ones", "config": {}}, "moving_mean_initializer": {"class_name": "Zeros", "config": {}}, "moving_variance_initializer": {"class_name": "Ones", "config": {}}, "beta_regularizer": null, "gamma_regularizer": null, "beta_constraint": null, "gamma_constraint": null}, "name": "BatchNorm1_0_4_0_2", "inbound_nodes": [[["Conv2D_0_4_0_2", 0, 0, {}]]]}, {"class_name": "Add", "config": {"name": "add_94", "trainable": true, "dtype": "float32"}, "name": "add_94", "inbound_nodes": [[["activation_93", 0, 0, {}], ["BatchNorm1_0_4_0_2", 0, 0, {}]]]}, {"class_name": "Activation", "config": {"name": "activation_94", "trainable": true, "dtype": "float32", "activation": "relu"}, "name": "activation_94", "inbound_nodes": [[["add_94", 0, 0, {}]]]}, {"class_name": "Conv2D", "config": {"name": "Conv2D_1_0_0_1", "trainable": true, "dtype": "float32", "filters": 32, "kernel_size": [3, 3], "strides": [2, 2], "padding": "same", "data_format": "channels_last", "dilation_rate": [1, 1], "groups": 1, "activation": "linear", "use_bias": true, "kernel_initializer": {"class_name": "HeNormal", "config": {"seed": null}}, "bias_initializer": {"class_name": "Zeros", "config": {}}, "kernel_regularizer": {"class_name": "L2", "config": {"l2": 9.999999747378752e-05}}, "bias_regularizer": null, "activity_regularizer": null, "kernel_constraint": null, "bias_constraint": null}, "name": "Conv2D_1_0_0_1", "inbound_nodes": [[["activation_94", 0, 0, {}]]]}, {"class_name": "BatchNormalization", "config": {"name": "BatchNorm1_1_0_0_1", "trainable": true, "dtype": "float32", "axis": [3], "momentum": 0.99, "epsilon": 0.001, "center": true, "scale": true, "beta_initializer": {"class_name": "Zeros", "config": {}}, "gamma_initializer": {"class_name": "Ones", "config": {}}, "moving_mean_initializer": {"class_name": "Zeros", "config": {}}, "moving_variance_initializer": {"class_name": "Ones", "config": {}}, "beta_regularizer": null, "gamma_regularizer": null, "beta_constraint": null, "gamma_constraint": null}, "name": "BatchNorm1_1_0_0_1", "inbound_nodes": [[["Conv2D_1_0_0_1", 0, 0, {}]]]}, {"class_name": "Activation", "config": {"name": "Act1_1_0_0_1", "trainable": true, "dtype": "float32", "activation": "relu"}, "name": "Act1_1_0_0_1", "inbound_nodes": [[["BatchNorm1_1_0_0_1", 0, 0, {}]]]}, {"class_name": "Conv2D", "config": {"name": "Conv2D_1_0_0_2", "trainable": true, "dtype": "float32", "filters": 32, "kernel_size": [3, 3], "strides": [1, 1], "padding": "same", "data_format": "channels_last", "dilation_rate": [1, 1], "groups": 1, "activation": "linear", "use_bias": true, "kernel_initializer": {"class_name": "HeNormal", "config": {"seed": null}}, "bias_initializer": {"class_name": "Zeros", "config": {}}, "kernel_regularizer": {"class_name": "L2", "config": {"l2": 9.999999747378752e-05}}, "bias_regularizer": null, "activity_regularizer": null, "kernel_constraint": null, "bias_constraint": null}, "name": "Conv2D_1_0_0_2", "inbound_nodes": [[["Act1_1_0_0_1", 0, 0, {}]]]}, {"class_name": "Conv2D", "config": {"name": "Conv2D_1_0_0_3", "trainable": true, "dtype": "float32", "filters": 32, "kernel_size": [1, 1], "strides": [2, 2], "padding": "same", "data_format": "channels_last", "dilation_rate": [1, 1], "groups": 1, "activation": "linear", "use_bias": true, "kernel_initializer": {"class_name": "HeNormal", "config": {"seed": null}}, "bias_initializer": {"class_name": "Zeros", "config": {}}, "kernel_regularizer": {"class_name": "L2", "config": {"l2": 9.999999747378752e-05}}, "bias_regularizer": null, "activity_regularizer": null, "kernel_constraint": null, "bias_constraint": null}, "name": "Conv2D_1_0_0_3", "inbound_nodes": [[["activation_94", 0, 0, {}]]]}, {"class_name": "BatchNormalization", "config": {"name": "BatchNorm1_1_0_0_2", "trainable": true, "dtype": "float32", "axis": [3], "momentum": 0.99, "epsilon": 0.001, "center": true, "scale": true, "beta_initializer": {"class_name": "Zeros", "config": {}}, "gamma_initializer": {"class_name": "Ones", "config": {}}, "moving_mean_initializer": {"class_name": "Zeros", "config": {}}, "moving_variance_initializer": {"class_name": "Ones", "config": {}}, "beta_regularizer": null, "gamma_regularizer": null, "beta_constraint": null, "gamma_constraint": null}, "name": "BatchNorm1_1_0_0_2", "inbound_nodes": [[["Conv2D_1_0_0_2", 0, 0, {}]]]}, {"class_name": "Add", "config": {"name": "add_95", "trainable": true, "dtype": "float32"}, "name": "add_95", "inbound_nodes": [[["Conv2D_1_0_0_3", 0, 0, {}], ["BatchNorm1_1_0_0_2", 0, 0, {}]]]}, {"class_name": "Activation", "config": {"name": "activation_95", "trainable": true, "dtype": "float32", "activation": "relu"}, "name": "activation_95", "inbound_nodes": [[["add_95", 0, 0, {}]]]}, {"class_name": "Conv2D", "config": {"name": "Conv2D_1_1_0_1", "trainable": true, "dtype": "float32", "filters": 32, "kernel_size": [3, 3], "strides": [1, 1], "padding": "same", "data_format": "channels_last", "dilation_rate": [1, 1], "groups": 1, "activation": "linear", "use_bias": true, "kernel_initializer": {"class_name": "HeNormal", "config": {"seed": null}}, "bias_initializer": {"class_name": "Zeros", "config": {}}, "kernel_regularizer": {"class_name": "L2", "config": {"l2": 9.999999747378752e-05}}, "bias_regularizer": null, "activity_regularizer": null, "kernel_constraint": null, "bias_constraint": null}, "name": "Conv2D_1_1_0_1", "inbound_nodes": [[["activation_95", 0, 0, {}]]]}, {"class_name": "BatchNormalization", "config": {"name": "BatchNorm1_1_1_0_1", "trainable": true, "dtype": "float32", "axis": [3], "momentum": 0.99, "epsilon": 0.001, "center": true, "scale": true, "beta_initializer": {"class_name": "Zeros", "config": {}}, "gamma_initializer": {"class_name": "Ones", "config": {}}, "moving_mean_initializer": {"class_name": "Zeros", "config": {}}, "moving_variance_initializer": {"class_name": "Ones", "config": {}}, "beta_regularizer": null, "gamma_regularizer": null, "beta_constraint": null, "gamma_constraint": null}, "name": "BatchNorm1_1_1_0_1", "inbound_nodes": [[["Conv2D_1_1_0_1", 0, 0, {}]]]}, {"class_name": "Activation", "config": {"name": "Act1_1_1_0_1", "trainable": true, "dtype": "float32", "activation": "relu"}, "name": "Act1_1_1_0_1", "inbound_nodes": [[["BatchNorm1_1_1_0_1", 0, 0, {}]]]}, {"class_name": "Conv2D", "config": {"name": "Conv2D_1_1_0_2", "trainable": true, "dtype": "float32", "filters": 32, "kernel_size": [3, 3], "strides": [1, 1], "padding": "same", "data_format": "channels_last", "dilation_rate": [1, 1], "groups": 1, "activation": "linear", "use_bias": true, "kernel_initializer": {"class_name": "HeNormal", "config": {"seed": null}}, "bias_initializer": {"class_name": "Zeros", "config": {}}, "kernel_regularizer": {"class_name": "L2", "config": {"l2": 9.999999747378752e-05}}, "bias_regularizer": null, "activity_regularizer": null, "kernel_constraint": null, "bias_constraint": null}, "name": "Conv2D_1_1_0_2", "inbound_nodes": [[["Act1_1_1_0_1", 0, 0, {}]]]}, {"class_name": "BatchNormalization", "config": {"name": "BatchNorm1_1_1_0_2", "trainable": true, "dtype": "float32", "axis": [3], "momentum": 0.99, "epsilon": 0.001, "center": true, "scale": true, "beta_initializer": {"class_name": "Zeros", "config": {}}, "gamma_initializer": {"class_name": "Ones", "config": {}}, "moving_mean_initializer": {"class_name": "Zeros", "config": {}}, "moving_variance_initializer": {"class_name": "Ones", "config": {}}, "beta_regularizer": null, "gamma_regularizer": null, "beta_constraint": null, "gamma_constraint": null}, "name": "BatchNorm1_1_1_0_2", "inbound_nodes": [[["Conv2D_1_1_0_2", 0, 0, {}]]]}, {"class_name": "Add", "config": {"name": "add_96", "trainable": true, "dtype": "float32"}, "name": "add_96", "inbound_nodes": [[["activation_95", 0, 0, {}], ["BatchNorm1_1_1_0_2", 0, 0, {}]]]}, {"class_name": "Activation", "config": {"name": "activation_96", "trainable": true, "dtype": "float32", "activation": "relu"}, "name": "activation_96", "inbound_nodes": [[["add_96", 0, 0, {}]]]}, {"class_name": "Conv2D", "config": {"name": "Conv2D_1_2_0_1", "trainable": true, "dtype": "float32", "filters": 32, "kernel_size": [3, 3], "strides": [1, 1], "padding": "same", "data_format": "channels_last", "dilation_rate": [1, 1], "groups": 1, "activation": "linear", "use_bias": true, "kernel_initializer": {"class_name": "HeNormal", "config": {"seed": null}}, "bias_initializer": {"class_name": "Zeros", "config": {}}, "kernel_regularizer": {"class_name": "L2", "config": {"l2": 9.999999747378752e-05}}, "bias_regularizer": null, "activity_regularizer": null, "kernel_constraint": null, "bias_constraint": null}, "name": "Conv2D_1_2_0_1", "inbound_nodes": [[["activation_96", 0, 0, {}]]]}, {"class_name": "BatchNormalization", "config": {"name": "BatchNorm1_1_2_0_1", "trainable": true, "dtype": "float32", "axis": [3], "momentum": 0.99, "epsilon": 0.001, "center": true, "scale": true, "beta_initializer": {"class_name": "Zeros", "config": {}}, "gamma_initializer": {"class_name": "Ones", "config": {}}, "moving_mean_initializer": {"class_name": "Zeros", "config": {}}, "moving_variance_initializer": {"class_name": "Ones", "config": {}}, "beta_regularizer": null, "gamma_regularizer": null, "beta_constraint": null, "gamma_constraint": null}, "name": "BatchNorm1_1_2_0_1", "inbound_nodes": [[["Conv2D_1_2_0_1", 0, 0, {}]]]}, {"class_name": "Activation", "config": {"name": "Act1_1_2_0_1", "trainable": true, "dtype": "float32", "activation": "relu"}, "name": "Act1_1_2_0_1", "inbound_nodes": [[["BatchNorm1_1_2_0_1", 0, 0, {}]]]}, {"class_name": "Conv2D", "config": {"name": "Conv2D_1_2_0_2", "trainable": true, "dtype": "float32", "filters": 32, "kernel_size": [3, 3], "strides": [1, 1], "padding": "same", "data_format": "channels_last", "dilation_rate": [1, 1], "groups": 1, "activation": "linear", "use_bias": true, "kernel_initializer": {"class_name": "HeNormal", "config": {"seed": null}}, "bias_initializer": {"class_name": "Zeros", "config": {}}, "kernel_regularizer": {"class_name": "L2", "config": {"l2": 9.999999747378752e-05}}, "bias_regularizer": null, "activity_regularizer": null, "kernel_constraint": null, "bias_constraint": null}, "name": "Conv2D_1_2_0_2", "inbound_nodes": [[["Act1_1_2_0_1", 0, 0, {}]]]}, {"class_name": "BatchNormalization", "config": {"name": "BatchNorm1_1_2_0_2", "trainable": true, "dtype": "float32", "axis": [3], "momentum": 0.99, "epsilon": 0.001, "center": true, "scale": true, "beta_initializer": {"class_name": "Zeros", "config": {}}, "gamma_initializer": {"class_name": "Ones", "config": {}}, "moving_mean_initializer": {"class_name": "Zeros", "config": {}}, "moving_variance_initializer": {"class_name": "Ones", "config": {}}, "beta_regularizer": null, "gamma_regularizer": null, "beta_constraint": null, "gamma_constraint": null}, "name": "BatchNorm1_1_2_0_2", "inbound_nodes": [[["Conv2D_1_2_0_2", 0, 0, {}]]]}, {"class_name": "Add", "config": {"name": "add_97", "trainable": true, "dtype": "float32"}, "name": "add_97", "inbound_nodes": [[["activation_96", 0, 0, {}], ["BatchNorm1_1_2_0_2", 0, 0, {}]]]}, {"class_name": "Activation", "config": {"name": "activation_97", "trainable": true, "dtype": "float32", "activation": "relu"}, "name": "activation_97", "inbound_nodes": [[["add_97", 0, 0, {}]]]}, {"class_name": "Conv2D", "config": {"name": "Conv2D_2_0_0_1", "trainable": true, "dtype": "float32", "filters": 64, "kernel_size": [3, 3], "strides": [2, 2], "padding": "same", "data_format": "channels_last", "dilation_rate": [1, 1], "groups": 1, "activation": "linear", "use_bias": true, "kernel_initializer": {"class_name": "HeNormal", "config": {"seed": null}}, "bias_initializer": {"class_name": "Zeros", "config": {}}, "kernel_regularizer": {"class_name": "L2", "config": {"l2": 9.999999747378752e-05}}, "bias_regularizer": null, "activity_regularizer": null, "kernel_constraint": null, "bias_constraint": null}, "name": "Conv2D_2_0_0_1", "inbound_nodes": [[["activation_97", 0, 0, {}]]]}, {"class_name": "BatchNormalization", "config": {"name": "BatchNorm1_2_0_0_1", "trainable": true, "dtype": "float32", "axis": [3], "momentum": 0.99, "epsilon": 0.001, "center": true, "scale": true, "beta_initializer": {"class_name": "Zeros", "config": {}}, "gamma_initializer": {"class_name": "Ones", "config": {}}, "moving_mean_initializer": {"class_name": "Zeros", "config": {}}, "moving_variance_initializer": {"class_name": "Ones", "config": {}}, "beta_regularizer": null, "gamma_regularizer": null, "beta_constraint": null, "gamma_constraint": null}, "name": "BatchNorm1_2_0_0_1", "inbound_nodes": [[["Conv2D_2_0_0_1", 0, 0, {}]]]}, {"class_name": "Activation", "config": {"name": "Act1_2_0_0_1", "trainable": true, "dtype": "float32", "activation": "relu"}, "name": "Act1_2_0_0_1", "inbound_nodes": [[["BatchNorm1_2_0_0_1", 0, 0, {}]]]}, {"class_name": "Conv2D", "config": {"name": "Conv2D_2_0_0_2", "trainable": true, "dtype": "float32", "filters": 64, "kernel_size": [3, 3], "strides": [1, 1], "padding": "same", "data_format": "channels_last", "dilation_rate": [1, 1], "groups": 1, "activation": "linear", "use_bias": true, "kernel_initializer": {"class_name": "HeNormal", "config": {"seed": null}}, "bias_initializer": {"class_name": "Zeros", "config": {}}, "kernel_regularizer": {"class_name": "L2", "config": {"l2": 9.999999747378752e-05}}, "bias_regularizer": null, "activity_regularizer": null, "kernel_constraint": null, "bias_constraint": null}, "name": "Conv2D_2_0_0_2", "inbound_nodes": [[["Act1_2_0_0_1", 0, 0, {}]]]}, {"class_name": "Conv2D", "config": {"name": "Conv2D_2_0_0_3", "trainable": true, "dtype": "float32", "filters": 64, "kernel_size": [1, 1], "strides": [2, 2], "padding": "same", "data_format": "channels_last", "dilation_rate": [1, 1], "groups": 1, "activation": "linear", "use_bias": true, "kernel_initializer": {"class_name": "HeNormal", "config": {"seed": null}}, "bias_initializer": {"class_name": "Zeros", "config": {}}, "kernel_regularizer": {"class_name": "L2", "config": {"l2": 9.999999747378752e-05}}, "bias_regularizer": null, "activity_regularizer": null, "kernel_constraint": null, "bias_constraint": null}, "name": "Conv2D_2_0_0_3", "inbound_nodes": [[["activation_97", 0, 0, {}]]]}, {"class_name": "BatchNormalization", "config": {"name": "BatchNorm1_2_0_0_2", "trainable": true, "dtype": "float32", "axis": [3], "momentum": 0.99, "epsilon": 0.001, "center": true, "scale": true, "beta_initializer": {"class_name": "Zeros", "config": {}}, "gamma_initializer": {"class_name": "Ones", "config": {}}, "moving_mean_initializer": {"class_name": "Zeros", "config": {}}, "moving_variance_initializer": {"class_name": "Ones", "config": {}}, "beta_regularizer": null, "gamma_regularizer": null, "beta_constraint": null, "gamma_constraint": null}, "name": "BatchNorm1_2_0_0_2", "inbound_nodes": [[["Conv2D_2_0_0_2", 0, 0, {}]]]}, {"class_name": "Add", "config": {"name": "add_98", "trainable": true, "dtype": "float32"}, "name": "add_98", "inbound_nodes": [[["Conv2D_2_0_0_3", 0, 0, {}], ["BatchNorm1_2_0_0_2", 0, 0, {}]]]}, {"class_name": "Activation", "config": {"name": "activation_98", "trainable": true, "dtype": "float32", "activation": "relu"}, "name": "activation_98", "inbound_nodes": [[["add_98", 0, 0, {}]]]}, {"class_name": "Conv2D", "config": {"name": "Conv2D_2_1_0_1", "trainable": true, "dtype": "float32", "filters": 64, "kernel_size": [3, 3], "strides": [1, 1], "padding": "same", "data_format": "channels_last", "dilation_rate": [1, 1], "groups": 1, "activation": "linear", "use_bias": true, "kernel_initializer": {"class_name": "HeNormal", "config": {"seed": null}}, "bias_initializer": {"class_name": "Zeros", "config": {}}, "kernel_regularizer": {"class_name": "L2", "config": {"l2": 9.999999747378752e-05}}, "bias_regularizer": null, "activity_regularizer": null, "kernel_constraint": null, "bias_constraint": null}, "name": "Conv2D_2_1_0_1", "inbound_nodes": [[["activation_98", 0, 0, {}]]]}, {"class_name": "BatchNormalization", "config": {"name": "BatchNorm1_2_1_0_1", "trainable": true, "dtype": "float32", "axis": [3], "momentum": 0.99, "epsilon": 0.001, "center": true, "scale": true, "beta_initializer": {"class_name": "Zeros", "config": {}}, "gamma_initializer": {"class_name": "Ones", "config": {}}, "moving_mean_initializer": {"class_name": "Zeros", "config": {}}, "moving_variance_initializer": {"class_name": "Ones", "config": {}}, "beta_regularizer": null, "gamma_regularizer": null, "beta_constraint": null, "gamma_constraint": null}, "name": "BatchNorm1_2_1_0_1", "inbound_nodes": [[["Conv2D_2_1_0_1", 0, 0, {}]]]}, {"class_name": "Activation", "config": {"name": "Act1_2_1_0_1", "trainable": true, "dtype": "float32", "activation": "relu"}, "name": "Act1_2_1_0_1", "inbound_nodes": [[["BatchNorm1_2_1_0_1", 0, 0, {}]]]}, {"class_name": "Conv2D", "config": {"name": "Conv2D_2_1_0_2", "trainable": true, "dtype": "float32", "filters": 64, "kernel_size": [3, 3], "strides": [1, 1], "padding": "same", "data_format": "channels_last", "dilation_rate": [1, 1], "groups": 1, "activation": "linear", "use_bias": true, "kernel_initializer": {"class_name": "HeNormal", "config": {"seed": null}}, "bias_initializer": {"class_name": "Zeros", "config": {}}, "kernel_regularizer": {"class_name": "L2", "config": {"l2": 9.999999747378752e-05}}, "bias_regularizer": null, "activity_regularizer": null, "kernel_constraint": null, "bias_constraint": null}, "name": "Conv2D_2_1_0_2", "inbound_nodes": [[["Act1_2_1_0_1", 0, 0, {}]]]}, {"class_name": "BatchNormalization", "config": {"name": "BatchNorm1_2_1_0_2", "trainable": true, "dtype": "float32", "axis": [3], "momentum": 0.99, "epsilon": 0.001, "center": true, "scale": true, "beta_initializer": {"class_name": "Zeros", "config": {}}, "gamma_initializer": {"class_name": "Ones", "config": {}}, "moving_mean_initializer": {"class_name": "Zeros", "config": {}}, "moving_variance_initializer": {"class_name": "Ones", "config": {}}, "beta_regularizer": null, "gamma_regularizer": null, "beta_constraint": null, "gamma_constraint": null}, "name": "BatchNorm1_2_1_0_2", "inbound_nodes": [[["Conv2D_2_1_0_2", 0, 0, {}]]]}, {"class_name": "Add", "config": {"name": "add_99", "trainable": true, "dtype": "float32"}, "name": "add_99", "inbound_nodes": [[["activation_98", 0, 0, {}], ["BatchNorm1_2_1_0_2", 0, 0, {}]]]}, {"class_name": "Activation", "config": {"name": "activation_99", "trainable": true, "dtype": "float32", "activation": "relu"}, "name": "activation_99", "inbound_nodes": [[["add_99", 0, 0, {}]]]}, {"class_name": "Conv2D", "config": {"name": "Conv2D_2_2_0_1", "trainable": true, "dtype": "float32", "filters": 64, "kernel_size": [3, 3], "strides": [1, 1], "padding": "same", "data_format": "channels_last", "dilation_rate": [1, 1], "groups": 1, "activation": "linear", "use_bias": true, "kernel_initializer": {"class_name": "HeNormal", "config": {"seed": null}}, "bias_initializer": {"class_name": "Zeros", "config": {}}, "kernel_regularizer": {"class_name": "L2", "config": {"l2": 9.999999747378752e-05}}, "bias_regularizer": null, "activity_regularizer": null, "kernel_constraint": null, "bias_constraint": null}, "name": "Conv2D_2_2_0_1", "inbound_nodes": [[["activation_99", 0, 0, {}]]]}, {"class_name": "BatchNormalization", "config": {"name": "BatchNorm1_2_2_0_1", "trainable": true, "dtype": "float32", "axis": [3], "momentum": 0.99, "epsilon": 0.001, "center": true, "scale": true, "beta_initializer": {"class_name": "Zeros", "config": {}}, "gamma_initializer": {"class_name": "Ones", "config": {}}, "moving_mean_initializer": {"class_name": "Zeros", "config": {}}, "moving_variance_initializer": {"class_name": "Ones", "config": {}}, "beta_regularizer": null, "gamma_regularizer": null, "beta_constraint": null, "gamma_constraint": null}, "name": "BatchNorm1_2_2_0_1", "inbound_nodes": [[["Conv2D_2_2_0_1", 0, 0, {}]]]}, {"class_name": "Activation", "config": {"name": "Act1_2_2_0_1", "trainable": true, "dtype": "float32", "activation": "relu"}, "name": "Act1_2_2_0_1", "inbound_nodes": [[["BatchNorm1_2_2_0_1", 0, 0, {}]]]}, {"class_name": "Conv2D", "config": {"name": "Conv2D_2_2_0_2", "trainable": true, "dtype": "float32", "filters": 64, "kernel_size": [3, 3], "strides": [1, 1], "padding": "same", "data_format": "channels_last", "dilation_rate": [1, 1], "groups": 1, "activation": "linear", "use_bias": true, "kernel_initializer": {"class_name": "HeNormal", "config": {"seed": null}}, "bias_initializer": {"class_name": "Zeros", "config": {}}, "kernel_regularizer": {"class_name": "L2", "config": {"l2": 9.999999747378752e-05}}, "bias_regularizer": null, "activity_regularizer": null, "kernel_constraint": null, "bias_constraint": null}, "name": "Conv2D_2_2_0_2", "inbound_nodes": [[["Act1_2_2_0_1", 0, 0, {}]]]}, {"class_name": "BatchNormalization", "config": {"name": "BatchNorm1_2_2_0_2", "trainable": true, "dtype": "float32", "axis": [3], "momentum": 0.99, "epsilon": 0.001, "center": true, "scale": true, "beta_initializer": {"class_name": "Zeros", "config": {}}, "gamma_initializer": {"class_name": "Ones", "config": {}}, "moving_mean_initializer": {"class_name": "Zeros", "config": {}}, "moving_variance_initializer": {"class_name": "Ones", "config": {}}, "beta_regularizer": null, "gamma_regularizer": null, "beta_constraint": null, "gamma_constraint": null}, "name": "BatchNorm1_2_2_0_2", "inbound_nodes": [[["Conv2D_2_2_0_2", 0, 0, {}]]]}, {"class_name": "Add", "config": {"name": "add_100", "trainable": true, "dtype": "float32"}, "name": "add_100", "inbound_nodes": [[["activation_99", 0, 0, {}], ["BatchNorm1_2_2_0_2", 0, 0, {}]]]}, {"class_name": "Activation", "config": {"name": "activation_100", "trainable": true, "dtype": "float32", "activation": "relu"}, "name": "activation_100", "inbound_nodes": [[["add_100", 0, 0, {}]]]}, {"class_name": "Conv2D", "config": {"name": "Conv2D_2_3_0_1", "trainable": true, "dtype": "float32", "filters": 64, "kernel_size": [3, 3], "strides": [1, 1], "padding": "same", "data_format": "channels_last", "dilation_rate": [1, 1], "groups": 1, "activation": "linear", "use_bias": true, "kernel_initializer": {"class_name": "HeNormal", "config": {"seed": null}}, "bias_initializer": {"class_name": "Zeros", "config": {}}, "kernel_regularizer": {"class_name": "L2", "config": {"l2": 9.999999747378752e-05}}, "bias_regularizer": null, "activity_regularizer": null, "kernel_constraint": null, "bias_constraint": null}, "name": "Conv2D_2_3_0_1", "inbound_nodes": [[["activation_100", 0, 0, {}]]]}, {"class_name": "BatchNormalization", "config": {"name": "BatchNorm1_2_3_0_1", "trainable": true, "dtype": "float32", "axis": [3], "momentum": 0.99, "epsilon": 0.001, "center": true, "scale": true, "beta_initializer": {"class_name": "Zeros", "config": {}}, "gamma_initializer": {"class_name": "Ones", "config": {}}, "moving_mean_initializer": {"class_name": "Zeros", "config": {}}, "moving_variance_initializer": {"class_name": "Ones", "config": {}}, "beta_regularizer": null, "gamma_regularizer": null, "beta_constraint": null, "gamma_constraint": null}, "name": "BatchNorm1_2_3_0_1", "inbound_nodes": [[["Conv2D_2_3_0_1", 0, 0, {}]]]}, {"class_name": "Activation", "config": {"name": "Act1_2_3_0_1", "trainable": true, "dtype": "float32", "activation": "relu"}, "name": "Act1_2_3_0_1", "inbound_nodes": [[["BatchNorm1_2_3_0_1", 0, 0, {}]]]}, {"class_name": "Conv2D", "config": {"name": "Conv2D_2_3_0_2", "trainable": true, "dtype": "float32", "filters": 64, "kernel_size": [3, 3], "strides": [1, 1], "padding": "same", "data_format": "channels_last", "dilation_rate": [1, 1], "groups": 1, "activation": "linear", "use_bias": true, "kernel_initializer": {"class_name": "HeNormal", "config": {"seed": null}}, "bias_initializer": {"class_name": "Zeros", "config": {}}, "kernel_regularizer": {"class_name": "L2", "config": {"l2": 9.999999747378752e-05}}, "bias_regularizer": null, "activity_regularizer": null, "kernel_constraint": null, "bias_constraint": null}, "name": "Conv2D_2_3_0_2", "inbound_nodes": [[["Act1_2_3_0_1", 0, 0, {}]]]}, {"class_name": "BatchNormalization", "config": {"name": "BatchNorm1_2_3_0_2", "trainable": true, "dtype": "float32", "axis": [3], "momentum": 0.99, "epsilon": 0.001, "center": true, "scale": true, "beta_initializer": {"class_name": "Zeros", "config": {}}, "gamma_initializer": {"class_name": "Ones", "config": {}}, "moving_mean_initializer": {"class_name": "Zeros", "config": {}}, "moving_variance_initializer": {"class_name": "Ones", "config": {}}, "beta_regularizer": null, "gamma_regularizer": null, "beta_constraint": null, "gamma_constraint": null}, "name": "BatchNorm1_2_3_0_2", "inbound_nodes": [[["Conv2D_2_3_0_2", 0, 0, {}]]]}, {"class_name": "Add", "config": {"name": "add_101", "trainable": true, "dtype": "float32"}, "name": "add_101", "inbound_nodes": [[["activation_100", 0, 0, {}], ["BatchNorm1_2_3_0_2", 0, 0, {}]]]}, {"class_name": "Activation", "config": {"name": "activation_101", "trainable": true, "dtype": "float32", "activation": "relu"}, "name": "activation_101", "inbound_nodes": [[["add_101", 0, 0, {}]]]}, {"class_name": "Conv2D", "config": {"name": "Conv2D_2_4_0_1", "trainable": true, "dtype": "float32", "filters": 64, "kernel_size": [3, 3], "strides": [1, 1], "padding": "same", "data_format": "channels_last", "dilation_rate": [1, 1], "groups": 1, "activation": "linear", "use_bias": true, "kernel_initializer": {"class_name": "HeNormal", "config": {"seed": null}}, "bias_initializer": {"class_name": "Zeros", "config": {}}, "kernel_regularizer": {"class_name": "L2", "config": {"l2": 9.999999747378752e-05}}, "bias_regularizer": null, "activity_regularizer": null, "kernel_constraint": null, "bias_constraint": null}, "name": "Conv2D_2_4_0_1", "inbound_nodes": [[["activation_101", 0, 0, {}]]]}, {"class_name": "BatchNormalization", "config": {"name": "BatchNorm1_2_4_0_1", "trainable": true, "dtype": "float32", "axis": [3], "momentum": 0.99, "epsilon": 0.001, "center": true, "scale": true, "beta_initializer": {"class_name": "Zeros", "config": {}}, "gamma_initializer": {"class_name": "Ones", "config": {}}, "moving_mean_initializer": {"class_name": "Zeros", "config": {}}, "moving_variance_initializer": {"class_name": "Ones", "config": {}}, "beta_regularizer": null, "gamma_regularizer": null, "beta_constraint": null, "gamma_constraint": null}, "name": "BatchNorm1_2_4_0_1", "inbound_nodes": [[["Conv2D_2_4_0_1", 0, 0, {}]]]}, {"class_name": "Activation", "config": {"name": "Act1_2_4_0_1", "trainable": true, "dtype": "float32", "activation": "relu"}, "name": "Act1_2_4_0_1", "inbound_nodes": [[["BatchNorm1_2_4_0_1", 0, 0, {}]]]}, {"class_name": "Conv2D", "config": {"name": "Conv2D_2_4_0_2", "trainable": true, "dtype": "float32", "filters": 64, "kernel_size": [3, 3], "strides": [1, 1], "padding": "same", "data_format": "channels_last", "dilation_rate": [1, 1], "groups": 1, "activation": "linear", "use_bias": true, "kernel_initializer": {"class_name": "HeNormal", "config": {"seed": null}}, "bias_initializer": {"class_name": "Zeros", "config": {}}, "kernel_regularizer": {"class_name": "L2", "config": {"l2": 9.999999747378752e-05}}, "bias_regularizer": null, "activity_regularizer": null, "kernel_constraint": null, "bias_constraint": null}, "name": "Conv2D_2_4_0_2", "inbound_nodes": [[["Act1_2_4_0_1", 0, 0, {}]]]}, {"class_name": "BatchNormalization", "config": {"name": "BatchNorm1_2_4_0_2", "trainable": true, "dtype": "float32", "axis": [3], "momentum": 0.99, "epsilon": 0.001, "center": true, "scale": true, "beta_initializer": {"class_name": "Zeros", "config": {}}, "gamma_initializer": {"class_name": "Ones", "config": {}}, "moving_mean_initializer": {"class_name": "Zeros", "config": {}}, "moving_variance_initializer": {"class_name": "Ones", "config": {}}, "beta_regularizer": null, "gamma_regularizer": null, "beta_constraint": null, "gamma_constraint": null}, "name": "BatchNorm1_2_4_0_2", "inbound_nodes": [[["Conv2D_2_4_0_2", 0, 0, {}]]]}, {"class_name": "Add", "config": {"name": "add_102", "trainable": true, "dtype": "float32"}, "name": "add_102", "inbound_nodes": [[["activation_101", 0, 0, {}], ["BatchNorm1_2_4_0_2", 0, 0, {}]]]}, {"class_name": "Activation", "config": {"name": "activation_102", "trainable": true, "dtype": "float32", "activation": "relu"}, "name": "activation_102", "inbound_nodes": [[["add_102", 0, 0, {}]]]}, {"class_name": "Conv2D", "config": {"name": "Conv2D_2_5_0_1", "trainable": true, "dtype": "float32", "filters": 64, "kernel_size": [3, 3], "strides": [1, 1], "padding": "same", "data_format": "channels_last", "dilation_rate": [1, 1], "groups": 1, "activation": "linear", "use_bias": true, "kernel_initializer": {"class_name": "HeNormal", "config": {"seed": null}}, "bias_initializer": {"class_name": "Zeros", "config": {}}, "kernel_regularizer": {"class_name": "L2", "config": {"l2": 9.999999747378752e-05}}, "bias_regularizer": null, "activity_regularizer": null, "kernel_constraint": null, "bias_constraint": null}, "name": "Conv2D_2_5_0_1", "inbound_nodes": [[["activation_102", 0, 0, {}]]]}, {"class_name": "BatchNormalization", "config": {"name": "BatchNorm1_2_5_0_1", "trainable": true, "dtype": "float32", "axis": [3], "momentum": 0.99, "epsilon": 0.001, "center": true, "scale": true, "beta_initializer": {"class_name": "Zeros", "config": {}}, "gamma_initializer": {"class_name": "Ones", "config": {}}, "moving_mean_initializer": {"class_name": "Zeros", "config": {}}, "moving_variance_initializer": {"class_name": "Ones", "config": {}}, "beta_regularizer": null, "gamma_regularizer": null, "beta_constraint": null, "gamma_constraint": null}, "name": "BatchNorm1_2_5_0_1", "inbound_nodes": [[["Conv2D_2_5_0_1", 0, 0, {}]]]}, {"class_name": "Activation", "config": {"name": "Act1_2_5_0_1", "trainable": true, "dtype": "float32", "activation": "relu"}, "name": "Act1_2_5_0_1", "inbound_nodes": [[["BatchNorm1_2_5_0_1", 0, 0, {}]]]}, {"class_name": "Conv2D", "config": {"name": "Conv2D_2_5_0_2", "trainable": true, "dtype": "float32", "filters": 64, "kernel_size": [3, 3], "strides": [1, 1], "padding": "same", "data_format": "channels_last", "dilation_rate": [1, 1], "groups": 1, "activation": "linear", "use_bias": true, "kernel_initializer": {"class_name": "HeNormal", "config": {"seed": null}}, "bias_initializer": {"class_name": "Zeros", "config": {}}, "kernel_regularizer": {"class_name": "L2", "config": {"l2": 9.999999747378752e-05}}, "bias_regularizer": null, "activity_regularizer": null, "kernel_constraint": null, "bias_constraint": null}, "name": "Conv2D_2_5_0_2", "inbound_nodes": [[["Act1_2_5_0_1", 0, 0, {}]]]}, {"class_name": "BatchNormalization", "config": {"name": "BatchNorm1_2_5_0_2", "trainable": true, "dtype": "float32", "axis": [3], "momentum": 0.99, "epsilon": 0.001, "center": true, "scale": true, "beta_initializer": {"class_name": "Zeros", "config": {}}, "gamma_initializer": {"class_name": "Ones", "config": {}}, "moving_mean_initializer": {"class_name": "Zeros", "config": {}}, "moving_variance_initializer": {"class_name": "Ones", "config": {}}, "beta_regularizer": null, "gamma_regularizer": null, "beta_constraint": null, "gamma_constraint": null}, "name": "BatchNorm1_2_5_0_2", "inbound_nodes": [[["Conv2D_2_5_0_2", 0, 0, {}]]]}, {"class_name": "Add", "config": {"name": "add_103", "trainable": true, "dtype": "float32"}, "name": "add_103", "inbound_nodes": [[["activation_102", 0, 0, {}], ["BatchNorm1_2_5_0_2", 0, 0, {}]]]}, {"class_name": "Activation", "config": {"name": "activation_103", "trainable": true, "dtype": "float32", "activation": "relu"}, "name": "activation_103", "inbound_nodes": [[["add_103", 0, 0, {}]]]}, {"class_name": "Conv2D", "config": {"name": "Conv2D_2_6_0_1", "trainable": true, "dtype": "float32", "filters": 64, "kernel_size": [3, 3], "strides": [1, 1], "padding": "same", "data_format": "channels_last", "dilation_rate": [1, 1], "groups": 1, "activation": "linear", "use_bias": true, "kernel_initializer": {"class_name": "HeNormal", "config": {"seed": null}}, "bias_initializer": {"class_name": "Zeros", "config": {}}, "kernel_regularizer": {"class_name": "L2", "config": {"l2": 9.999999747378752e-05}}, "bias_regularizer": null, "activity_regularizer": null, "kernel_constraint": null, "bias_constraint": null}, "name": "Conv2D_2_6_0_1", "inbound_nodes": [[["activation_103", 0, 0, {}]]]}, {"class_name": "BatchNormalization", "config": {"name": "BatchNorm1_2_6_0_1", "trainable": true, "dtype": "float32", "axis": [3], "momentum": 0.99, "epsilon": 0.001, "center": true, "scale": true, "beta_initializer": {"class_name": "Zeros", "config": {}}, "gamma_initializer": {"class_name": "Ones", "config": {}}, "moving_mean_initializer": {"class_name": "Zeros", "config": {}}, "moving_variance_initializer": {"class_name": "Ones", "config": {}}, "beta_regularizer": null, "gamma_regularizer": null, "beta_constraint": null, "gamma_constraint": null}, "name": "BatchNorm1_2_6_0_1", "inbound_nodes": [[["Conv2D_2_6_0_1", 0, 0, {}]]]}, {"class_name": "Activation", "config": {"name": "Act1_2_6_0_1", "trainable": true, "dtype": "float32", "activation": "relu"}, "name": "Act1_2_6_0_1", "inbound_nodes": [[["BatchNorm1_2_6_0_1", 0, 0, {}]]]}, {"class_name": "Conv2D", "config": {"name": "Conv2D_2_6_0_2", "trainable": true, "dtype": "float32", "filters": 64, "kernel_size": [3, 3], "strides": [1, 1], "padding": "same", "data_format": "channels_last", "dilation_rate": [1, 1], "groups": 1, "activation": "linear", "use_bias": true, "kernel_initializer": {"class_name": "HeNormal", "config": {"seed": null}}, "bias_initializer": {"class_name": "Zeros", "config": {}}, "kernel_regularizer": {"class_name": "L2", "config": {"l2": 9.999999747378752e-05}}, "bias_regularizer": null, "activity_regularizer": null, "kernel_constraint": null, "bias_constraint": null}, "name": "Conv2D_2_6_0_2", "inbound_nodes": [[["Act1_2_6_0_1", 0, 0, {}]]]}, {"class_name": "BatchNormalization", "config": {"name": "BatchNorm1_2_6_0_2", "trainable": true, "dtype": "float32", "axis": [3], "momentum": 0.99, "epsilon": 0.001, "center": true, "scale": true, "beta_initializer": {"class_name": "Zeros", "config": {}}, "gamma_initializer": {"class_name": "Ones", "config": {}}, "moving_mean_initializer": {"class_name": "Zeros", "config": {}}, "moving_variance_initializer": {"class_name": "Ones", "config": {}}, "beta_regularizer": null, "gamma_regularizer": null, "beta_constraint": null, "gamma_constraint": null}, "name": "BatchNorm1_2_6_0_2", "inbound_nodes": [[["Conv2D_2_6_0_2", 0, 0, {}]]]}, {"class_name": "Add", "config": {"name": "add_104", "trainable": true, "dtype": "float32"}, "name": "add_104", "inbound_nodes": [[["activation_103", 0, 0, {}], ["BatchNorm1_2_6_0_2", 0, 0, {}]]]}, {"class_name": "Activation", "config": {"name": "activation_104", "trainable": true, "dtype": "float32", "activation": "relu"}, "name": "activation_104", "inbound_nodes": [[["add_104", 0, 0, {}]]]}, {"class_name": "AveragePooling2D", "config": {"name": "average_pooling2d_5", "trainable": true, "dtype": "float32", "pool_size": [8, 8], "padding": "valid", "strides": [8, 8], "data_format": "channels_last"}, "name": "average_pooling2d_5", "inbound_nodes": [[["activation_104", 0, 0, {}]]]}, {"class_name": "Flatten", "config": {"name": "flatten_5", "trainable": true, "dtype": "float32", "data_format": "channels_last"}, "name": "flatten_5", "inbound_nodes": [[["average_pooling2d_5", 0, 0, {}]]]}, {"class_name": "Dense", "config": {"name": "dense_5", "trainable": true, "dtype": "float32", "units": 10, "activation": "softmax", "use_bias": true, "kernel_initializer": {"class_name": "HeNormal", "config": {"seed": null}}, "bias_initializer": {"class_name": "Zeros", "config": {}}, "kernel_regularizer": null, "bias_regularizer": null, "activity_regularizer": null, "kernel_constraint": null, "bias_constraint": null}, "name": "dense_5", "inbound_nodes": [[["flatten_5", 0, 0, {}]]]}], "input_layers": [["input_6", 0, 0]], "output_layers": [["dense_5", 0, 0]]}, "keras_version": "2.10.0", "backend": "tensorflow"}